model5/DOMAC/agent_2/119actor_params.pkl (torch, 144687 bytes, 18 tensors)

fc1.weight f4 [64, 156]
0	0x3ce47933	0.027889824
1	0xbd05f6f5	-0.03270622
2	0xba6faa4f	-0.00091425044
3	0x3d01d247	0.031694677
4	0xbca90b21	-0.02063519
5	0xbd619d2c	-0.05508153
6	0x3d3ddfb5	0.04635592
7	0xbd2c41fa	-0.042055108
8	0xb7d8a7b9	-2.5827308e-05
9	0x3c8ebe19	0.01742463
10	0xbcb4d2b0	-0.02207312
11	0x3d52d992	0.051477022
12	0x3c30101b	0.010746027
13	0xbc388164	-0.011261318
14	0x3c129e90	0.008948937
15	0xbd8e2341	-0.06940318
16	0x3dd9ea51	0.106403954
17	0x3d8c2bf1	0.06844319
18	0xbcd07eb0	-0.025451034
19	0xbd743bca	-0.05962733
20	0x3d8e8bcc	0.06960258
21	0xbd50444c	-0.050846383
22	0xbd670e63	-0.056410205
23	0x3d59bcb3	0.053158473
24	0x3d5651cb	0.052324098
25	0xbcd0181d	-0.025402123
26	0xbc319cc5	-0.010840599
27	0x3d5183bb	0.05115102
28	0x3d5dbf6a	0.054137625
29	0x3d525eb7	0.05135986
30	0xbd773b13	-0.060359072
31	0x3cd9d9e9	0.026593165
32	0x3becf7d2	0.007231691
33	0xbd99506e	-0.07486044
34	0xbd997015	-0.07492081
35	0xbdb545f1	-0.08851231
36	0x3d3805fa	0.044927575
37	0xbdb1ecbc	-0.086877316
38	0xbd817cfb	-0.06322666
39	0x3bf86791	0.0075807055
40	0x3da63ab4	0.081166655
41	0xbc8389ee	-0.016056981
42	0xbd90ac78	-0.07064146
43	0xbdcc70d1	-0.099824555
44	0xbca69c75	-0.020338276
45	0xbd321f01	-0.0434866
46	0x3ae1eb12	0.0017236194
47	0xbdb61daf	-0.088923804
48	0xbd58bb1f	-0.052912828
49	0x3ddb5785	0.107100524
50	0x3dcb8afb	0.09938618
51	0x3d396769	0.045264635
52	0x3d2c44a9	0.042057667
53	0x3cb9971d	0.022655064
54	0x3dccd5c1	0.10001708
55	0xbdca798a	-0.09886463
56	0xbdbb8844	-0.0915685
57	0x3de1157d	0.10990427
58	0x3d8898af	0.06669747
59	0xbcc52aac	-0.0240682
60	0x3c880399	0.016603278
61	0xbcdeb571	-0.027186127
62	0x3d2b12ad	0.041765857
63	0x3da7470a	0.081678465
64	0x3d81e5e4	0.06342676
65	0xbce2aeb8	-0.027671203
66	0xbd6ec79b	-0.058295827
67	0x3d998e01	0.07497788
68	0x3dcbe7cc	0.09956321
69	0xbcbc7bb3	-0.023008203
70	0xbd948012	-0.0725099
71	0xbc2b8fb2	-0.010471271
72	0xbd1f66cf	-0.038916405
73	0xbdce498f	-0.10072624
74	0xbc5c32cf	-0.013439848
75	0x3d873ea6	0.06603746
76	0xbcd05676	-0.025431853
77	0x3dadbf1a	0.08483715
78	0x3d18cfa7	0.037307408
79	0x3d91332e	0.0708984
80	0x3d4da3fb	0.050205212
81	0xbd18f3bc	-0.03734182
82	0x3d311e91	0.04324204
83	0xb91d2db6	-0.00014989715
84	0xbd515560	-0.05110681
85	0x3d8a922f	0.067661636
86	0xbd3cc23b	-0.04608367
87	0x3ca1562e	0.019694414
88	0x3c0f84e1	0.008759708
89	0x3c60bd7e	0.013717053
90	0x3d58ee2c	0.052961513
91	0x3cc6af08	0.024253383
92	0x3d645901	0.055748943
93	0xbc91c097	-0.01779203
94	0x3d836699	0.06416053
95	0xbc319cf1	-0.01084064
96	0xbd32b850	-0.043632805
97	0xbdbfcc76	-0.0936517
98	0xbde94280	-0.11389637
99	0x3d660a6f	0.056162294
100	0x3d241fc8	0.04006937
101	0x3d72ab9c	0.05924569
102	0x3d2e3e39	0.04253981
103	0xbb5762a6	-0.0032865196
104	0x3dd790ff	0.10525703
105	0x3db914da	0.0903718
106	0xbddcf4a6	-0.107888505
107	0xba9ae20c	-0.0011816635
108	0x3cc2d5da	0.023783613
109	0xbd22117f	-0.039567467
110	0xbced1e7a	-0.028945196
111	0xbc992ac9	-0.01869716
112	0xbdaf9e0f	-0.08575069
113	0xbc8871cb	-0.016655823
114	0x3dcf3192	0.10116877
115	0xbded5082	-0.11587621
116	0x3d723b7d	0.059138764
117	0xbde38cda	-0.1111085
118	0x3bbe0df6	0.005800004
119	0xbd38e3ad	-0.045139004
120	0x3c7ca39f	0.01541987
121	0xbced79e2	-0.028988782
122	0x3d9921ac	0.074771255
123	0x3d0b8154	0.034058884
124	0xbd911b36	-0.07085268
125	0x3d2b95ea	0.041891016
126	0x3d07ad70	0.033124387
127	0x3d8888a8	0.0666669
128	0x3940b4f4	0.00018377957
129	0x3a4626b3	0.0007558867
130	0xbdc3445a	-0.095345214
131	0x3de37ed3	0.11108174
132	0x3d8857f8	0.06657404
133	0xbb1e8ac5	-0.00241916
134	0xbd7a02bc	-0.061037764
135	0xbd75d0dd	-0.06001364
136	0xbdd9bf3e	-0.1063218
137	0x3da0f63f	0.07859468
138	0xbd126768	-0.035743147
139	0x3c2b5437	0.01045709
140	0x3cd61961	0.026135148
141	0xbb12bce9	-0.0022390431
142	0x3d6ed6ec	0.058310434
143	0x3d67f794	0.056632593
144	0x3dd3928f	0.10330688
145	0x3d2e3b92	0.04253728
146	0x3d122ed0	0.035689175
147	0xbd1bc9df	-0.038034316
148	0xbd555964	-0.052087203
149	0xbd294532	-0.041325755
150	0x3c62d4e0	0.013844699
151	0x3d09e614	0.033666685
152	0x3db873a7	0.09006434
153	0x3c92ad6a	0.017904956
154	0xbd463e90	-0.048399508
155	0xbd9293cb	-0.071570955
156	0x3ddbed76	0.107386515
157	0xbbcc17c0	-0.006228417
158	0xbc9208cf	-0.017826466
159	0xbd29cc29	-0.041454468
160	0xbd868892	-0.065690175
161	0x3c4b2746	0.0123995
162	0x3d906127	0.0704978
163	0xbd866007	-0.065612845
164	0xbdd526af	-0.10407769
165	0xbd06ca4a	-0.03290776
166	0xbd3b620e	-0.04574781
167	0x3db5b19c	0.08871767
168	0x3b851951	0.004061856
169	0xbdbfbe90	-0.09362519
170	0x3ca8c56c	0.02060195
171	0x3d4ec7b5	0.050483424
172	0x3d305cf7	0.04305741
173	0xbd27135c	-0.040789947
174	0x3d497fe2	0.049194224
175	0xbde99a75	-0.114064135
176	0x3dc2f655	0.0951964
177	0x3c8729db	0.01649945
178	0x3cbc1e97	0.022963805
179	0x3b488c3a	0.003060116
180	0xbcf5ce0b	-0.030005476
181	0x3d2507ff	0.04029083
182	0x3dbb600b	0.09149178
183	0x3c846481	0.016161205
184	0x3c88742f	0.016656963
185	0xbcd7282b	-0.02626427
186	0xbd8569de	-0.06514333
187	0x3d200c11	0.039074007
188	0x3cabaa25	0.020955155
189	0xbd8583b7	-0.06519263
190	0x3c6f3721	0.014600546
191	0xbddc5f53	-0.10760369
192	0x3c6fb3fd	0.014630315
193	0xbd8906c8	-0.066907465
194	0xbc4210cd	-0.011844826
195	0xbdba74d4	-0.091043144
196	0x3d536f67	0.051619913
197	0x3d59eaea	0.053202547
198	0xbd09d317	-0.033648577
199	0xbdbdb5d3	-0.09263196
200	0xbcdf1d62	-0.02723569
201	0xbde811d6	-0.11331527
202	0xbd39dd76	-0.045377217
203	0xbd0e1104	-0.034684196
204	0xbd517613	-0.051137995
205	0x3d075b99	0.03304634
206	0x3d27efe7	0.041000273
207	0x3b791df2	0.0038012234
208	0x3dc4a95f	0.096026175
209	0xbdec92de	-0.1155145
210	0x3dc6a0e0	0.09698653
211	0xbc8654ab	-0.016397795
212	0x3d212b09	0.039347682
213	0x3ded2e15	0.11581055
214	0x3c8202ef	0.01587054
215	0xbd9d0328	-0.07666618
216	0x3bc2a3d3	0.0059399395
217	0x3dbccbbc	0.09218547
218	0x3d4410bf	0.047867533
219	0x3c354688	0.011064179
220	0x3d79d2d9	0.060992096
221	0xbd96516f	-0.07339751
222	0xbdd37606	-0.103252456
223	0x3dc0e724	0.094190866
224	0x3d6f9279	0.058489297
225	0x3cdc12bc	0.026864402
226	0xbb2f8337	-0.002678109
227	0xbc50d6eb	-0.012746553
228	0xbd9cbaf5	-0.07652847
229	0xbcc0b077	-0.023521645
230	0x3dc8c0e8	0.09802419
231	0xbc91a288	-0.017777696
232	0x3df778b1	0.12083567
233	0x3d8422e6	0.06451969
234	0x3d01b2bd	0.0316646
235	0xbd09ba2f	-0.033624824
236	0x3c316b86	0.010828858
237	0x3dab5a3c	0.0836682
238	0x3b9b2803	0.0047349944
239	0x3d6d6da1	0.05796588
240	0xbde6621b	-0.11249181
241	0xbd315d43	-0.043301832
242	0xbddf2213	-0.10895171
243	0xbd3ddf53	-0.046355557
244	0x3ce630ce	0.028099444
245	0xbdadee54	-0.08492723
246	0x3dff3949	0.12462098
247	0xbdd7c8a9	-0.1053632
248	0xbcd2fd7e	-0.02575564
249	0xbd4350f6	-0.047684632
250	0x3b9f938f	0.0048698853
251	0xbd116ce5	-0.03550424
252	0xbc85515d	-0.016274149
253	0xbce8b54f	-0.028406767
254	0x3cb58bc4	0.022161372
255	0xbda78715	-0.08180062

fc1.bias f4 [64]
0	0x3d0ff265	0.035143275
1	0x3d6b3783	0.057425987
2	0xbcce1221	-0.025155129
3	0x3d03d253	0.032183003
4	0x3cb9c161	0.022675218
5	0x3d4ff64a	0.05077199
6	0x3ddff9f9	0.109363504
7	0xbd57c090	-0.052673876
8	0x3cb7c8b0	0.022434562
9	0x3db31925	0.0874503
10	0x3c975ea5	0.018477747
11	0xbd560c2d	-0.052257705
12	0x3cab419c	0.020905308
13	0x3d80b9db	0.06285449
14	0xbc6738d6	-0.014112672
15	0xbce1861c	-0.027529769
16	0xbd0d9b2c	-0.03457181
17	0xbcadaf34	-0.021201707
18	0x3c1de082	0.009636046
19	0x3d8aeb44	0.067831546
20	0x3d06e0b0	0.032929122
21	0x3d2a759c	0.041616067
22	0xbd05850c	-0.032597587
23	0x3d411556	0.04713949
24	0xbda11f70	-0.07867324
25	0x3c5848af	0.013200923
26	0x3d8f92c8	0.07010418
27	0x3ca71341	0.020394923
28	0x3d85494e	0.065081224
29	0xbb92d1ec	-0.004480591
30	0x3d933b22	0.07189013
31	0x3dcd628c	0.10028562
32	0x3cd267a6	0.025684189
33	0x3d7a05f6	0.06104084
34	0x3cb83fbe	0.022491332
35	0x3dad29c8	0.08455235
36	0xbc2a68be	-0.010400949
37	0xbd464966	-0.048409842
38	0x3c2a789e	0.010404734
39	0x3d4f62df	0.0506314
40	0xbd270606	-0.04077723
41	0xbd753614	-0.059866026
42	0xbd965d72	-0.07342042
43	0xbd437fc3	-0.047729265
44	0x3d454ac2	0.048166998
45	0xbd107e4a	-0.03527669
46	0xbda5831c	-0.08081648
47	0xbccf20b9	-0.025284158
48	0x3bb187c0	0.005417794
49	0x3d1838c3	0.037163507
50	0xbceb0887	-0.02869059
51	0x3cf6b61d	0.030116135
52	0xbcc08a49	-0.02350344
53	0xbd4bd2dd	-0.04976164
54	0x3bcd637d	0.0062679634
55	0xbd89879c	-0.067153186
56	0x3d47322a	0.048631825
57	0x3ab408e4	0.001373556
58	0xbda27093	-0.07931628
59	0x3be2ec2e	0.0069251275
60	0x3ce32abd	0.02773034
61	0x3c04b164	0.008098934
62	0x3c89ccc0	0.016821265
63	0xbb9b90b2	-0.0047474736

fc2.weight f4 [64, 64]
0	0x3e154e3d	0.14580627
1	0x3dcfa64f	0.10139143
2	0x3d5019e4	0.05080594
3	0x3dda784d	0.10667477
4	0x3d88eb0f	0.06685459
5	0x3de17a70	0.11009681
6	0x3df50a94	0.11964908
7	0xbb3f3580	-0.0029176176
8	0xbd1207ed	-0.03565209
9	0xbd94db33	-0.072683714
10	0x3c5a89bc	0.0133385025
11	0xbdc30514	-0.09522453
12	0xbd42de14	-0.04757507
13	0xbdddbd2b	-0.108270966
14	0xbd415ae5	-0.047205824
15	0x3e31c891	0.17361666
16	0xbcacae9e	-0.021079358
17	0xbd9b885a	-0.07594366
18	0x3c199a43	0.009375158
19	0xbb6ee8aa	-0.0036454597
20	0xbdec73d7	-0.11545532
21	0x3e25e934	0.16202241
22	0xbd5c4a05	-0.053781528
23	0xbdb99746	-0.09062056
24	0xbd740d34	-0.059582904
25	0xbd474155	-0.04864629
26	0x3d181993	0.037133764
27	0x3d961d3f	0.07329797
28	0xbd36353d	-0.044484366
29	0xbdcb9ed5	-0.09942404
30	0x3dee364d	0.11631451
31	0x3d4b71ec	0.04966919
32	0x3cd9b943	0.026577597
33	0x3d94ab1a	0.072591975
34	0xbdf27d6e	-0.1184033
35	0x3e0d9228	0.13825285
36	0xbdc1356c	-0.094340175
37	0xbcddf842	-0.027095918
38	0x3dd02afb	0.10164448
39	0xbd6737ea	-0.05644981
40	0x3d201296	0.039080225
41	0x3dd2f8e0	0.103013754
42	0xbddd6df8	-0.108119905
43	0xbd7ed5f2	-0.062215753
44	0xbd8ac2ab	-0.06775411
45	0xbd82dd8c	-0.06389913
46	0x3d7d1e97	0.06179675
47	0xbdcceb24	-0.10005787
48	0x3e2bd30e	0.1677973
49	0xbd5bba1c	-0.053644285
50	0x3e1cd49c	0.15315479
51	0xbd7966be	-0.060889
52	0x3d117105	0.035508174
53	0x3cac925a	0.02106588
54	0xbd8335b1	-0.06406725
55	0xbcb75343	-0.02237857
56	0xbc7718ac	-0.015081566
57	0x3dbed80f	0.09318554
58	0x3d5b2b00	0.053507805
59	0xbc0a64ed	-0.008446914
60	0xbd4afd60	-0.049558043
61	0xbcd92f6b	-0.026511868
62	0xbd9197a6	-0.07109003
63	0xbd6c3740	-0.057669878
64	0xbdfa2f01	-0.122159965
65	0xbded3f0a	-0.11584289
66	0xbdc41550	-0.095743775
67	0xbda7a460	-0.08185649
68	0x3dcb23ff	0.09918975
69	0xbb53d1b7	-0.0032321045
70	0x3cd6c3db	0.026216438
71	0x3d7d8598	0.061894983
72	0x3d843b97	0.06456678
73	0x3d9db031	0.076996215
74	0x3dd9929c	0.10623667
75	0xbdcafe9c	-0.09911844
76	0xbc17e748	-0.00927145
77	0x3d93f71a	0.07224865
78	0x3d980011	0.07421888
79	0xbdfa2de9	-0.12215788
80	0x3d1a7d1a	0.037716962
81	0x3d6f818b	0.05847315
82	0xbdd58c3c	-0.10427138
83	0x3d9cf5a0	0.07664037
84	0xbbc9fe29	-0.0061643315
85	0xbdf7e408	-0.121040404
86	0x3dd83474	0.1055688
87	0xbd8ca154	-0.068667084
88	0xbdb68e9c	-0.08913919
89	0x3d0d5ede	0.0345143
90	0xbdb2d97c	-0.08732888
91	0xbba357af	-0.004984818
92	0x3c96b6b6	0.01839767
93	0x3bab2757	0.0052231955
94	0xbd39bd6a	-0.045346655
95	0xbd795427	-0.06087127
96	0xbdde90dd	-0.10867474
97	0xbbef3c5f	-0.007300898
98	0x3ad20d4c	0.0016025691
99	0xbe01a665	-0.1266113
100	0xbdfdb032	-0.12387122
101	0x3dccbb61	0.09996677
102	0xbc1a8d2e	-0.009433074
103	0xbc38fd24	-0.011290822
104	0xbd2cbef8	-0.04217431
105	0xbdb74514	-0.089487225
106	0x3bd17e2b	0.006393214
107	0xbd2f8be1	-0.04285801
108	0x3df85440	0.121254444
109	0x3db4efac	0.08834776
110	0x3d91e7d2	0.07124294
111	0xbd92515f	-0.071444266
112	0xbc61f64c	-0.013791632
113	0x3db7d015	0.089752354
114	0x3ddc4113	0.107545994
115	0x3dbfa7bf	0.09358167
116	0xbd90a7dd	-0.070632674
117	0x3d86fc67	0.06591111
118	0xbd13cf1d	-0.03608619
119	0xbdb66a26	-0.08906965
120	0x38c25b13	9.267605e-05
121	0x3cb46493	0.022020614
122	0x3de8af7e	0.113615975
123	0xbcc44934	-0.023960687
124	0xbcf3b282	-0.029748205
125	0xbd0fca1a	-0.03510485
126	0x3d7ecb96	0.062205873
127	0x3d9ec362	0.0775211
128	0xbdd53b74	-0.104117304
129	0xbda18570	-0.07886779
130	0xbdbb83dd	-0.0915601
131	0x3c17e786	0.009271508
132	0x3b9426fe	0.00452125
133	0xbddb8fb6	-0.1072077
134	0x3d4c9c20	0.04995358
135	0x3cf089f0	0.029362649
136	0x3bad8259	0.0052950797
137	0x3d459881	0.048241142
138	0x3dbb8cdb	0.091577254
139	0x3d8ab41b	0.06772634
140	0x3cccd07f	0.025001762
141	0x3d31f3ba	0.043445326
142	0xbdbb9042	-0.09158374
143	0xbdf8e17f	-0.12152385
144	0xbde4ec04	-0.11177829
145	0x3d4b44d7	0.049626198
146	0xbd94d28d	-0.07266722
147	0x3cceb1be	0.025231238
148	0x3dc32a81	0.09529591
149	0x39c07f9d	0.00036716173
150	0xbdb19fe4	-0.08673075
151	0x3d5ae6e2	0.053442843
152	0xbcd49ee7	-0.025954677
153	0x3d627653	0.055288624
154	0xbdde8c95	-0.10866658
155	0xbd83faec	-0.06444344
156	0xbdcb9f2b	-0.09942468
157	0x3db4ceec	0.0882853
158	0x3cc926d9	0.024554657
159	0xbdacc515	-0.08436028
160	0xbcfea368	-0.031083778
161	0x3d302b5e	0.04301011
162	0x3d9f2858	0.07771367
163	0xbcff3b40	-0.031156182
164	0xbde5c324	-0.11218861
165	0xbdde7777	-0.1086263
166	0x3da2ff4f	0.079588525
167	0x3a574164	0.0008211343
168	0x3d99d523	0.07511356
169	0x3dcf7dc1	0.101314075
170	0xbd1686c1	-0.036749605
171	0xbc93f9e0	-0.018063486
172	0xbd8550e4	-0.06509569
173	0x3cb3cecd	0.021949196
174	0xbd8e7d01	-0.06957436
175	0x3cc99713	0.02460817
176	0x3b4b3326	0.0031005829
177	0xbd85db27	-0.065359406
178	0x3db516a3	0.08842208
179	0xbdc162f2	-0.094427004
180	0xbdc22ed5	-0.09481589
181	0xbd16f753	-0.03685696
182	0x3d9fc374	0.078009516
183	0xbdac89f4	-0.0842475
184	0x3d4ec9a0	0.050485253
185	0xbc96d31e	-0.018411215
186	0x3d2ebce9	0.042660628
187	0x3dc464a2	0.09589507
188	0xbcbf7a9e	-0.023373898
189	0xbd9f6bae	-0.0778421
190	0xbc123407	-0.008923537
191	0xbd027546	-0.031850122
192	0xbdd03704	-0.101667434
193	0xbc8bbcff	-0.017057894
194	0x3d212cb1	0.03934926
195	0xbd1c0939	-0.038094733
196	0x3dcdeb4c	0.10054645
197	0x3cd93168	0.026512817
198	0x3df85b2b	0.12126764
199	0xbdd32d96	-0.10311429
200	0x3daf10fb	0.08548161
201	0x3d49a184	0.0492263
202	0x3dbecac7	0.093160205
203	0xbcbd71f0	-0.023125619
204	0xbd3f557c	-0.046712384
205	0xbcee2590	-0.029070646
206	0xbd69bd4b	-0.05706529
207	0xbd89fe9d	-0.06738017
208	0xbdcf91fc	-0.10135266
209	0x3d0e467c	0.034735188
210	0xbdda4053	-0.106568
211	0xbd121ea8	-0.035673767
212	0xbc6f543a	-0.0146074835
213	0xbcf25a0a	-0.02958395
214	0x3cfb7fb0	0.030700535
215	0xbdb2d16c	-0.0873135
216	0x3dab410a	0.083620146
217	0x3c83d898	0.01609449
218	0xbd07690f	-0.033059176
219	0x3de1922c	0.11014208
220	0xbd54e045	-0.051971693
221	0xbd4ccb6c	-0.049998686
222	0xbcfc7f48	-0.030822411
223	0xbdd6c7c4	-0.10487321
224	0xbded55d8	-0.11588639
225	0xbd395740	-0.045249224
226	0x3ceb36f0	0.02871272
227	0x3d7c0eb6	0.061537467
228	0x3dc8d9dc	0.098071784
229	0x3d33e330	0.043917835
230	0xbc09f0c0	-0.008419216
231	0x3da1973a	0.07890172
232	0x3ddaf252	0.1069075
233	0xbdbfcde2	-0.09365441
234	0xbde6ffd8	-0.11279267
235	0xbd9e3468	-0.077248394
236	0x3d7b8c5c	0.061413154
237	0xbd055ca4	-0.032559052
238	0xbd8e6680	-0.06953144
239	0xbdda6116	-0.10663049
240	0xbd14d7a4	-0.036338463
241	0x3dacbae9	0.08434088
242	0xbdb8b98e	-0.09019767
243	0x3db4a03d	0.088196255
244	0xbd6be12f	-0.0575878
245	0xbda0bc4d	-0.078484155
246	0x3c752a80	0.014963746
247	0x3cd2b690	0.025721818
248	0x3d4b81b3	0.049684238
249	0xbdfc0167	-0.12304955
250	0x3db2391c	0.08702299
251	0x3d4c9480	0.049946308
252	0xbb4790ac	-0.0030451221
253	0x3dde927e	0.10867785
254	0xbd29612c	-0.041352436
255	0x3dabf616	0.083965465

fc2.bias f4 [64]
0	0x3df80c1a	0.12111683
1	0xbc8fba8a	-0.017545003
2	0x3dea434d	0.11438618
3	0xbd4c6609	-0.049901996
4	0x3b3f35a1	0.0029176252
5	0xbb301a5c	-0.002687118
6	0xbb56fd57	-0.003280481
7	0xbdeec0ec	-0.11657891
8	0xbd0a3b2f	-0.033747848
9	0xbd948b8f	-0.07253181
10	0xbdfc92b0	-0.12332666
11	0x3dfdca67	0.12392121
12	0x3d32fc12	0.043697424
13	0xbd5194dc	-0.051167354
14	0x3d999af2	0.075002566
15	0x3d15be90	0.036558688
16	0xbdd1ba9c	-0.10240671
17	0x3d4763c4	0.04867913
18	0x3db2112f	0.08694684
19	0x3dc79298	0.097447574
20	0x3d87fa81	0.06639577
21	0xbdefadf8	-0.11703104
22	0xbb9cb197	-0.0047819125
23	0x3d9a937c	0.07547662
24	0xbdcc6e8b	-0.09982022
25	0x3d117268	0.035509497
26	0x3de5ffeb	0.11230453
27	0xbd3c2057	-0.04592928
28	0xbcfb1660	-0.030650318
29	0x3d6a4adc	0.057200298
30	0xbdea43ca	-0.11438711
31	0x3decf745	0.115706004
32	0xbd844545	-0.064585246
33	0xbd184ea9	-0.03718439
34	0x3d65a835	0.056068618
35	0xbce5c388	-0.028047338
36	0xbd55c890	-0.052193224
37	0xbd352804	-0.044227615
38	0xbdf3f164	-0.11911276
39	0xbc1937a7	-0.009351647
40	0x3dc28b15	0.09499184
41	0x3d035de3	0.03207196
42	0xba30c1c3	-0.000674274
43	0xbdf67c98	-0.12035483
44	0xbd688906	-0.0567713
45	0x3e05163f	0.12996767
46	0xbd3c2104	-0.045929924
47	0x3da062c4	0.07831338
48	0x3dc79550	0.09745276
49	0x3c98dc5f	0.018659769
50	0xbdcf512e	-0.10122906
51	0xbd364eca	-0.044508733
52	0xbd0ae6ef	-0.03391164
53	0x3d29916b	0.041398447
54	0x3da2dcb8	0.07952255
55	0x3d0345e4	0.032049075
56	0x3cc5db94	0.024152555
57	0xbd30a3ac	-0.04312484
58	0xbd90cfb4	-0.07070866
59	0xbceaaf68	-0.028648093
60	0x3d87ca16	0.06630342
61	0xbd81673e	-0.0631852
62	0x3ddcd83d	0.10783432
63	0xbd97ec1d	-0.07418082

fc3.weight f4 [5, 64]
0	0x3d8d9e91	0.0691501
1	0xbdea6f3e	-0.11446999
2	0x3e00e590	0.12587571
3	0x3dadbd6d	0.08483396
4	0x3d3928f0	0.045205057
5	0x3daceed5	0.08443991
6	0xbdd3a207	-0.10333639
7	0xbcc2ec6f	-0.023794381
8	0x3d9574f8	0.07297701
9	0x3df82c42	0.121178165
10	0xbd9c7b9a	-0.076407626
11	0x3d99e9f6	0.07515328
12	0xbd1c7922	-0.03820146
13	0xbdc7c18e	-0.097537145
14	0xbdcab954	-0.0989863
15	0xbc8b384b	-0.016994616
16	0x3d98a5a6	0.0745347
17	0x3da8f027	0.082489304
18	0x3e078f54	0.13238269
19	0xbc411969	-0.011785843
20	0xbdd21c67	-0.102593236
21	0x3c9035a8	0.01760371
22	0xbc94837a	-0.0181291
23	0x3df2b639	0.118511625
24	0x3d2acfe2	0.04170216
25	0xbd6e5bef	-0.058193143
26	0xbd94c63d	-0.072643735
27	0xbaeeca0b	-0.0018218172
28	0xbd8864a4	-0.06659821
29	0xbd0bd28e	-0.034136347
30	0x3dad25fe	0.08454512
31	0x3dd289d8	0.10280198
32	0x3d6367cb	0.055518907
33	0xbdb4ffd6	-0.08837859
34	0xbd959199	-0.07303161
35	0x3dc40580	0.095713615
36	0xbd6a5989	-0.057214294
37	0xbdd7c63a	-0.105358556
38	0x3db8fbf8	0.09032434
39	0xbd901bad	-0.07036529
40	0x3dbe221c	0.092838496
41	0x3df13abe	0.11778782
42	0xbdcf4c07	-0.10121923
43	0xbaab0a4b	-0.0013049332
44	0xbe09a235	-0.13440783
45	0xbddeb122	-0.10873629
46	0xbcf65f48	-0.03007473
47	0xbca4870a	-0.020083923
48	0x3dc3ec6c	0.09566578
49	0xbd36e966	-0.04465618
50	0x3da2f36a	0.07956584
51	0x3d697fb5	0.057006557
52	0x3cfec1a9	0.031098204
53	0xbdadb220	-0.0848124
54	0x3db92cbd	0.09041736
55	0xbdfff14f	-0.12497198
56	0xbc9d9d62	-0.019240085
57	0x3cf0aa90	0.029378206
58	0xbdaf8316	-0.085699245
59	0x3df3e5c4	0.11909059
60	0xbdb45d56	-0.08806865
61	0x3d5cf725	0.053946633
62	0x3db2cc31	0.08730353
63	0x3d076205	0.033052463
64	0x3e0002ce	0.1250107
65	0xbdf5d8b5	-0.12004224
66	0xbdbd080d	-0.09230051
67	0x3d730d2d	0.059338737
68	0xbbcbacad	-0.006215653
69	0x3cbdeabf	0.023183225
70	0x3ddea459	0.108711906
71	0x3d42e145	0.047578115
72	0xbdabf9fb	-0.08397289
73	0xbdd3d0c1	-0.10342551
74	0x3ddd4de6	0.108058736
75	0xbdece4df	-0.11567091
76	0xbce87032	-0.028373811
77	0xbd8cef7c	-0.068816155
78	0xbc932168	-0.017960265
79	0xbcf61522	-0.030039374
80	0xbd8d8a86	-0.06911187
81	0xbdc751a8	-0.097323716
82	0x3dd516ae	0.104047164
83	0x3dd07e66	0.101803586
84	0x3dc00d47	0.093775325
85	0xbdd968c8	-0.106156886
86	0xbcb87ae6	-0.02251954
87	0x3d01b540	0.031666994
88	0xbe052762	-0.13003305
89	0x3df3c700	0.119031906
90	0x3d0a3b4a	0.03374795
91	0x3c2f827d	0.010712263
92	0xb98d123b	-0.00026907198
93	0x3da3d156	0.07998912
94	0x3bab73e0	0.0052323192
95	0x3dcf4c75	0.10122005
96	0x3d680e86	0.056654476
97	0xbc83ff04	-0.016112812
98	0xbd9a805c	-0.07544014
99	0x3df3af4c	0.118986696
100	0x3d45385c	0.04814945
101	0xbdc14fb4	-0.0943903
102	0xbd39012c	-0.045167133
103	0x3d95ce69	0.0731476
104	0x3db4500f	0.088043325
105	0xbb8dfd99	-0.0043332097
106	0xbde23989	-0.1104613
107	0x3d02e31b	0.031954866
108	0x3bc31bb0	0.0059542283
109	0x3ce2589d	0.027630145
110	0x3d394270	0.045229375
111	0x3d318208	0.043336898
112	0x3ce6fef2	0.02819774
113	0x3cfbc260	0.030732334
114	0xbd8e2946	-0.06941466
115	0x3d5fc6bd	0.05463289
116	0xbd1b5f47	-0.03793266
117	0x3e005ac0	0.12534618
118	0x3db9b914	0.09068504
119	0x3db27efc	0.087156266
120	0x3ce62e2b	0.028098186
121	0x3c2f9360	0.010716289
122	0xbdeec48c	-0.11658582
123	0xbc4fccd0	-0.012683108
124	0x3da12d78	0.078700006
125	0xbc9906c5	-0.018679986
126	0x3d4c9030	0.049942195
127	0xbe096f06	-0.13421258
128	0xbd442e23	-0.047895562
129	0xbd56c60e	-0.052434973
130	0x3da5c628	0.08094436
131	0x3d4f824b	0.050661366
132	0xbce2174b	-0.027598998
133	0x3c1624fd	0.009164092
134	0x3d87800b	0.06616219
135	0xbd240b50	-0.04004985
136	0xbd86cc24	-0.065819055
137	0x3d6b5255	0.057451565
138	0x3d832680	0.06403828
139	0xbdaf58eb	-0.08561882
140	0xbd8e4c9a	-0.06948204
141	0x3d244d83	0.040112983
142	0xbded3771	-0.1158284
143	0xbdc59dc5	-0.09649233
144	0x3d8a863e	0.06763886
145	0xbd98b529	-0.074564286
146	0xbd87c0ec	-0.06628594
147	0x3c4bc305	0.012436633
148	0x3d9811aa	0.07425244
149	0x3dfe378c	0.124129385
150	0x3d576ed9	0.052595947
151	0x3d37bf5a	0.04486022
152	0xbdd00b97	-0.101584606
153	0xbe16a048	-0.1470958
154	0x3db1adde	0.08675741
155	0xbd6f39ce	-0.058404736
156	0xbcfec053	-0.031097567
157	0x3cfb4129	0.03067072
158	0xbd76d004	-0.060256973
159	0xbda373e3	-0.07981088
160	0xbe2c6733	-0.16836242
161	0xbc614587	-0.013749487
162	0x3db91451	0.09037078
163	0x3dc702c4	0.097173244
164	0x3d4f5992	0.05062253
165	0x3da7e426	0.08197813
166	0xbd4d8b3c	-0.050181612
167	0xbdef1d92	-0.11675562
168	0x3d8ebd21	0.06969667
169	0xbdc13ece	-0.09435807
170	0x3b895ea9	0.0041921926
171	0xbe0fede3	-0.1405559
172	0xbdde6f8c	-0.1086112
173	0xbc7dd0be	-0.015491663
174	0x3d86be2e	0.06579243
175	0x3d6a7ab4	0.057245925
176	0xbc656051	-0.014000014
177	0xbd0a6f56	-0.033797584
178	0xbd2635ac	-0.04057853
179	0x3c3bdefe	0.01146674
180	0xbe3910e4	-0.1807285
181	0xbddbacaf	-0.10726296
182	0xbdb2a2ad	-0.08722434
183	0xbd7afa43	-0.061273824
184	0x3b05ade9	0.0020397848
185	0x3c873750	0.016505867
186	0x3ce8f820	0.028438628
187	0xbdfabbc6	-0.12242846
188	0xbd866637	-0.06562465
189	0x3dd6306e	0.10458456
190	0xbe0b87ff	-0.13626097
191	0xbd7622f0	-0.060091913
192	0xbcd5d5a0	-0.02610284
193	0xbdc33169	-0.095309086
194	0xbd063fc1	-0.032775644
195	0xbdaf5bf0	-0.085624576
196	0x3e176f61	0.14788581
197	0xbd08320a	-0.033250846
198	0xbdcbee98	-0.099576175
199	0xbdcddcc5	-0.10051874
200	0x3daf19ad	0.08549819
201	0x3dafd889	0.08586223
202	0xbdb323ba	-0.08747049
203	0xbda2d63c	-0.07951018
204	0xbd9404a5	-0.072274484
205	0x3d53e681	0.051733498
206	0x3d194611	0.037420336
207	0x3d984a61	0.07436062
208	0xbd46b678	-0.04851386
209	0xbc9cd24f	-0.019143252
210	0x3d8d6733	0.06904449
211	0xbd97d27d	-0.07413194
212	0xbd4c0bb5	-0.049815852
213	0x3da74788	0.081679404
214	0xbdbfe7ff	-0.093704216
215	0x3dc55d19	0.096368976
216	0x38ba3fac	8.881031e-05
217	0xbd04cdf2	-0.032422967
218	0x3c711736	0.014715007
219	0xbdc21c17	-0.09478014
220	0x3dd26684	0.102734596
221	0xbba1c84f	-0.0049372087
222	0x3d9648f4	0.073381335
223	0xbd97faec	-0.074209064
224	0xbdcc6e2e	-0.099819526
225	0xb91f3237	-0.00015182128
226	0x3daf5a4f	0.08562147
227	0x3d041d54	0.032254532
228	0x3e07dab1	0.13267018
229	0x3db48713	0.08814826
230	0x3d7edd58	0.06222281
231	0x3e04c892	0.12967137
232	0x3c8427d4	0.016132273
233	0x3d3dc2e3	0.046328437
234	0x3dca1031	0.098663695
235	0xbda8b5b0	-0.08237779
236	0x3dfb60eb	0.12274345
237	0xbcc7b466	-0.024378013
238	0x3cc4a3c0	0.024003863
239	0xbe01b9d5	-0.12668546
240	0xbce50308	-0.027955547
241	0x3da9a1d9	0.08282823
242	0xbd4f3928	-0.050591618
243	0xbce8f39c	-0.028436475
244	0x3d4292f6	0.047503434
245	0x3d730bf3	0.059337568
246	0xbd329e0c	-0.043607756
247	0xbc11f337	-0.008908085
248	0x3d799f1f	0.060942765
249	0x3d67ad54	0.056561783
250	0xbba7bbe0	-0.005118832
251	0xbcbc8bb8	-0.023015842
252	0xbde11a90	-0.109913945
253	0xb9f663f6	-0.00046995253
254	0xbc21bdfa	-0.009871954
255	0xbe02cc02	-0.12773135

fc3.bias f4 [5]
0	0x3daa171a	0.083051875
1	0xbcfafea4	-0.030639
2	0x3ddce98e	0.107867345
3	0xbd75d4fa	-0.060017563
4	0xba98c689	-0.0011655848

opp_actors.0.fc1.weight f4 [64, 28]
0	0x3d1fece2	0.03904427
1	0x3de6ef81	0.112761505
2	0xbe1edf7b	-0.15514939
3	0xbe02e60b	-0.12783067
4	0xbdcd8132	-0.10034408
5	0x3d1d00dc	0.038330898
6	0x3ca2d46c	0.019876681
7	0x3e1450cc	0.14483947
8	0xbd8bd1a4	-0.06827095
9	0x3cdad13a	0.026711095
10	0xbd3948e0	-0.045235515
11	0xbcfb4ca1	-0.030676188
12	0xbe38a6b5	-0.18032344
13	0xbe2ac946	-0.16678342
14	0xbd9f8b86	-0.07790284
15	0xbc500fb0	-0.012699053
16	0x3df9cc69	0.12197191
17	0x3e03e76c	0.12881249
18	0xbdc0cedb	-0.094144545
19	0xbe0c4b31	-0.13700558
20	0x3e077bed	0.13230868
21	0x3e34f4ed	0.17671557
22	0xbd1877d4	-0.037223652
23	0x3e0c5b68	0.13706744
24	0xbc817a31	-0.015805336
25	0x3d0b4976	0.034005605
26	0x3e49f085	0.19720657
27	0xbe024390	-0.12721086
28	0xbdbdb879	-0.09263701
29	0xbd23efd7	-0.04002365
30	0xbd9b264a	-0.075756624
31	0x3e27ed87	0.16399203
32	0xbe147a34	-0.14499742
33	0xbdb16eeb	-0.08663734
34	0xbe0ac3a2	-0.1355119
35	0xbe44f1da	-0.19232884
36	0xbe011b03	-0.1260796
37	0x3e0b8b0c	0.13627261
38	0x3dc6e403	0.097114585
39	0x3dbe2397	0.09284132
40	0xbb335e67	-0.00273695
41	0xbdeb9897	-0.115037136
42	0x3d02f604	0.0319729
43	0xbe39f958	-0.18161523
44	0xbe08dda8	-0.13365805
45	0xbdc53d45	-0.09630827
46	0x3e147362	0.1449714
47	0x3d4b0ee7	0.04957476
48	0xbd8268a6	-0.06367616
49	0x3b9e2543	0.0048262193
50	0x3df3b11f	0.118990175
51	0x3e35635f	0.17713688
52	0x3d9bdaf5	0.07610122
53	0x3d3ca391	0.046054427
54	0x3e1941d5	0.14966519
55	0xbd942e8f	-0.07235443
56	0x3c956c10	0.018240005
57	0xbe29bd0e	-0.16576025
58	0xbe09f198	-0.13471067
59	0xbdcf592a	-0.101244286
60	0x3d8ba37a	0.0681829
61	0x3d3b2c40	0.045696497
62	0xbdfa5911	-0.12224019
63	0x3d154888	0.036446124
64	0x3dd99c38	0.106254995
65	0xbd15e5ca	-0.036596097
66	0xba9750ec	-0.0011544502
67	0x3d02178d	0.03176074
68	0x3dc29932	0.09501876
69	0x3e4346cb	0.19069974
70	0xbe15211f	-0.14563416
71	0xbda241d9	-0.07922716
72	0x3d602370	0.054721296
73	0x3dfe41d7	0.12414902
74	0x3e04da18	0.12973821
75	0x3e3552dd	0.17707391
76	0x3caf51b5	0.021401266
77	0xbe319116	-0.17340502
78	0xba364034	-0.0006952316
79	0xbdfaf595	-0.12253872
80	0xbe39f89a	-0.1816124
81	0x3e186a5b	0.14884321
82	0x3e17f6cc	0.1484024
83	0xbe4117ef	-0.18856786
84	0x3d087082	0.03331042
85	0xbd0fda52	-0.035120316
86	0xbd015c5d	-0.031582225
87	0xbdc113fe	-0.09427641
88	0x3d2ad07d	0.041702736
89	0xbdf04a16	-0.11732881
90	0x3d88a8e3	0.066728376
91	0x3db5d7ad	0.088790275
92	0x3d9d235f	0.07672762
93	0x3d2424bd	0.0400741
94	0xbe3ae1a5	-0.18250139
95	0xbdface42	-0.12246372
96	0x3da1e936	0.079058096
97	0x3bd9fc1b	0.0066523678
98	0xbe16f5cc	-0.14742202
99	0xbde09af8	-0.10967058
100	0x3e3edb83	0.18638425
101	0x3e05a2d1	0.13050391
102	0xbd9b7569	-0.075907536
103	0xbd764673	-0.06012578
104	0xbe34bf84	-0.17651182
105	0xbb3e785e	-0.0029063444
106	0xbe134f23	-0.14385657
107	0xbe14faca	-0.14548793
108	0xbbac93d9	-0.0052666483
109	0x3cc560d8	0.02409403
110	0xbda800a3	-0.082032464
111	0x3de7664b	0.11298808
112	0xbdc3fae7	-0.0956934
113	0x3e2dfa40	0.16989994
114	0x3e0334f7	0.12813173
115	0xbe2309bd	-0.15921684
116	0xbd9e191b	-0.07719632
117	0xbc501492	-0.012700217
118	0x3cc0529b	0.02347689
119	0x3d106a36	0.03525754
120	0x3c81d438	0.015848264
121	0xbc8e8d01	-0.01740122
122	0xbdc9b4b5	-0.0984892
123	0x3dc5995e	0.09648393
124	0xbe3dff91	-0.18554522
125	0xbe25da95	-0.16196664
126	0xbd41c5ec	-0.047307894
127	0xbded4e31	-0.115871795
128	0xbd0b64fe	-0.03403186
129	0xbe1e56ac	-0.1546275
130	0xbba3ed6d	-0.0050026686
131	0xbca04368	-0.019563392
132	0xbd9936f4	-0.074811846
133	0xbbf8e1a2	-0.007595257
134	0x3e0980ef	0.1342809
135	0xbcd99997	-0.026562495
136	0x3c547c2e	0.01296906
137	0xbc02782e	-0.007963223
138	0x3d7a53ab	0.06111495
139	0x3e166b90	0.1468947
140	0x3e630950	0.22171521
141	0x3e037f1a	0.12841454
142	0x3e397c87	0.1811391
143	0xbb248218	-0.0025101956
144	0xbe482d59	-0.19548549
145	0xbdcf8fed	-0.101348735
146	0x3e20fbfb	0.15721123
147	0xbbf2f520	-0.007414475
148	0xbe1c54c9	-0.15266718
149	0xbe353bd3	-0.17698602
150	0xbe256dca	-0.16155162
151	0xbe1477ca	-0.14498821
152	0xbd6661ca	-0.056245603
153	0x3d5f4463	0.054508578
154	0x3dd13f52	0.102171555
155	0xbe553678	-0.2082156
156	0x3e31a715	0.17348893
157	0xbe035dbb	-0.12828724
158	0xbc259f89	-0.010108837
159	0xbe172cc4	-0.1476317
160	0x3d0cc453	0.034366917
161	0xbc7fcb5c	-0.0156124495
162	0xbe32cb45	-0.17460354
163	0xbe281766	-0.16415176
164	0xbc7a29af	-0.015268727
165	0x3cb33fe6	0.021881055
166	0xbd63321c	-0.05546771
167	0x3df7caaa	0.12099202
168	0xbe37d302	-0.17951587
169	0xbb9dc16f	-0.004814319
170	0x3e24f8f2	0.1611059
171	0xbdae517a	-0.08511634
172	0x3e3bb068	0.18329012
173	0x3da6344b	0.08115443
174	0xbe35161f	-0.1768422
175	0x3e013f22	0.1262174
176	0x3caba5ec	0.020953141
177	0xbd99e314	-0.07514015
178	0x3e0c1633	0.13680343
179	0xbe17db51	-0.14829756
180	0x3cc1c8e4	0.023655362
181	0xbc85d541	-0.016337039
182	0x3e0a3189	0.13495459
183	0x3d86a515	0.06574456
184	0x3d3f84f5	0.046757657
185	0x3d5f6cff	0.054547306
186	0xbd92e2bb	-0.07172152
187	0xbce715b7	-0.028208597
188	0xbe2898a5	-0.1646448
189	0x3d9b5f90	0.075865865
190	0x3e130645	0.1435786
191	0x3e048203	0.1294022
192	0xbe119dcb	-0.1422035
193	0x3b81c7a9	0.003960569
194	0xbe0cf50d	-0.13765354
195	0xbe09ddce	-0.13463518
196	0xbe01ef65	-0.12688978
197	0x3d80ff7e	0.06298731
198	0xbdfd6cb1	-0.12374247
199	0xbca8986b	-0.020580491
200	0xbb94d3b9	-0.004541841
201	0x3dd552bf	0.10416173
202	0xbe10ec34	-0.14152604
203	0xbe11118b	-0.14166848
204	0xbde0b11a	-0.109712794
205	0x3df90778	0.12159628
206	0xbda1e72b	-0.0790542
207	0x3e179826	0.14804134
208	0x3d39305f	0.045212146
209	0x3d077a5e	0.033075683
210	0xbab86400	-0.0014067888
211	0xbd2b4a8f	-0.04181915
212	0x3caef495	0.02135686
213	0xbd473fe0	-0.0486449
214	0xbcd5139b	-0.026010325
215	0x3cc0fe0b	0.023558637
216	0xbe16d60f	-0.14730094
217	0xbdea869b	-0.11451455
218	0x3e0a9244	0.13532358
219	0xbe27d95d	-0.16391511
220	0xbd06a113	-0.032868456
221	0x3e385c48	0.18003953
222	0x3d893175	0.06698886
223	0x3c7938e8	0.015211321
224	0xbe078c3d	-0.1323709
225	0x3dcca540	0.099924564
226	0xbe11a157	-0.14221703
227	0xbd18f25c	-0.037340507
228	0xbd990cd6	-0.074731514
229	0xbd0a4d72	-0.033765264
230	0x3cc1ff49	0.0236813
231	0x3e1a645b	0.15077345
232	0xbc7615f4	-0.0150198825
233	0x3e13f4ec	0.14448899
234	0x3e0638b9	0.13107575
235	0xbde1f67b	-0.110333405
236	0x3d9c98a3	0.07646301
237	0xbe08dc50	-0.13365293
238	0xbda40912	-0.080095425
239	0x3d24e039	0.040252898
240	0x3dde33c2	0.10849716
241	0x3e1fdcd0	0.15611577
242	0xbd2eec94	-0.042706087
243	0xbcdfa761	-0.027301492
244	0x3e22bb38	0.15891731
245	0xbe26fc41	-0.16307165
246	0x3e0b2392	0.13587788
247	0xbe1dc03f	-0.15405367
248	0x3c326603	0.010888579
249	0xbc0a16d2	-0.008428292
250	0xbda982ce	-0.08276902
251	0x3d8a65e7	0.067577176
252	0x3e0f3f60	0.1398902
253	0xbd45e7b4	-0.048316672
254	0xbdddc7ce	-0.10829125
255	0xbd9b8085	-0.075928725

opp_actors.0.fc1.bias f4 [64]
0	0x3e3f2c6b	0.18669288
1	0x3e0718c6	0.13193044
2	0x3d8afafb	0.06786152
3	0xbd5ede77	-0.054411378
4	0x3dedf9cb	0.1161991
5	0x3e066d2c	0.13127583
6	0x3d7d5613	0.061849665
7	0x3a8eeaaa	0.0010903676
8	0x3d6fae97	0.05851611
9	0xbc5a63c4	-0.01332945
10	0xbdd155b6	-0.10221426
11	0x3dbcc9c7	0.092181735
12	0xbdfadd4a	-0.12249239
13	0x3e0a48d2	0.13504341
14	0xbdcee7e2	-0.10102822
15	0x3bd16560	0.0063902587
16	0xbd986916	-0.074419186
17	0x3e3da3d1	0.18519522
18	0xbd984270	-0.07434547
19	0x3e11264e	0.14174768
20	0x3dc5d66b	0.096600376
21	0x3e332627	0.17495023
22	0x3db32eed	0.08749185
23	0x3e1bbd0d	0.15208836
24	0x3e40214b	0.187627
25	0x3d56b5f5	0.05241962
26	0x3dce7462	0.10080792
27	0xbe01cdbb	-0.12676136
28	0xbd1041ab	-0.035218876
29	0x3d0ce9eb	0.03440277
30	0x3d46142c	0.04835908
31	0xbda34c7c	-0.079735726
32	0xbe33ad78	-0.17546642
33	0xbd6210d4	-0.05519183
34	0x3d55d579	0.052205537
35	0x3e50bcdf	0.20384549
36	0xbe4b5e00	-0.19860077
37	0x3e04b223	0.12958579
38	0xbe226af0	-0.15861106
39	0xbe3bfd83	-0.18358426
40	0xbda5661b	-0.08076116
41	0x3d0028cf	0.031288918
42	0x3d57cfe7	0.052688506
43	0xbdf62e39	-0.12020535
44	0x3e3ebec9	0.18627466
45	0x3e49d1ab	0.19708888
46	0x3d83eaf7	0.064413
47	0x3e4c2048	0.1993419
48	0xbd9b3a6d	-0.07579503
49	0xbda63ed8	-0.08117455
50	0xbd22ade1	-0.039716605
51	0x3cca4508	0.02469112
52	0xbdad6a77	-0.08467572
53	0xbdfa3a18	-0.12218112
54	0x3d8c466e	0.06849371
55	0x3c8ec015	0.017425576
56	0x3e593c67	0.21214448
57	0xbd4652b0	-0.0484187
58	0x3de0d587	0.10978227
59	0xbdb052f0	-0.08609569
60	0x3daf94e7	0.08573323
61	0xbb672647	-0.0035270618
62	0x3e394cc9	0.18095697
63	0x3e11dbed	0.14244051

opp_actors.0.fc2.weight f4 [64, 64]
0	0x3df8a9b0	0.1214174
1	0x3d8e1e65	0.06939391
2	0xbcf21696	-0.029551785
3	0x3dfab9ea	0.122424915
4	0xbd6fd621	-0.05855382
5	0x3e12c74a	0.14333835
6	0x3dc50ea5	0.09621934
7	0x3ddd82c0	0.10815954
8	0xbd3512c0	-0.044207335
9	0xbd1e8ab1	-0.038706485
10	0x3caab0ac	0.020836197
11	0x3d8b7c8f	0.06810867
12	0x3d972fd4	0.07382169
13	0x3d86c562	0.065806165
14	0x3de842fc	0.11340901
15	0xbaff4886	-0.001947657
16	0xbda25ccb	-0.07927855
17	0x3d8518ca	0.06498869
18	0x3d92842d	0.07154117
19	0xbd1dafd0	-0.038497746
20	0x3c169ef6	0.009193173
21	0xbd90c453	-0.07068696
22	0xbc2f1359	-0.010685765
23	0xbd223c64	-0.039608374
24	0x3e05b904	0.13058859
25	0xbdf59bb3	-0.11992588
26	0xbd2b7ebb	-0.041868906
27	0xbdfc9910	-0.12333882
28	0xbb997e6c	-0.00468426
29	0xbd938fd0	-0.072051644
30	0x3d318ddf	0.04334819
31	0xbdd8c0a6	-0.1058362
32	0xbdbb847c	-0.09156129
33	0xbd934b88	-0.07192141
34	0x3d49ec05	0.04929735
35	0x3e125527	0.14290296
36	0x3ddfa24e	0.10919629
37	0x3c7a1cf8	0.015265696
38	0xbdf83942	-0.12120296
39	0xbd31c6c1	-0.043402437
40	0xbdb08aa1	-0.08620191
41	0x3c246f2b	0.01003627
42	0x3d766523	0.060155045
43	0x3d9feef7	0.07809251
44	0x3daa4c5c	0.08315346
45	0x3d54be2e	0.051939182
46	0xbc4356b2	-0.011922525
47	0x3d0e8154	0.034791306
48	0xbc3be537	-0.011468223
49	0xbdc8564e	-0.09782086
50	0xbcea6a12	-0.028615031
51	0xbd36ae30	-0.044599712
52	0xbdca9d03	-0.09893229
53	0x3dbc185e	0.09184335
54	0xbc08c0c0	-0.008346736
55	0xbdd4b7ab	-0.103865944
56	0x3de36b1a	0.111044124
57	0xbd33227f	-0.04373407
58	0x3d7b9939	0.06142542
59	0x3dfb18fb	0.12260624
60	0xbbd7c742	-0.0065850327
61	0x3d06b78e	0.032889895
62	0x3d9e0c1b	0.07717153
63	0x3dfa5d03	0.12224772
64	0xbd1d17e0	-0.038352847
65	0xbd900e5a	-0.07033987
66	0xbc204520	-0.009782106
67	0x3dc83480	0.097756386
68	0x3c301740	0.010747731
69	0x3db1df28	0.08685142
70	0xba73a000	-0.0009293556
71	0x3d1d1788	0.03835252
72	0x3b8e6d60	0.0043465346
73	0x3b5e6140	0.0033932477
74	0xbdf39d56	-0.11895244
75	0xbddfcdd0	-0.109279275
76	0x3c2a4020	0.010391265
77	0x3d7d67f4	0.061866716
78	0x3dabf7fa	0.08396907
79	0x3bb1b8e0	0.00542365
80	0x3d57d1b0	0.052690208
81	0x3d56232c	0.052279636
82	0xbddcfe1a	-0.107906535
83	0xbde101c8	-0.10986668
84	0xbdc67d14	-0.096918255
85	0x3b0cd7c0	0.0021490902
86	0xbda1df7e	-0.07903956
87	0xbd23d8c0	-0.04000163
88	0xbc993470	-0.018701762
89	0x3d47c348	0.04877022
90	0x3ced6c70	0.028982371
91	0x3ded7c2a	0.11595948
92	0x3de6e8de	0.11274885
93	0xbda35122	-0.07974459
94	0xb9ce7600	-0.000393793
95	0x3ca91908	0.020641819
96	0x3ddf7cd4	0.10912481
97	0xbd1eadf8	-0.03874013
98	0xbd493794	-0.04912527
99	0xbda22a30	-0.07918203
100	0x3dbca2ee	0.09210764
101	0xbd110db4	-0.03541346
102	0xbd3fc1c4	-0.04681565
103	0x3dad268e	0.08454619
104	0x3deb8fd8	0.115020454
105	0xbbac9c60	-0.005267665
106	0xbdb474ba	-0.08811326
107	0x3dd095c2	0.10184814
108	0xbd2f1b40	-0.042750597
109	0xbd6bf13c	-0.057603106
110	0xbdb3f960	-0.08787799
111	0xbd763d20	-0.060116887
112	0xbdc87d82	-0.09789564
113	0xbd93c450	-0.07215178
114	0xbde9348c	-0.11386976
115	0xbcce63d8	-0.025194094
116	0x3d4ddccc	0.050259396
117	0xbdc2560c	-0.094890684
118	0xb9370c00	-0.0001745671
119	0xbd3cce58	-0.046095222
120	0x3d77a74c	0.06046228
121	0x3dddba22	0.10826518
122	0xbc87be98	-0.016570374
123	0xbd80d840	-0.062912464
124	0xbdc4b384	-0.096045524
125	0xbd9667d4	-0.073440224
126	0x3d13d384	0.03609039
127	0x3ceaf330	0.028680414
128	0x3d72acea	0.059246935
129	0xbc8fa930	-0.01753673
130	0x3d964a9c	0.07338449
131	0xbdfacda7	-0.12246256
132	0x3cedd6d5	0.029033104
133	0x3ddde3db	0.108344756
134	0xbddfc78f	-0.10926735
135	0xbd66d587	-0.05635598
136	0x3da1ff2c	0.07909998
137	0xbcf27a85	-0.029599437
138	0xbda7f935	-0.08201829
139	0x3d70bacb	0.05877189
140	0xbb08e1f2	-0.0020886627
141	0xbb442de7	-0.0029934586
142	0xbd673f85	-0.05645706
143	0x3db28483	0.08716681
144	0x3dbde150	0.092714906
145	0x3c535dd6	0.01290079
146	0x3b865997	0.0041000354
147	0x3d405444	0.046955362
148	0x3d9d5f06	0.0768414
149	0xbd8252cf	-0.06363451
150	0xbce55e52	-0.027999077
151	0x3d523a85	0.05132534
152	0xbd935e32	-0.07195701
153	0x3decaa60	0.11555934
154	0xbdd0bad2	-0.10191883
155	0x3d4bc698	0.04974994
156	0xbd8b9b16	-0.0681669
157	0x3cd9b232	0.026574228
158	0x3da6412d	0.081179
159	0x3ca6af28	0.020347193
160	0xbc1f8043	-0.00973517
161	0x3d9ce829	0.076614685
162	0xbdd6c9ed	-0.10487733
163	0xbdc4858c	-0.095957845
164	0xbdd5218e	-0.10406791
165	0xbdbab705	-0.091169395
166	0x3aea05cd	0.0017854512
167	0xbd650ad4	-0.05591853
168	0x3d330f4e	0.043715768
169	0xbc307faa	-0.010772625
170	0x3dbf107e	0.093293175
171	0xbd7bd620	-0.061483502
172	0xbd56589f	-0.05233061
173	0x3d967892	0.07347216
174	0xbd3daa63	-0.04630507
175	0x3dcd21bc	0.100162
176	0xbd2b026d	-0.04175036
177	0x3c932588	0.017962232
178	0xbd0dd71e	-0.03462898
179	0x3d907205	0.070529975
180	0x3d1cfe18	0.03832826
181	0xbd9f9aa0	-0.07793164
182	0x3d95c0db	0.07312175
183	0xbbeebdc3	-0.007285805
184	0xbd1c747e	-0.038197033
185	0xbcc4bfec	-0.024017297
186	0x3d9f842e	0.07788883
187	0x3df529ec	0.119708866
188	0x3d8c054f	0.0683695
189	0x3cad601a	0.021163989
190	0x3d8a2ecd	0.06747208
191	0xbd8bc61b	-0.06824895
192	0xbd0cc1d5	-0.03436454
193	0xbca5229a	-0.0201581
194	0xbdcabe6d	-0.09899602
195	0x3da8dbe5	0.082450666
196	0x3d17173b	0.03688739
197	0xba44ca04	-0.00075069093
198	0xbcca8c6d	-0.024725163
199	0xbb86cb6a	-0.0041136043
200	0x3e03b77f	0.12862967
201	0x3e217c80	0.15770149
202	0xbd956e7d	-0.072964646
203	0x3dbb0d1c	0.0913336
204	0x3d9a500a	0.075347975
205	0x3da0e748	0.078566134
206	0x3bcd8fba	0.006273237
207	0x3da61019	0.08108539
208	0x3bd25549	0.006418858
209	0x3e201231	0.1563194
210	0xbd82513d	-0.06363151
211	0xbb4fa4f5	-0.0031684015
212	0xbda09da6	-0.07842569
213	0xbcacbed3	-0.021087086
214	0x3d8a0899	0.06739921
215	0x3dc6f6ab	0.09715017
216	0xbd71459c	-0.058904275
217	0x3db6d792	0.089278355
218	0x3e1dc6ed	0.15407915
219	0xbd37a263	-0.0448326
220	0xbaf803e0	-0.0018922053
221	0xbcb47585	-0.022028694
222	0x3d3a46c0	0.04547763
223	0xbd86ef87	-0.06588655
224	0xbd6538b0	-0.055962265
225	0xbd9a3227	-0.07529097
226	0xbd830f0f	-0.063993566
227	0x3e128f29	0.14312424
228	0xbc953311	-0.018212827
229	0x3d054433	0.032535743
230	0xbd591ef2	-0.053008027
231	0x3db32031	0.087463744
232	0xbdd964d2	-0.10614933
233	0x3b4b9db2	0.0031069336
234	0xbd8cdb7f	-0.06877803
235	0xbda8f4cd	-0.08249817
236	0x3e1bb2ef	0.15204976
237	0xbd8e2eb7	-0.06942504
238	0x3d0dc317	0.03460988
239	0x3c25a5cd	0.010110331
240	0x3d00bc2d	0.03142946
241	0x3c34250b	0.01099516
242	0xbdcd6d4f	-0.100306146
243	0x3dc92640	0.09821749
244	0xbdc898b8	-0.09794754
245	0x3d1724af	0.03690022
246	0x3bc6bab3	0.0060647367
247	0xbb8bdada	-0.0042680325
248	0x3de15855	0.11003176
249	0x3e0b68cf	0.136142
250	0x3d4e0228	0.050295025
251	0xbd32cf8e	-0.04365497
252	0x3dbca5af	0.09211289
253	0x3dba6476	0.09101193
254	0x3d861065	0.06546096
255	0x3c2f7265	0.010708426

opp_actors.0.fc2.bias f4 [64]
0	0x3d879919	0.06620998
1	0xbd8d0eb2	-0.068875685
2	0xbd813b59	-0.06310148
3	0x3d837dc3	0.064204715
4	0x3dd80da2	0.10549475
5	0x3d097b90	0.033565104
6	0x3dab3686	0.08360009
7	0xbcde31fa	-0.02712344
8	0x3d8cc8e4	0.06874254
9	0x3ce85cf9	0.028364645
10	0xbd0c520b	-0.03425793
11	0x3db71ede	0.08941434
12	0xbcb5eb42	-0.022206906
13	0xbd3be956	-0.045876823
14	0x3b8a0064	0.0042114723
15	0x3d59b204	0.053148285
16	0x3e1a9d0f	0.15098976
17	0x3e158f82	0.14605525
18	0x3df7dcba	0.12102647
19	0xbd327a7e	-0.04357385
20	0x3e0a6949	0.13516726
21	0x3d9e7867	0.07737809
22	0x3d577cbf	0.0526092
23	0xbd990490	-0.07471573
24	0xbc6c20b4	-0.014412094
25	0x3d9bf687	0.07615381
26	0x3cb3d8a1	0.021953883
27	0xbd191edb	-0.03738294
28	0xbd482ea5	-0.04887261
29	0x3de9be3a	0.11413236
30	0x3d1102e4	0.035403147
31	0x3d4b89d5	0.049691994
32	0x3d7f56e2	0.062338717
33	0x3dcb43d6	0.09925048
34	0xbd6a90f4	-0.057267144
35	0x3ced836c	0.02899333
36	0x3e17c3da	0.14820805
37	0xbcc86003	-0.024459844
38	0xbdd6f5b8	-0.10496086
39	0xbd98b7d2	-0.07456936
40	0x3dc3cb40	0.09560251
41	0x3dc5e37a	0.09662528
42	0x3d9cfd59	0.0766551
43	0xbd69cb8a	-0.057078876
44	0xbd714695	-0.058905203
45	0xbde78276	-0.1130418
46	0x3d0906b8	0.033453673
47	0xbcb2c9be	-0.021824714
48	0x3e1435b9	0.14473619
49	0xbd4db46e	-0.0502209
50	0xbd1b5474	-0.037922338
51	0x3d0c9b6f	0.03432792
52	0xbcb9671c	-0.022632174
53	0x3b66b46e	0.003520276
54	0x3e13d836	0.14437947
55	0x3de1a0c2	0.1101699
56	0xbe033c4d	-0.12815972
57	0x3c347383	0.011013868
58	0x3ba63b89	0.005073015
59	0x3e2a362c	0.16622227
60	0xbdeaf982	-0.11473371
61	0x3d8b438a	0.067999914
62	0xbe0b4c62	-0.13603356
63	0xbdfd9087	-0.12381082

opp_actors.0.fc3.weight f4 [64, 64]
0	0xbd596526	-0.05307498
1	0xbdf4d8de	-0.11955427
2	0xbb33bd8c	-0.002742621
3	0x3de971d0	0.11398661
4	0xbcb86faa	-0.022514183
5	0xbd904862	-0.07045056
6	0x3b557788	0.0032572467
7	0xbda292be	-0.07938145
8	0x3dc7ae92	0.097500935
9	0x3d213b87	0.03936341
10	0x3de9205f	0.113831274
11	0x3d882302	0.06647302
12	0x3d7b8653	0.0614074
13	0x3d58ce80	0.05293131
14	0x3e0c233e	0.13685319
15	0xbd91b909	-0.07115371
16	0xbd83a887	-0.064286284
17	0x3ddfeb42	0.10933544
18	0x3d6c8f83	0.05775405
19	0x3e0bbfc6	0.13647375
20	0x3d26740d	0.04063802
21	0x3d83465d	0.06409905
22	0x3dbc307c	0.09188935
23	0x3da1c61e	0.07899116
24	0x3dacdecf	0.08440935
25	0xbda37b73	-0.079825304
26	0x3d3feaa4	0.04685463
27	0xbdae48a7	-0.08509951
28	0x3d1daa4a	0.03849248
29	0x3da6db81	0.08147336
30	0xbd27da11	-0.04097945
31	0x3df97371	0.12180222
32	0x3e048100	0.12939835
33	0x3d4a305c	0.049362525
34	0xbdaff54d	-0.08591709
35	0x3ca837fa	0.020534504
36	0x3ddef896	0.10887258
37	0x3ce76551	0.028246554
38	0x3dda2572	0.106516734
39	0x3c1432a0	0.009045273
40	0xbd3814b8	-0.044941634
41	0x3dc20f8f	0.09475624
42	0x3d401400	0.046894073
43	0x3d9aa722	0.07551409
44	0xbd996a84	-0.07491019
45	0xbdac91d8	-0.08426255
46	0x3dca8843	0.09889271
47	0x3d3c483c	0.045967326
48	0x3dd1be7b	0.102414094
49	0xbdcd94fd	-0.10038183
50	0xbd1568e6	-0.036476992
51	0x3b822550	0.003971733
52	0xbd4a0c0a	-0.049327888
53	0x3dd0a741	0.10188151
54	0x3de80076	0.11328213
55	0x3df8f258	0.121555984
56	0x3c906361	0.017625513
57	0xbdec74d4	-0.11545721
58	0xbcff7a62	-0.031186286
59	0x3d2d2a89	0.042276893
60	0xbce5e8b8	-0.02806507
61	0x3d5de733	0.054175567
62	0xbd1693da	-0.036762096
63	0x3dd3894f	0.10328924
64	0x3e090f73	0.133848
65	0x3dfda730	0.12385404
66	0x3d3dc69b	0.046331983
67	0xbd629722	-0.055319913
68	0xbb8dba4b	-0.0043251864
69	0xbc929c40	-0.017896771
70	0x3db1052f	0.08643567
71	0x3d0b512b	0.034012955
72	0x3da101f0	0.07861698
73	0x3d9f75b6	0.077861235
74	0xbd173d42	-0.036923654
75	0x3d3f5519	0.046712015
76	0x3c404753	0.011735755
77	0x3d19d122	0.03755296
78	0xbd2d8733	-0.042365264
79	0x3c2aaec3	0.010417643
80	0x3df9f0e0	0.122041464
81	0x3dc0baef	0.09410655
82	0xbd4dc862	-0.050239928
83	0x3e15f698	0.1464485
84	0xbcadd6fe	-0.02122068
85	0x3e174476	0.1477221
86	0x3bdeb61d	0.006796612
87	0x3df260ba	0.118348554
88	0x3de7b745	0.11314253
89	0x3d054c13	0.032543253
90	0x3de3230a	0.110906675
91	0x3dd9d02b	0.10635408
92	0xbd593a86	-0.053034328
93	0x3d4c26ba	0.04984162
94	0x3daa56f7	0.083173685
95	0x3c9289a3	0.017887896
96	0x3deb0b8d	0.114768125
97	0x3e038cad	0.12846632
98	0xbdd1f73a	-0.10252233
99	0x3dd6f99c	0.10496828
100	0xbdb5a68a	-0.088696554
101	0x3dad01fe	0.084476456
102	0xbd91930e	-0.071081266
103	0xbd1f5aec	-0.03890507
104	0x3d712f49	0.058882985
105	0xbda2e694	-0.079541355
106	0x3afc9988	0.001927183
107	0xbd247cc6	-0.040158056
108	0x3d21258b	0.039342444
109	0xbb3ca42c	-0.0028784378
110	0xbda62ea5	-0.081143655
111	0xbcea7d1a	-0.028624106
112	0x3d3a08e5	0.04541864
113	0x3d9799cc	0.07402381
114	0xbceff8a5	-0.029293368
115	0xbd884eb3	-0.06655636
116	0x3daecdf8	0.08535379
117	0xbd3418e3	-0.043969046
118	0xbca7522a	-0.020424921
119	0xbdc4dddb	-0.09612628
120	0xbcf5c311	-0.030000241
121	0xbdcb5647	-0.099285655
122	0x3d45d015	0.048294146
123	0x3e05ce09	0.13066877
124	0x3d726e8e	0.059187464
125	0xbdda0c32	-0.10646857
126	0x3dd61c8f	0.10454666
127	0xbde4c77a	-0.1117086
128	0xbda2938a	-0.07938297
129	0x3d8fa092	0.07013048
130	0x3d4d1394	0.0500675
131	0x3d073c20	0.033016324
132	0xbd820288	-0.06348139
133	0xbe2a644c	-0.16639823
134	0xbe240f8d	-0.16021557
135	0xbd2fd3a0	-0.04292643
136	0xbe21bb9d	-0.15794225
137	0xbe07286b	-0.13199012
138	0x3da2e678	0.07954115
139	0xbd62bae2	-0.055354007
140	0x3b9c1489	0.00476319
141	0xbdf9a286	-0.12189202
142	0xbcee0905	-0.029057035
143	0x3dd73513	0.1050817
144	0xbc30e064	-0.010795686
145	0xbc5bc240	-0.013413012
146	0xbde499b2	-0.111621276
147	0xbe0cc8cb	-0.13748471
148	0x3d23ef45	0.040023107
149	0xbe1c6733	-0.15273742
150	0xbd3cfce4	-0.046139613
151	0xbdca7140	-0.09884882
152	0xbd2dff1d	-0.042479623
153	0xbe3326be	-0.17495248
154	0x3bf4058d	0.007446951
155	0x39807e57	0.00024508193
156	0xbe09a1ac	-0.13440579
157	0xbda2eb68	-0.079550564
158	0xbd51e5c9	-0.05124453
159	0xbdc008bb	-0.09376665
160	0xbdac7cc2	-0.08422233
161	0xbc52a20b	-0.012856017
162	0xbd9582c5	-0.07300333
163	0xbc53e835	-0.01293378
164	0xbe0be62b	-0.13662021
165	0x3de5ab11	0.11214269
166	0xbd9686a8	-0.073499024
167	0x3d59b6cc	0.053152844
168	0xbdf51f34	-0.11968842
169	0xbdf5b462	-0.11997296
170	0xbccaeef0	-0.024772137
171	0xbda1f694	-0.07908359
172	0xbd0efa6d	-0.034906793
173	0xbd7898b3	-0.0606925
174	0xbd9bb9be	-0.07603787
175	0xbdcc94c4	-0.09989312
176	0x3db42a84	0.08797172
177	0x3d87df5a	0.06634398
178	0xbdbf1fd8	-0.093322456
179	0x3da36019	0.079773135
180	0xbdb648c9	-0.089006014
181	0xbe0d5cff	-0.13805006
182	0x3bb8db55	0.005641381
183	0xbda2998d	-0.07939444
184	0x3dbed67d	0.09318254
185	0xbd318866	-0.04334297
186	0xbe0bf6ee	-0.13668415
187	0x3d8cdd96	0.06878202
188	0x3cc163e5	0.023607204
189	0x3d16aca5	0.03678574
190	0xbc5a46d8	-0.0133225545
191	0xbdcb8de8	-0.09939176
192	0x3ccf21d9	0.025284695
193	0x39b10000	0.0003376007
194	0xbdb7e27e	-0.08978747
195	0x3d5b1934	0.053490832
196	0xbe0a031a	-0.13477746
197	0xbde05dd7	-0.109553985
198	0xbd456c8f	-0.048199233
199	0xbe169c38	-0.1470803
200	0xbe04f6fa	-0.12984839
201	0xbd84949c	-0.064736575
202	0xbcd7d8a9	-0.026348429
203	0x3d965723	0.07340839
204	0x3d1a19fd	0.03762244
205	0x3dd48005	0.1037598
206	0x3c4e9d0c	0.012610685
207	0x3c16258f	0.009164228
208	0xbd264bc5	-0.040599603
209	0xbd916548	-0.07099396
210	0xbe040abc	-0.1289472
211	0xbe1055e3	-0.14095263
212	0x3d178fc1	0.03700233
213	0xbdd47f7f	-0.103758805
214	0xbd9125be	-0.07087277
215	0x3d741356	0.059588753
216	0xbdcb2c6e	-0.09920584
217	0x3ca065e0	0.019579828
218	0xbcb1caa7	-0.021703077
219	0x3ccc0cd3	0.024908459
220	0xbdafd740	-0.085859776
221	0x3d97faa9	0.074208565
222	0xbdd54d88	-0.104151785
223	0xbe0ab258	-0.13544595
224	0x3d948ed5	0.072538055
225	0xbdd24955	-0.10267893
226	0x3ddef9a3	0.10887458
227	0x3d01e51d	0.03171264
228	0x3d02cdb1	0.031934444
229	0xbcb88864	-0.022525974
230	0x3cd481db	0.025940826
231	0x3d034ca0	0.032055497
232	0xbd9b8ef7	-0.07595628
233	0x3d98f07a	0.07467742
234	0x3d911b65	0.07085303
235	0xbac21588	-0.0014807442
236	0x3d131ffc	0.035919175
237	0xbce67f86	-0.02813698
238	0xbd86cdbb	-0.06582209
239	0xbdcbb7cd	-0.099471666
240	0xbd823468	-0.06357652
241	0xbdf97d39	-0.121820875
242	0xbd870dad	-0.06594405
243	0x3d6692b4	0.05629225
244	0x3dcf4333	0.10120239
245	0xbe13ce0b	-0.14434068
246	0xbdfa087f	-0.12208652
247	0x3daec6aa	0.08533986
248	0xbd314467	-0.043278124
249	0xbb0f94e1	-0.0021908807
250	0x3d7aa0ca	0.061188497
251	0x3dbd523b	0.092442
252	0x3d33a4db	0.04385839
253	0x3ceee28f	0.029160766
254	0x3a93663b	0.0011245677
255	0x3b4e8dff	0.0031517742

opp_actors.0.fc3.bias f4 [64]
0	0xbd501492	-0.050800867
1	0x3e00ab20	0.12565279
2	0x3cf16bec	0.029470406
3	0xbe034c8c	-0.12822169
4	0x3be3a43c	0.0069470685
5	0xbdfe612c	-0.12420878
6	0xbe025595	-0.1272796
7	0xbda64b49	-0.08119828
8	0x3e08b914	0.13351852
9	0xbdbec257	-0.09314411
10	0x3d87a9cf	0.06624185
11	0xbe0aead9	-0.1356615
12	0x3c938be1	0.018011035
13	0x3e156a0d	0.14591236
14	0xbd615228	-0.05500999
15	0xbd8e429e	-0.069463
16	0xbdaabb1a	-0.08336468
17	0xbded0ff7	-0.11575311
18	0x3c89bd73	0.01681397
19	0xbdf9783a	-0.121811345
20	0xbdc06c67	-0.09395676
21	0x3e0a10c0	0.13482952
22	0x3e025928	0.12729323
23	0xbda49c8b	-0.08037671
24	0x3cfbc484	0.030733354
25	0xbd66278e	-0.056190066
26	0x3de901a7	0.11377268
27	0xbe21e8ad	-0.15811415
28	0xbe0c24dd	-0.13685937
29	0x3db3514d	0.08755741
30	0x3c4ed7d1	0.012624697
31	0xbd6b271c	-0.057410344
32	0x3d3f7057	0.046737995
33	0x3d8f8f2d	0.070097305
34	0xbd94e879	-0.07270903
35	0x3dd8add6	0.105800316
36	0x3dc7a0b8	0.097474515
37	0xbd45ecc8	-0.048321515
38	0xbe0f8dea	-0.1401898
39	0x3da4f7a8	0.08055049
40	0x3dc17a41	0.09447146
41	0xbe173137	-0.14764868
42	0xbe0f520c	-0.13996142
43	0xbbc99c68	-0.0061526783
44	0xbe07f9d5	-0.13278897
45	0xbdb90091	-0.09033311
46	0x3dfc62e3	0.12323549
47	0x3d4c72bd	0.04991411
48	0x3de68d8e	0.11257468
49	0x3d439870	0.047752798
50	0x3e0c7c13	0.13719206
51	0x3da39802	0.079879776
52	0x3d828920	0.06373811
53	0x3db64637	0.08900111
54	0xbd5540c3	-0.052063715
55	0x3e075d7e	0.13219258
56	0xbb2fd9ad	-0.0026832626
57	0x3e06cdeb	0.13164489
58	0xbdcf4934	-0.10121384
59	0xbdf5766c	-0.11985478
60	0x3de84a52	0.113423005
61	0xbdb7bc01	-0.08971406
62	0x3d633c7c	0.055477604
63	0x3dceabf7	0.100913934
