model5/DOMAC/agent_1/95critic_params.pkl (torch, 59223 bytes, 6 tensors)

fc1.weight f4 [64, 133]
0	0xbc1ff07a	-0.009761924
1	0xbd806198	-0.062686145
2	0xbcc3468e	-0.023837354
3	0xbd12652a	-0.03574101
4	0xbbe0cd25	-0.0068603926
5	0x3d959dce	0.073054895
6	0x3c1cfaa0	0.009581238
7	0xbd1595c6	-0.03651979
8	0x3df62b1a	0.1201994
9	0xbce5b679	-0.028041111
10	0xbe4bc389	-0.1989881
11	0x3defec4d	0.11714993
12	0xbcb63a3a	-0.022244561
13	0xbd8931a1	-0.06698919
14	0xbdc1f57f	-0.09470653
15	0xbd84be99	-0.06481666
16	0x3da09f65	0.07842902
17	0xbd5692f9	-0.052386258
18	0x3dc46187	0.09588914
19	0xbdc99422	-0.09842707
20	0xbe0f7def	-0.14012884
21	0x3bd9b033	0.006643319
22	0xbd4c33bb	-0.04985402
23	0x3dccadc1	0.099940784
24	0xbbc8a851	-0.0061235805
25	0x3db7a19f	0.08966374
26	0xbc7ac57f	-0.015305876
27	0xbce9bcfd	-0.0285325
28	0x3dedd7e4	0.116134435
29	0xbe38c4fd	-0.18043895
30	0xbdad7de6	-0.08471279
31	0x3bdbdafb	0.006709454
32	0xbd40e5b5	-0.047094066
33	0xbd966c4a	-0.07344873
34	0x3d807b2a	0.06273492
35	0xbd27b3d7	-0.040942993
36	0xbd8cc204	-0.06872943
37	0xbe9ed3c9	-0.31020954
38	0xbe32d1e8	-0.17462885
39	0x3da7bbea	0.08190139
40	0x3d1806b3	0.037115764
41	0xbe6832b8	-0.22675598
42	0xbe657cff	-0.22410963
43	0xbd8590ad	-0.06521735
44	0xbdfee18d	-0.12445364
45	0x3e487c6c	0.19578713
46	0x3cbab311	0.022790464
47	0x3cfc179e	0.03077298
48	0xbd1a9277	-0.037737336
49	0x3e84e162	0.25953203
50	0x3cd5d008	0.026100174
51	0x3c661a4c	0.014044356
52	0x3d417dbb	0.047239047
53	0x3e0e9829	0.13925232
54	0x3ce59761	0.028026285
55	0xbaf8e5eb	-0.0018989419
56	0x3d203150	0.039109528
57	0x3d039c06	0.032131217
58	0x3bfbce0a	0.007684474
59	0x3a94f6a7	0.0011365012
60	0x3cd9c8f9	0.026585089
61	0x3d007ef0	0.031371057
62	0x3c598f1e	0.013278751
63	0x3b4deb3d	0.003142073
64	0x3cfc7c1a	0.030820895
65	0x3e245b84	0.16050535
66	0x3d95af18	0.07308787
67	0x3e0dc290	0.13843751
68	0xbcdb026c	-0.026734553
69	0x3e29947e	0.16560552
70	0xbd7ebc88	-0.062191516
71	0xbd3349fc	-0.04377173
72	0xbd562704	-0.052283302
73	0xbcbbc81a	-0.022922564
74	0x3cf493ee	0.029855695
75	0x3e354221	0.17701007
76	0xbdf59fe6	-0.11993389
77	0x3d8cd4b5	0.06876508
78	0xbc20646e	-0.009789569
79	0x3ccbc201	0.024872782
80	0x3d66bd8e	0.056333117
81	0x3d1cf353	0.03831799
82	0xbc1f05a0	-0.009705931
83	0xbcb24f9c	-0.021766476
84	0x3dc28930	0.09498823
85	0x3c8859b5	0.016644338
86	0x3c2d5a3f	0.010580598
87	0x3c83416f	0.016022412
88	0x3d16d57a	0.03682468
89	0x3e122558	0.14272058
90	0x3c39b1ae	0.011333866
91	0x3ca21f7b	0.019790402
92	0x3bd103cc	0.0063786265
93	0x3d372602	0.04471398
94	0x3dd702e0	0.10498595
95	0x3e042583	0.12904935
96	0xbb519136	-0.0031977422
97	0x3c813a3b	0.015774837
98	0xbe175225	-0.1477743
99	0x3daf8c73	0.085717104
100	0xbc446ed9	-0.011989319
101	0x3d174fe5	0.036941428
102	0xbc75677f	-0.014978289
103	0xbe28acc2	-0.16472152
104	0xbe031145	-0.12799557
105	0xbc038691	-0.008027689
106	0xbd9d3660	-0.07676387
107	0x3d5e0ed4	0.05421336
108	0x3dd1c337	0.102423124
109	0xbd9b5c47	-0.0758596
110	0x3d66c760	0.056342483
111	0x3bb9f8e7	0.0056754234
112	0x3cfaa14d	0.030594492
113	0xbdcc4456	-0.099739715
114	0x3d173301	0.036913875
115	0x3c8355ca	0.016032118
116	0x3b95a50e	0.004566795
117	0x3d23761d	0.039907563
118	0xbeaf4aaa	-0.34236652
119	0x3e1f1577	0.15535532
120	0xbc4fa364	-0.012673233
121	0xbebc07b7	-0.36724636
122	0xbd36078c	-0.04444079
123	0x3da87f7e	0.08227442
124	0xbe700ec8	-0.23443139
125	0xbdb985f0	-0.0905875
126	0xbbd5f0db	-0.0065289563
127	0x3caf23cf	0.02137938
128	0xbd3c7a58	-0.046015114
129	0x3dd9ecfb	0.106409036
130	0xbe5de550	-0.21669507
131	0xbbb4c51c	-0.0055166613
132	0xb9fdec1f	-0.00048431844
133	0xbb9151cb	-0.0044347993
134	0xbd74e605	-0.059789676
135	0xbda2915f	-0.079378836
136	0xbd9bd760	-0.07609439
137	0x3da59981	0.08085919
138	0x3c81e9f8	0.015858635
139	0xbd64183f	-0.055687185
140	0xbd9b91c5	-0.07596163
141	0xbae532e5	-0.0017486481
142	0x3e48c47d	0.19606204
143	0x3ea36f1f	0.31920716
144	0x3d6c2a24	0.057657376
145	0xbc0cba7d	-0.008589384
146	0x3e0bb52c	0.1364333
147	0x3e55910e	0.20856115
148	0xbcaffc9c	-0.021482758
149	0x3d1ce8e5	0.038308043
150	0x3c0af77b	0.0084818555
151	0x3db432c6	0.08798747
152	0x3e408585	0.18800934
153	0x3e8afd1d	0.27146235
154	0xbc2eeb45	-0.01067621
155	0xbdb830cd	-0.08993683
156	0x3dbf3e3d	0.09338043
157	0xbd2de2a9	-0.042452488
158	0x3bb3c033	0.0054855584
159	0xbd82ae74	-0.063809305
160	0xbdd1108a	-0.10208233
161	0x3ca0d507	0.01963283
162	0xbce1fb9e	-0.0275858
163	0xbdceb3ed	-0.10092912
164	0xbddce551	-0.10785926
165	0xbde21316	-0.110387966
166	0xbdb03807	-0.08604436
167	0x3cc8c2c0	0.024506927
168	0xbc1f0e35	-0.009707977
169	0xbcdc3a00	-0.026883125
170	0xbb8c5b3a	-0.004283336
171	0x3e1c8b50	0.15287519
172	0x3dd8ca2c	0.10585436
173	0x3b0ec282	0.0021783416
174	0x3dd641bf	0.10461759
175	0x3d998ebe	0.07497929
176	0x3d4b1c62	0.049587615
177	0x3e6e68f7	0.23282228
178	0x3e5c542f	0.21516488
179	0x3d53dd28	0.051724583
180	0x3c41e79b	0.011835004
181	0x3e3c6c7d	0.1840076
182	0x3e17f35e	0.14838931
183	0x3cda8d90	0.02667883
184	0xbdb36c2e	-0.08760868
185	0xbc683d8f	-0.014174833
186	0xbd34ccfa	-0.044140793
187	0x3d8abbcd	0.067741014
188	0xbd0310e2	-0.031998523
189	0xbcc1f0ff	-0.023674486
190	0x3d13e65a	0.036108352
191	0xbdc36b4a	-0.09541948
192	0xbacd5f1c	-0.0015668604
193	0xbcc8e4eb	-0.02452322
194	0xbd0be9bd	-0.034158457
195	0xbb1efb3e	-0.0024258639
196	0xbd53156d	-0.051534105
197	0x3c566de0	0.01308772
198	0x3d8797c2	0.066207424
199	0x3dfffd10	0.1249944
200	0xbcb7c27c	-0.022431605
201	0xbc85bcc6	-0.016325366
202	0x3d175519	0.03694639
203	0x3e6f1af6	0.23350129
204	0xbcbd8200	-0.023133278
205	0x3dfc9cf8	0.12334627
206	0xbd4fde89	-0.050749335
207	0x3da48978	0.080340326
208	0x3e1dd75f	0.15414189
209	0x3df80361	0.121100195
210	0x3d84ce2f	0.06484639
211	0x3c94c5b2	0.018160675
212	0x3d786652	0.060644455
213	0x3d91f540	0.07126856
214	0x3c6f15d3	0.014592606
215	0x3c30e012	0.01079561
216	0x3d5bd20d	0.053667117
217	0x3d556122	0.052094586
218	0x3d351d55	0.044217426
219	0xbd46e4a6	-0.0485579
220	0x3c804adb	0.015660694
221	0xbd41daad	-0.047327686
222	0xbda1c36e	-0.078986034
223	0xbc117303	-0.008877519
224	0xbcdf0bba	-0.027227271
225	0x3d42a04a	0.047516145
226	0x3da4aef5	0.08041183
227	0x3d8b2f85	0.06796173
228	0xbd8939f7	-0.06700509
229	0x3c46cc4a	0.012133667
230	0x3da7675e	0.081740126
231	0x3e008f04	0.12554556
232	0x3daab135	0.08334581
233	0x3e630a97	0.22172008
234	0x3c37dadd	0.011221615
235	0xbd0eb1b7	-0.03483745
236	0x3e040cb1	0.12895466
237	0x3e95eef7	0.29283878
238	0x3dba09a3	0.09083869
239	0xbd04026a	-0.032228865
240	0xbd6c6b25	-0.05771937
241	0xbdc19243	-0.09451725
242	0x3e0097a8	0.12557852
243	0xbcae6602	-0.021288875
244	0xbd0e4f59	-0.03474364
245	0xbd3e5586	-0.04646828
246	0x3d9d0c19	0.07668323
247	0xbdbbe39d	-0.09174273
248	0xbd517a11	-0.051141802
249	0xbd47b13a	-0.048753
250	0xbcffc16b	-0.031220159
251	0x3c460c60	0.012087911
252	0xbd84de85	-0.06487755
253	0xbd03d188	-0.032182246
254	0x3e0f4ce1	0.1399417
255	0xbd5ba02a	-0.05361954

fc1.bias f4 [64]
0	0xbda0b7bc	-0.078475446
1	0x3d1e9d94	0.038724497
2	0x3b8c1598	0.004275035
3	0x3d4fd69c	0.050741777
4	0x3d5807be	0.05274176
5	0x3d541a37	0.051782813
6	0x3d3ed4d8	0.046589702
7	0xbd7accce	-0.061230473
8	0x3cd872e8	0.02642198
9	0xbd122162	-0.035676368
10	0xbdc88e9a	-0.09792824
11	0x3de1e3a6	0.110297486
12	0xbd1340f2	-0.03595061
13	0x3de22ea5	0.11044053
14	0xbc3d9f47	-0.011573619
15	0xbb94e360	-0.004543707
16	0x3d39c06e	0.04534953
17	0x3c07c536	0.008286765
18	0x3cca89a8	0.024723843
19	0x3d8015b5	0.0625414
20	0x3cb13140	0.02162993
21	0x3e036f88	0.12835515
22	0x3c7ce3f7	0.01543521
23	0x3d92ebbe	0.071738705
24	0xbc36a62c	-0.011148017
25	0x3c51922f	0.012791201
26	0x3d141d7b	0.036160927
27	0x3c02d657	0.007985673
28	0x3d9c8bb2	0.07643832
29	0xbda52f20	-0.08065629
30	0x3dc3c612	0.09559263
31	0xbd36d43b	-0.044635992
32	0xbd87f3e7	-0.066383176
33	0x3cba840b	0.022768041
34	0xbc31f72d	-0.010862154
35	0x3d9bae96	0.07601659
36	0xbc7eb6cd	-0.015546513
37	0xba83b8b5	-0.0010049554
38	0x3de72c31	0.11287726
39	0xbd46236a	-0.048373617
40	0x3c8c9273	0.017159676
41	0x3dd92de8	0.10604459
42	0x3ca17ff3	0.019714331
43	0x3d11208a	0.035431422
44	0x3c06e6da	0.00823375
45	0x3d4b358a	0.049611606
46	0x3d7950f1	0.060868207
47	0xba82204d	-0.0009927839
48	0x3c7501ff	0.014954089
49	0xbd28d6da	-0.041220523
50	0x3d467e66	0.048460387
51	0xbcc38571	-0.02386734
52	0xbd0c8bcf	-0.03431302
53	0xbd18060b	-0.037115138
54	0xbc116fe0	-0.008876771
55	0x3e007e90	0.1254828
56	0x3be160bf	0.006877988
57	0x3d02e181	0.03195334
58	0x3d22c6c2	0.03974033
59	0x3dc90a91	0.098164685
60	0xbd578e7d	-0.05262612
61	0xbc21d1c4	-0.009876672
62	0xbd8d0788	-0.06886202
63	0x3d32cf3f	0.043654677

fc2.weight f4 [64, 64]
0	0xbe4c8c28	-0.1997534
1	0x3dae015e	0.084963545
2	0x3df0181a	0.11723347
3	0xbb297725	-0.002585837
4	0xbe0d14fc	-0.13777536
5	0x3da591d1	0.08084453
6	0xbda879b3	-0.08226337
7	0x3d3c7bb9	0.04601643
8	0xbb00c811	-0.00196505
9	0x3d01933d	0.031634558
10	0x3dc6c52f	0.097055785
11	0xbdee5a7d	-0.11638353
12	0xbe7a2e42	-0.24431708
13	0x3d863262	0.065525785
14	0x3d292587	0.041295554
15	0xbdaa5c7d	-0.08318422
16	0x3ce6985a	0.028148819
17	0x3c0a44b7	0.008439234
18	0xbe1dc6c0	-0.15407848
19	0xbdda1a46	-0.106495425
20	0xbe0480b9	-0.12939729
21	0x3e027dcd	0.12743302
22	0x3ccd3f4c	0.025054596
23	0xbe1b33f5	-0.15156539
24	0x3dc11e68	0.09429628
25	0x3d38d459	0.045124386
26	0xbe15c5b7	-0.14626203
27	0xbe0b698a	-0.13614479
28	0xbc9d7197	-0.019219203
29	0x3e889a07	0.26680014
30	0x3d7a977b	0.06117962
31	0x3e6f6642	0.23378852
32	0xbc89dcb5	-0.016828874
33	0x3e1eb9a6	0.15500507
34	0x3e071c6d	0.13194437
35	0x3e55ae08	0.20867169
36	0x3b8f49c5	0.0043728077
37	0x3e64ccec	0.22343796
38	0xbdb9a9be	-0.09065579
39	0xbe60e042	-0.21960548
40	0x3d6b04c3	0.057377588
41	0xbe53eb6c	-0.20695275
42	0xbe104a83	-0.14090924
43	0xbe15f4bd	-0.14644141
44	0xbd1f52a8	-0.038897187
45	0x3d1934a4	0.037403718
46	0x3e4075c0	0.18794918
47	0x3deccfa1	0.115630396
48	0x3daf69a2	0.0856507
49	0xbe48efbb	-0.196227
50	0xbc4f40a6	-0.012649691
51	0xbcbe24ed	-0.023210967
52	0x3e3fd7dc	0.18734688
53	0xbe282337	-0.16419683
54	0x3a26625c	0.0006347054
55	0xbdca018c	-0.09863576
56	0x3e3a27c0	0.18179226
57	0x3db2b9d5	0.08726851
58	0x3d7cb6c1	0.061697725
59	0x3e14f2c6	0.14545736
60	0x3d323edb	0.043516975
61	0xbdb719a8	-0.089404404
62	0x3ea92e02	0.33042914
63	0xbd975b9a	-0.073905185
64	0xbce8b7a2	-0.028407875
65	0x3e233e4a	0.1594173
66	0x3ddd0838	0.10792583
67	0x3e02526f	0.12726758
68	0x3e18aeac	0.14910382
69	0x3df74f36	0.12075655
70	0x3d9607a1	0.07325674
71	0x3d3816dc	0.044943675
72	0x3dbf60da	0.09344645
73	0x3dfacd7b	0.122462235
74	0xbdda6bfc	-0.10665128
75	0x3ce462c7	0.027879132
76	0xbde05075	-0.10952846
77	0x3e3decfb	0.18547432
78	0xbcadfbdd	-0.021238262
79	0x3de7f793	0.11326518
80	0x3dec24d6	0.115304634
81	0x3e12af33	0.14324646
82	0x3e6850a2	0.22687009
83	0xbe5dcaa8	-0.21659338
84	0x3d95dc6f	0.07317435
85	0xbc333732	-0.010938453
86	0x3e03cfdd	0.12872262
87	0x3dc5bd52	0.096552506
88	0x3e3a4074	0.1818865
89	0x3d05d839	0.03267691
90	0xbe0cd6f6	-0.13753876
91	0x3ddf2fb8	0.108977735
92	0x3df4aec6	0.11947398
93	0x3e645cef	0.22301076
94	0x3dc0f68f	0.09422027
95	0x3da3b3dd	0.079932906
96	0x3ca2f419	0.019891785
97	0x3e181ddb	0.14855139
98	0xbc80cd90	-0.01572302
99	0x3e16a06f	0.14709638
100	0xbd210f5a	-0.03932128
101	0x3e4cc79a	0.19998017
102	0x3d242135	0.04007073
103	0x3df0d495	0.11759297
104	0x3bcd4fc4	0.0062656123
105	0x3c8013d9	0.015634464
106	0x3cbd8731	0.023135753
107	0xbd723973	-0.05913682
108	0x3d8e160f	0.06937801
109	0x3d4a3e6d	0.04937594
110	0x3df30542	0.11866237
111	0x3d9eea8a	0.077595785
112	0xbd261003	-0.040542614
113	0x3cba5c2a	0.022749025
114	0x3dcbe96f	0.09956633
115	0x3dcea201	0.100894935
116	0x3e08d5f1	0.13362862
117	0x3da0efdf	0.07858252
118	0x3e113cb4	0.14183313
119	0x3e37f37b	0.17963974
120	0xbd9bfef7	-0.0761699
121	0x3cea5532	0.028605077
122	0x3dc70146	0.0971704
123	0x3dd27891	0.102769025
124	0xbd99f88e	-0.07518111
125	0x3e2a6c35	0.1664284
126	0xbdc56ba4	-0.096396714
127	0x3def11f7	0.116733484
128	0x3c41470e	0.011796726
129	0x3de568ee	0.112016544
130	0xbcacc37f	-0.021089314
131	0xbd9048d2	-0.07045139
132	0xbce6d62a	-0.028178293
133	0x3d72555c	0.059163436
134	0xbdb0ca9b	-0.08632394
135	0xbd80a1c8	-0.06280857
136	0xbe16c313	-0.14722852
137	0x3b00460a	0.0019572997
138	0xbd4c1bac	-0.049831077
139	0x3e11562a	0.14193025
140	0x3cee35c2	0.029078368
141	0xb99b7912	-0.00029654108
142	0x3d056d36	0.032574855
143	0x3e21d089	0.15802206
144	0x3d4be2a6	0.049776696
145	0xbdcffbf8	-0.10155481
146	0x3e2b0966	0.16702804
147	0x3d8739de	0.06602834
148	0x3e035c5b	0.128282
149	0xbd0480ee	-0.03234952
150	0x3cb659e4	0.02225966
151	0x3e0f126d	0.13971873
152	0x3df7312f	0.12069928
153	0xbd6e3986	-0.058160327
154	0x3bf0ce20	0.0073487908
155	0xbd45805f	-0.048218127
156	0x3daf9edc	0.08575222
157	0xbb9cbe6a	-0.0047834413
158	0xbc91a279	-0.017777668
159	0xbd9dbbd9	-0.07701845
160	0x3d8274d4	0.063699394
161	0xbd0d2c5b	-0.03446613
162	0x3d971830	0.0737766
163	0x3dc1022c	0.094242424
164	0xbe00f3d7	-0.12593018
165	0xbe40fec2	-0.18847182
166	0xbdc15d4b	-0.09441622
167	0x3dc52379	0.096259065
168	0x3c1cd393	0.009571928
169	0x3d97efba	0.07418771
170	0x3d178212	0.03698928
171	0xbd486e0b	-0.04893307
172	0x3e60d4f8	0.21956241
173	0x3dcd52d1	0.100255616
174	0xbda3ab76	-0.07991688
175	0x3c179aa3	0.009253177
176	0x3c9c66be	0.01909196
177	0xbcaded44	-0.021231301
178	0xbd6051ed	-0.05476563
179	0xbde86969	-0.113482304
180	0x3d5e7ac2	0.05431629
181	0x3cb05d23	0.021528786
182	0x3e18800f	0.148926
183	0x3ba66fab	0.00507923
184	0xbdad3e7f	-0.08459186
185	0x3dc1e3e4	0.09467295
186	0x3df62315	0.1201841
187	0x3db1c2f0	0.086797595
188	0xbcf93098	-0.03041868
189	0x3ce1e5ab	0.027575335
190	0xbdde31d4	-0.10849348
191	0x3d59235f	0.053012248
192	0xbe8f57e0	-0.2799673
193	0x3d8353b0	0.064124465
194	0xbdb752d3	-0.08951344
195	0xbacdb041	-0.0015692787
196	0x3a873c76	0.0010317701
197	0x3d5cbb7c	0.053889737
198	0xbd73840a	-0.059452094
199	0xbbc19533	-0.0059076785
200	0xbd7f451f	-0.06232178
201	0xbd878b5c	-0.066183776
202	0x3e2c8989	0.1684934
203	0xbe00346e	-0.1252
204	0xbdd58d20	-0.10427308
205	0x3e1eee1c	0.15520519
206	0xbd3cff01	-0.04614163
207	0xbe02f714	-0.12789565
208	0xbd4b34dd	-0.04961096
209	0x3e0baa7f	0.13639258
210	0xbcd877ed	-0.026424373
211	0xbdd3b035	-0.10336343
212	0xbd4309bd	-0.04761671
213	0x3d095d57	0.03353628
214	0xbdf27f92	-0.11840738
215	0xbd13ae29	-0.036054764
216	0x3e01618f	0.12634872
217	0xbc2c6d56	-0.010524115
218	0xbd3446ac	-0.04401271
219	0xbdb60404	-0.08887485
220	0x3e0e4673	0.13894062
221	0x3cf4566a	0.029826362
222	0x3dedbc00	0.11608124
223	0x3e3f6185	0.18689544
224	0x3d08f4ab	0.03343646
225	0xbd1843e7	-0.03717413
226	0x3b3b91dd	0.0028620877
227	0x3c662a11	0.014048115
228	0x3bc1c85e	0.005913778
229	0x3d96e6ff	0.07368278
230	0xbdec12b9	-0.115270086
231	0xbd69ca54	-0.05707772
232	0x3d0dd586	0.03462746
233	0xbc13aae7	-0.009012914
234	0xbde03f91	-0.10949624
235	0xbea90ded	-0.33018437
236	0xbd1b8858	-0.037971824
237	0xbcdeabf0	-0.027181596
238	0x3daf8fdf	0.08572363
239	0xbdc670aa	-0.09689458
240	0x3dca2c16	0.0987169
241	0xbdc3646c	-0.09540638
242	0x3db48855	0.08815066
243	0x3aff74e8	0.0019489797
244	0x3d86f1f1	0.065891154
245	0xbe1ef1c1	-0.1552191
246	0xbe17d72a	-0.14828172
247	0x3cf6dd71	0.030134888
248	0x3dbc01b9	0.09180016
249	0xbd60659e	-0.05478441
250	0x3d81f298	0.06345099
251	0x3c996dae	0.018729057
252	0x3c30a855	0.010782321
253	0x3df01334	0.11722413
254	0x3db19f75	0.08672992
255	0x3d49cd72	0.049268194

fc2.bias f4 [64]
0	0xbe22956c	-0.15877312
1	0x3da74ef5	0.08169357
2	0x3d509922	0.05092729
3	0x3d16d8ff	0.036828037
4	0x3d9c506e	0.07632528
5	0x3d703ebc	0.05865358
6	0x3d94140f	0.072303884
7	0xbc2ba900	-0.010477304
8	0x3d7a5bc5	0.061122674
9	0x3dcc513b	0.09976431
10	0xbdec38f2	-0.11534299
11	0x3d9891dc	0.074496955
12	0x3d89cff1	0.06729115
13	0x3c5e06dd	0.013551441
14	0xbd8b47b2	-0.06800784
15	0xbde311b3	-0.1108736
16	0xbc037403	-0.008023265
17	0x3cf01169	0.029305177
18	0xbe043431	-0.12910534
19	0x3d968e8c	0.073514074
20	0x3cdebabc	0.027188651
21	0xbda2b6df	-0.07945036
22	0x3e0802b7	0.13282286
23	0x3c04d879	0.008108252
24	0xbde3b530	-0.11118543
25	0xbdc584f2	-0.09644498
26	0xbd74a352	-0.059726067
27	0x3e12f1b4	0.14350015
28	0xbd5f437c	-0.054507717
29	0xbc4b4502	-0.012406589
30	0x3ddcfe06	0.107906386
31	0x3de5ed71	0.11226929
32	0xbaa220e3	-0.001236942
33	0x3dfe03c9	0.12403066
34	0xbda9b037	-0.082855634
35	0xbd9a9b1a	-0.075491145
36	0x3d339731	0.04384536
37	0xbd660b7c	-0.056163296
38	0xbdb556ca	-0.08854444
39	0x3cbebd8b	0.02328374
40	0x3d80da3b	0.06291624
41	0xbbe1492e	-0.006875179
42	0x3e1b6c01	0.15177919
43	0x3df41058	0.1191718
44	0xbd997a8c	-0.07494077
45	0xb9160664	-0.00014307495
46	0x3d6169aa	0.05503241
47	0xbdb1a41e	-0.08673881
48	0xbd7bda51	-0.0614875
49	0xbd9ae9e2	-0.07564141
50	0x3daa0505	0.08301739
51	0xbc0d9adb	-0.008642877
52	0xbdd0618b	-0.10174855
53	0xbdfa1206	-0.12210469
54	0x3da9f333	0.0829834
55	0x3d667c11	0.056270663
56	0xbd98530c	-0.07437715
57	0x3db05f67	0.086119466
58	0x3d84a6d8	0.064771354
59	0x3c1b0ddd	0.0094637545
60	0xbd037029	-0.032089386
61	0xbdaa6fec	-0.08322129
62	0xbcacb512	-0.021082435
63	0x3e0a1d10	0.13487649

fc3.weight f4 [25, 64]
0	0xbd0bb070	-0.03410381
1	0xbe287023	-0.16449027
2	0x3ca567c5	0.020191083
3	0xbd4c5a1c	-0.049890622
4	0xbdb4d03b	-0.08828779
5	0xbd20b3ca	-0.03923396
6	0x3d15caee	0.036570482
7	0xbcf75af3	-0.030194735
8	0xbdde8b5e	-0.10866426
9	0xbdf262bd	-0.11835239
10	0xbebce734	-0.36895144
11	0xbe055624	-0.13021141
12	0x3be67813	0.007033357
13	0x3b92c7fb	0.004479406
14	0x3d243b6a	0.040095724
15	0xbd88445e	-0.06653665
16	0xbdfb1659	-0.12260122
17	0xbdea64c3	-0.11445
18	0x3dcb8a45	0.09938482
19	0xbdf4052c	-0.11915049
20	0xbe206297	-0.15662609
21	0xbe721401	-0.23640443
22	0xbe236b61	-0.1595893
23	0xbe3b618d	-0.18298931
24	0x3daeaa16	0.08528535
25	0xbca51bc9	-0.02015485
26	0xbe012b2c	-0.12614125
27	0xbd191def	-0.037382063
28	0xbd50becd	-0.05096321
29	0x3cb5a9cb	0.02217569
30	0xbddf3be8	-0.10900098
31	0x3da5d879	0.080979295
32	0x3c8e2d9a	0.017355729
33	0xbd9dc3e9	-0.077033825
34	0xbe52ab21	-0.20573093
35	0xbe9404d9	-0.28909948
36	0x3c4fe9e3	0.01269004
37	0xbdf9b772	-0.121931925
38	0x3cfa7eaa	0.030577976
39	0xbb208200	-0.0024491549
40	0x3e373714	0.17892104
41	0x3de8e6ff	0.11372184
42	0xbcf5b970	-0.02999565
43	0x3d1d0b23	0.0383407
44	0xbe1d0e8a	-0.15337577
45	0xbd85cfb2	-0.06533755
46	0xbe263bda	-0.16233769
47	0xbe6d8cb7	-0.2319821
48	0x3dd97a03	0.10618975
49	0xbdb0593f	-0.08610772
50	0xbe0f0a0a	-0.13968673
51	0xbe3cbc82	-0.18431285
52	0x3da4f916	0.08055322
53	0xbd3d6481	-0.046238426
54	0x3e581f1e	0.2110562
55	0x3db1e048	0.086853564
56	0x3d156baf	0.03647965
57	0x3db28fe3	0.087188505
58	0xbdaa044d	-0.083016016
59	0xbd491d36	-0.049100123
60	0xbba1a1b2	-0.0049326057
61	0xbd86d35c	-0.06583282
62	0x3dcccfb0	0.10000551
63	0x3d92d41a	0.071693614
64	0x3dd96e88	0.10616785
65	0xbc5f5408	-0.013630874
66	0x3d1a0a77	0.037607636
67	0xbdbd6195	-0.09247128
68	0xbe1603da	-0.14649907
69	0xbe503ca4	-0.20335633
70	0xbe15332f	-0.14570306
71	0xbd867ebd	-0.06567142
72	0xbe5e009e	-0.21679923
73	0xbe0b30bf	-0.13592814
74	0xbe9c5227	-0.30531427
75	0x3ccd01b6	0.02502523
76	0xbd6192c3	-0.055071604
77	0xbe0be282	-0.13660625
78	0xbd33e6e6	-0.043921374
79	0x3c9c6179	0.019089447
80	0xbe3732f4	-0.17890531
81	0xbc10f36e	-0.008847101
82	0x3de11633	0.10990562
83	0x3def3d3f	0.11681604
84	0xbdcd7175	-0.10031406
85	0xbe26651b	-0.16249506
86	0x3c999c45	0.018751273
87	0xbd9d95df	-0.07694601
88	0x3d205c35	0.039150435
89	0xbe0765e9	-0.1322247
90	0xbd379540	-0.04482007
91	0x3cfbd494	0.030741014
92	0x3db385bf	0.087657444
93	0x3cfa29c7	0.0305375
94	0x3da12ee4	0.07870272
95	0xbbcc24eb	-0.006229987
96	0x3dff24d0	0.12458193
97	0x3d8859dc	0.06657764
98	0xbe16b424	-0.14717156
99	0xbe8a0d69	-0.26963356
100	0xbdf35238	-0.11880916
101	0xbd0d29e7	-0.03446379
102	0xbb130185	-0.0022431326
103	0x3d286779	0.041114304
104	0x3db3d3b2	0.08780612
105	0xbdf2d429	-0.118568726
106	0xbc0a3f16	-0.008437892
107	0xbdb6928b	-0.089146696
108	0xbe0911b0	-0.13385653
109	0x3becb09e	0.007223203
110	0xbe1a0bf6	-0.15043625
111	0xbdd639e5	-0.10460261
112	0xbe08f274	-0.13373739
113	0xbe2e8a83	-0.17045026
114	0xbd7ebcfe	-0.062191956
115	0xbde40c32	-0.111351386
116	0xbd3145e6	-0.04327955
117	0x3da93de2	0.08263756
118	0x3e31d67b	0.17366974
119	0x3de52d1c	0.111902446
120	0xbdd50ebd	-0.10403202
121	0xbc4643c3	-0.012101117
122	0xbe116a6a	-0.1420075
123	0x3cc06361	0.023484888
124	0x3df62b73	0.12020006
125	0x3da88f6a	0.08230479
126	0x3c9558da	0.018230844
127	0x3dbce16f	0.092226855
128	0x3dace623	0.084423326
129	0xbb58d97c	-0.0033088615
130	0x3cc9fa96	0.024655621
131	0x3d7e6387	0.062106635
132	0xbe1984cc	-0.14992064
133	0xbdbcffc1	-0.09228469
134	0xbdab1565	-0.0835369
135	0xbe558ad6	-0.20853743
136	0xbc9ccb64	-0.019139953
137	0xbdf7faa4	-0.12108353
138	0xbe452e4d	-0.19255944
139	0xbe22043b	-0.15821926
140	0x3d62c50d	0.055363704
141	0x3d935b3d	0.07195137
142	0x3dcd4131	0.100222
143	0x3ddbc863	0.1073158
144	0xbdb7fd85	-0.08983902
145	0xbc43a343	-0.01194078
146	0x3c78d986	0.01518858
147	0x3d3b04ce	0.04565888
148	0xbe2308fb	-0.15921395
149	0xbc9e6d78	-0.019339308
150	0xbe087110	-0.1332438
151	0xbc8992be	-0.016793605
152	0xbd943df4	-0.07238379
153	0x3caad8c3	0.020855313
154	0xbe39213a	-0.18079081
155	0xbe26a635	-0.1627434
156	0x3dd44629	0.103649445
157	0x3d55dad7	0.052210655
158	0xbd8ba40d	-0.068183996
159	0x3e133611	0.14376093
160	0x3cb5b3a9	0.022180395
161	0xbb70d856	-0.003675004
162	0xbddfdc44	-0.10930684
163	0xbe530717	-0.20608173
164	0xbce97a6d	-0.02850076
165	0xbdb83702	-0.08994867
166	0xbe0a9f1f	-0.13537262
167	0xbda8c65d	-0.0824096
168	0x3e23035c	0.1591925
169	0xbd23912f	-0.03993338
170	0x3cf1afce	0.029502776
171	0xbe2d24fd	-0.16908641
172	0xbdf3393a	-0.118761495
173	0x3d7025f7	0.058629956
174	0xbe241cb6	-0.16026577
175	0xbcc35092	-0.02384213
176	0xbd0d44ba	-0.03448937
177	0xbe08cd50	-0.1335957
178	0x3d3f1c0a	0.0466576
179	0xbd13e795	-0.036109526
180	0xba3d72a7	-0.00072268624
181	0xbd0463fa	-0.032321908
182	0x3d37fda7	0.044919636
183	0x3e0c57b0	0.13705325
184	0x3daf7cfb	0.0856876
185	0x3d798f35	0.06092759
186	0xbe2096ec	-0.15682572
187	0xbe20a58f	-0.15688156
188	0x3dea1f3b	0.11431738
189	0xbddd68c4	-0.10810998
190	0x3dd6d9bd	0.10490749
191	0x3da8691d	0.08223174
192	0x3e962c5d	0.29330721
193	0x3cf9b838	0.03048335
194	0xbe291541	-0.16512014
195	0x3d9b72b4	0.07590237
196	0xbdf9af2e	-0.12191616
197	0xbda0ac40	-0.07845354
198	0x3c1d22c6	0.00959081
199	0xbe1992fb	-0.14997475
200	0xbc379d99	-0.011207008
201	0xbd81db8d	-0.06340704
202	0xbe47a88a	-0.19497886
203	0xbddc444f	-0.10755216
204	0xbd86998d	-0.06572256
205	0xbd24a9f4	-0.040201142
206	0xbd788c1a	-0.060680486
207	0xbc8d6a5f	-0.017262636
208	0xbe1509d9	-0.14554538
209	0xbd1b2fc8	-0.037887365
210	0xbc97b6ad	-0.018519724
211	0xbcdfb8b9	-0.027309762
212	0xbe08a4e4	-0.13344151
213	0xbdb60ad1	-0.08888782
214	0xbb21caba	-0.0024687485
215	0x3de1e28b	0.11029538
216	0x3aa2401c	0.0012378725
217	0x3d27b5cb	0.040944856
218	0xbde8e7ac	-0.11372313
219	0xbd8c039c	-0.06836626
220	0x3e9048e2	0.28180605
221	0xbe203e56	-0.1564878
222	0x3d088eeb	0.033339422
223	0x3deb7aa1	0.11497999
224	0x3aa92019	0.0012903243
225	0x3d59fb89	0.0532184
226	0xbd83942b	-0.06424745
227	0xbdf7e0c1	-0.12103415
228	0xbdb30f99	-0.087432094
229	0xbe01baff	-0.1266899
230	0xbd4cb77b	-0.049979668
231	0x3ca38730	0.019961923
232	0x3b4827ec	0.0030541373
233	0x3dd77b8c	0.105216116
234	0x3b82e9bb	0.003995148
235	0xbd1cacef	-0.03825086
236	0xbe43709c	-0.19085926
237	0xbdbcf1e5	-0.09225825
238	0xbd659131	-0.05604667
239	0xbe12990d	-0.14316197
240	0x3db7efea	0.08981307
241	0xbd79b783	-0.060966026
242	0x3cc60bfd	0.024175638
243	0xbe412a11	-0.18863703
244	0xbdd8cf36	-0.10586397
245	0x3c020046	0.0079346355
246	0x3e0be5ed	0.13661928
247	0x3dec0f55	0.11526362
248	0xbde3bda5	-0.11120156
249	0xbcc91188	-0.024544492
250	0xbdfd8dcb	-0.123805605
251	0xbdaabe47	-0.08337074
252	0x3d8e8ca4	0.06960419
253	0x3d164720	0.036688924
254	0xbcf68b53	-0.030095732
255	0xbd3f6d10	-0.04673487

fc3.bias f4 [25]
0	0xbcc5afd4	-0.024131693
1	0xbd811c79	-0.06304259
2	0x3d8cdd1a	0.06878109
3	0xbc8f9e3f	-0.017531512
4	0xbd6dfdfc	-0.058103547
5	0x3d355ee1	0.044279937
6	0x3da85d69	0.082209416
7	0xbcf3daf2	-0.029767487
8	0xbd9b7389	-0.07590396
9	0xbcaaf959	-0.020870851
10	0x3d131b3b	0.03591464
11	0xbd0e3c1d	-0.034725297
12	0xbc504bfb	-0.012713428
13	0x3d8f0680	0.06983662
14	0xbdcc69b3	-0.09981098
15	0xbda02fd3	-0.07821622
16	0x3d1d6d9d	0.038434613
17	0xbc9964f4	-0.018724896
18	0xbd673d62	-0.056455024
19	0xbcadcc01	-0.02121544
20	0x3da4d833	0.08049049
21	0x3db4f5c2	0.08835937
22	0x3d955907	0.07292371
23	0x3a9ae82a	0.0011818458
24	0xbd99f69d	-0.07517741
