best_model7/doppo/agent_2/actor_params.pkl (torch, 83823 bytes, 18 tensors)

fc1.weight f4 [64, 38]
-0.010904188 0.05921905 0.041575197 -0.14420135 -0.023730185 -0.2167614 0.016473731 0.19180168
0.2936237 0.3242784 -0.19936724 0.26377475 0.116225176 0.20542619 -0.1446441 -0.21293393
-0.22832035 0.24731146 0.49478754 0.21495071 -0.19292329 -0.10208213 0.15853274 -0.14589669
-0.11551209 -0.088606566 -0.17653888 0.12933515 0.008042622 -0.03287425 0.042995606 0.20295724
0.0017726079 -0.016989443 0.007549804 0.068684265 0.057599865 0.0020623335 0.013931004 0.042152006
-0.0051736333 -0.02039325 0.010142968 -0.0905436 0.09568438 -0.006733016 -0.23061915 -0.20230095
0.31773916 0.048450235 -0.04162507 -0.3766605 -0.02301465 0.3341279 0.3873937 -0.01429523
-0.32489136 -0.047202874 0.32578686 0.010018388 0.073944606 0.09535468 -0.00085824507 -0.017777972
-0.023266202 0.04761502 0.11704176 0.07276705 0.1483898 0.14625669 0.114800796 0.18323213
0.1106307 0.120892756 0.15839294 0.15608537 -0.01839983 0.08681357 -0.0999334 0.054134768
-0.17841385 -0.14970876 -0.13052692 -0.03625001 -0.06758618 -0.15583691 0.36066523 -0.107119426
-0.1551912 -0.1290799 -0.065965265 0.15775469 -0.13614778 0.08188085 0.050013375 0.017267028
-0.11013207 0.044761267 -0.09959932 0.013542048 0.29754224 0.04789159 -4.1385836e-05 -0.030890604
0.050331436 -0.08310343 -0.06366931 -0.05547523 0.09337573 -0.0040323194 0.017744418 0.01457724
-0.06448567 -0.007661 -0.068622544 -0.069598645 0.13203141 0.12584251 -0.16178422 0.20001054
0.0020311072 -0.038761333 -0.17278966 -0.14941765 -0.008352242 -0.14595872 -0.051377673 -0.18267
-0.030292183 0.06808579 0.34757128 -0.10286086 -0.2755332 -0.10180642 0.010844783 0.12843664
0.051564224 0.12824155 -0.15563256 0.07958028 -0.050772272 0.08038585 0.104637235 0.13049759
0.12091206 0.11774904 0.10768454 0.116365895 0.19510445 0.19535103 0.17666927 0.20151633
0.10617918 0.2535509 0.256084 -0.0011758087 0.09072332 0.04742233 0.0100052655 0.083257206
0.08540043 -0.0682738 0.2310074 0.14974266 0.058868058 -0.28605917 0.077191025 0.03484593
0.09149924 -0.055418547 -0.28185382 -0.10920439 -0.08899522 0.22110187 0.05893365 0.098424956
-0.18006375 0.106980406 0.13616525 -0.10366588 0.21738374 0.10732741 0.20531113 0.20393987
0.10555039 0.086459175 0.10779609 0.18014242 -0.030185519 0.062180895 0.26366293 0.092438206
0.0312163 0.18188912 0.09235132 1.8499588e-05 -0.06090587 0.11910843 0.14134291 0.18755178
-0.06487749 0.1916011 0.40576807 0.15184917 0.14398612 -0.14851096 0.18442553 -0.03479627
0.3038135 -0.101702005 -0.13032585 -0.10076722 0.11325906 0.11375713 -0.09806594 -0.184412
-0.009803662 0.02758362 0.14880031 0.20875621 -0.00439555 -0.057231005 0.11787933 0.21083534
0.2160169 0.10571938 0.032732747 0.1498824 0.092698574 -0.17402998 -0.10321334 0.041734938
0.08187745 0.050219774 0.062884614 0.11242416 -0.27907667 -0.1205442 0.2275453 0.000103252605
-0.13995594 0.051446047 -0.14233945 0.117575675 0.14326723 0.09249991 0.13599224 0.02073502
0.09716717 0.02931789 0.14965174 0.21882291 0.29969552 -0.12985705 -0.033964273 -0.05707687
00000000: 7ba7 32bc ad8f 723d c14a 2a3d 85a9 13be
00000010: ce65 c2bc b3f6 5dbe ebf3 863c a967 443e
00000020: d855 963e d207 a63e ed26 4cbe 7c0d 873e
00000030: 7707 ee3d 3e5b 523e 951d 14be 5a0b 5abe
00000040: cfcc 69be 373f 7d3e cb54 fd3e 0a1c 5c3e
00000050: af8d 45be 7010 d1bd 6856 223e f165 15be
00000060: 9a91 ecbd 5c77 b5bd 9cc6 34be 6f70 043e
00000070: 34c5 033c 26a7 06bd 291c 303d 06d4 4f3e
00000080: da56 e83a 722d 8bbc 5964 f73b 56aa 8c3d
00000090: d6ed 6b3d 3728 073b de3e 643c 95a7 2c3d
000000a0: 9587 a9bb bf0f a7bc b12e 263c ec6e b9bd
000000b0: 2cf6 c33d a2a0 dcbb 6d27 6cbe fb27 4fbe
000000c0: b5ae a23e c173 463d 0d7f 2abd a5d9 c0be
000000d0: 3889 bcbc d012 ab3e 7858 c63e 8a36 6abc
000000e0: 2958 a6be cd57 41bd 89cd a63e 2a24 243c
000000f0: 4570 973d 5149 c33d dafb 60ba 1ca3 91bc
00000100: c398 bebc f807 433d 97b3 ef3d e406 953d
00000110: 7ff3 173e 50c4 153e ae1c eb3d 34a1 3b3e
00000120: 5992 e23d 9f96 f73d c231 223e d8d4 1f3e
00000130: 3ebb 96bc 50cb b13d e2a9 ccbd 6bbc 5d3d
00000140: 1fb2 36be 414d 19be d9a8 05be e47a 14bd
00000150: a06a 8abd b693 1fbe 1da9 b83e 6e61 dbbd
00000160: 71ea 1ebe 852d 04be cc18 87bd 728a 213e
00000170: 536a 0bbe 26b1 a73d d3da 4c3d 9573 8d3c
00000180: ec8c e1bd 9757 373d bafa cbbd 77df 5d3c
00000190: 7557 983e f929 443d b495 2db8 4b0e fdbc
000001a0: 5628 4e3d 2232 aabd 0e65 82bd ff39 63bd
000001b0: c63b bf3d 8c21 84bb be5c 913c 60d5 6e3c
000001c0: 1011 84bd 2009 fbbb fa89 8cbd bc89 8ebd
000001d0: 3e33 073e dcdc 003e c3aa 25be 90cf 4c3e
000001e0: 531c 053b 34c4 1ebd c6ef 30be f100 19be
000001f0: d8d7 08bc 3476 15be 6571 52bd d80d 3bbe
00000200: 5027 f8bc 9070 8b3d ddf4 b13e b7a8 d2bd
00000210: b012 8dbe e27f d0bd 51ae 313c e584 033e
00000220: 0235 533d c151 033e 245e 1fbe fcfa a23d
00000230: 96f6 4fbd 56a1 a43d 0c4c d63d 29a1 053e
00000240: bea0 f73d 6926 f13d b689 dc3d 3e51 ee3d
00000250: 76c9 473e 1a0a 483e cae8 343e 4c5a 4e3e
00000260: 7874 d93d 6cd1 813e 711d 833e 981d 9aba
00000270: 26cd b93d eb3d 423d 20ed 233c c182 aa3d
00000280: 6ce6 ae3d 22d3 8bbd 348d 6c3e 2456 193e
00000290: a21f 713d 5976 92be 5416 9e3d 9bba 0e3d
000002a0: f463 bb3d 8ffe 62bd 254f 90be 8da6 dfbd
000002b0: 2043 b6bd 8768 623e 6964 713d 0693 c93d
000002c0: a262 38be 8b18 db3d e76e 0b3e c74e d4bd
000002d0: d899 5e3e 79ce db3d 153d 523e 9dd5 503e
000002e0: ce2a d83d 8211 b13d 32c4 dc3d 4177 383e
000002f0: 9f47 f7bc 65b1 7e3d d4fe 863e 3e50 bd3d
00000300: 53b9 ff3c 2441 3a3e b022 bd3d 902f 9b37
00000310: 6f78 79bd 1fef f33d 32bc 103e 930d 403e
00000320: 7dde 84bd 1433 443e d5c0 cf3e 597e 1b3e
00000330: 1971 133e 4213 18be 0cda 3c3e 8986 0ebd
00000340: 718d 9b3e 2449 d0bd 2474 05be 0b5f cebd
00000350: 5ef4 e73d 80f9 e83d ccd6 c8bd 80d6 3cbe
00000360: 8a9f 20bc 0bf7 e13c 1c5f 183e 30c4 553e
00000370: 8c08 90bb 0f6b 6abd b86a f13d 38e5 573e
00000380: 8933 5d3e 6783 d83d c612 063d c67a 193e
00000390: c0d8 bd3d ea34 32be 8461 d3bd 41f2 2a3d
000003a0: 5daf a73d 40b3 4d3d a6c9 803d a33e e63d
000003b0: 23e3 8ebe e1df f6bd a301 693e 5289 d838
000003c0: 9c50 0fbe 17b9 523d 6fc1 11be 84cb f03d
000003d0: a5b4 123e 9870 bd3d 8d41 0b3e 7ddc a93c
000003e0: 95ff c63d 122c f03c 4e3e 193e 1d13 603e
000003f0: b171 993e 3ff9 04be 1f1e 0bbd 70c9 69bd

fc1.bias f4 [64]
0.10725238 -0.02022382 -0.029713701 0.08032115 -0.013477657 0.14105172 0.04545584 0.033821374
-0.012185653 0.14039572 -0.0075409943 0.15903468 0.07295031 0.14009197 -0.05566618 0.007436576
0.05847184 0.03434572 0.22483121 -0.045701988 -0.09586845 0.10271736 0.102346435 -0.028440798
0.19644035 0.029225366 -0.03677177 -0.101261325 0.21539569 0.1986089 -0.018511506 0.09788958
0.18767326 0.13789913 0.1847645 0.23497215 0.071741134 -0.011243967 0.09283341 0.16028543
0.14170986 -0.06372864 -0.012060369 -0.07830973 0.11812053 0.1753423 0.009137568 -0.086719185
-0.029771525 0.13317613 0.013980784 0.029082015 -0.03422308 -0.060249284 0.12293172 0.08953283
-0.050490577 0.11931934 0.1329999 0.14937605 0.009802393 0.029841902 0.06257733 -0.03547635
00000000: 23a7 db3d 6dac a5bc 266a f3bc 6a7f a43d
00000010: 64d1 5cbc dd6f 103e e72f 3a3d 4888 0a3d
00000020: 55a6 47bc e5c3 0f3e 721a f7bb fdd9 223e
00000030: f966 953d 4574 0f3e 3802 64bd 85ae f33b
00000040: 2b80 6f3d 19ae 0c3d 273a 663e 0232 3bbd
00000050: ae56 c4bd 7b5d d23d 029b d13d adfc e8bc
00000060: a927 493e 096a ef3c ff9d 16bd 1962 cfbd
00000070: b090 5c3e 2260 4b3e 71a5 97bc 557a c83d
00000080: 6b2d 403e 6e35 0d3e e832 3d3e 8a9c 703e
00000090: 04ed 923d 9e38 38bc 711f be3d dd21 243e
000000a0: 641c 113e 2984 82bd db98 45bc da60 a0bd
000000b0: 2de9 f13d ef8c 333e bdb5 153c d499 b1bd
000000c0: 6ae3 f3bc 535f 083e a90f 653c 683d ee3c
000000d0: 802d 0cbd f4c7 76bd a0c3 fb3d fd5c b73d
000000e0: 35cf 4ebd b35d f43d 2031 083e 09f6 183e
000000f0: 379a 203c 0177 f43c 8b28 803d a64f 11bd

fc2.weight f4 [64, 64]
-0.10346088 0.3520977 0.08292656 0.19623072 0.082199 0.014815895 0.12966281 0.019714098
0.08097036 0.13438515 0.42423317 -0.0053903963 -0.2056005 -0.064256094 0.08080156 0.12253225
0.11815797 0.037485916 0.15491182 -0.03455168 -0.0071356823 0.11689381 0.061502848 0.05202498
-0.0152040785 0.025459548 0.35971957 0.016028373 0.010188819 0.17669393 0.15238787 -0.13608344
-0.12323958 0.1471928 0.11397324 0.039903097 0.3518702 -0.0080027105 0.064246565 0.009090971
0.36464345 0.14208513 0.39075333 0.06015282 0.057160072 -0.07399686 0.1275846 0.1291928
0.10085176 -0.090515494 0.1627638 -0.00911782 0.047378644 0.13757725 0.08001333 0.18378182
0.09590813 -0.07652302 0.015326906 0.021912968 0.22522686 -0.13812497 0.23171234 0.31950572
0.235212 -0.22259504 0.0068168407 -0.25583282 -0.080423325 0.051714882 -0.009802002 0.056422725
0.07754744 -0.003877546 -0.09869283 0.13813426 0.21179073 0.07321178 -0.013161904 -0.11578241
0.020668773 0.032494802 -0.038458124 -0.0038439059 0.077630475 -0.1880829 -0.03172917 0.043579962
0.11544775 0.07405252 -0.13215414 0.23315822 0.14392114 -0.08115334 -0.0659868 0.022973655
-0.0073501896 0.020510644 0.028869987 -0.0872962 -0.13869508 0.09205192 0.0010911562 -0.035104234
-0.04342718 0.038026612 -0.09964905 0.028047698 0.098734915 -0.028986268 0.0062148473 0.09936786
0.09866086 0.2739484 -0.08319778 0.092811175 0.11469841 -0.0049420055 0.020116722 0.028125193
0.049325094 0.18800317 0.14515337 -0.023556128 0.014105462 0.20778751 -0.065224275 -0.15982537
-0.30550766 0.20770788 0.16692694 -0.03559636 -0.13542555 -0.17198992 0.21699774 0.03821579
0.2481996 0.10187678 0.3972231 0.083340995 -0.34413654 0.028502103 -0.008357056 0.23744842
0.16335446 0.038264003 -0.024065282 0.20383148 -0.10516234 0.12966244 -0.071230255 0.10897384
0.018425638 0.07946469 0.20266834 -0.014913575 -0.02582237 0.14995167 0.11146509 -0.027550073
-0.08265374 0.06813508 0.0035767742 -0.0075574983 0.061290707 -0.12743822 0.054440916 0.14555615
0.20614208 0.10379815 0.20698802 0.19490854 0.039355014 0.028045947 0.15739241 0.07949069
0.22846892 -0.04569602 0.23950495 -0.01877415 0.08258128 0.07666231 -0.04081687 0.18110906
0.14969082 -0.0305962 -0.04092466 -0.1100776 0.034039732 -0.13075851 0.089037076 0.27210543
0.060142368 0.049912427 0.009706021 0.064534724 0.049783275 0.14371279 -0.043168515 0.18968406
-0.089663 0.10659153 -0.13854526 0.17399777 0.20277296 0.13818446 0.14373636 -0.08621867
0.16800867 0.10522715 0.15675718 -0.0807658 -0.020386957 -0.037543032 0.09930558 -0.059430446
0.013178381 -0.0014259584 0.045633066 0.2491415 0.24871154 0.0752604 -0.051103085 0.09693755
0.0067852936 0.032158162 0.11772722 0.1684636 -0.07543664 0.19674481 0.11790436 0.04374569
-0.107677355 -0.026219124 -0.060883805 0.13517639 0.167122 0.05375318 0.18168205 0.06703468
0.11832607 0.16892734 -0.1466637 0.025657816 0.09410536 0.07337001 0.01824981 -0.022580896
0.06451877 0.2746945 0.23627576 0.116715446 0.014072234 0.14882818 0.06346809 -0.11898253
00000000: 4ce3 d3bd 2646 b43e 66d5 a93d b5f0 483e
00000010: f357 a83d 5ebe 723c 54c6 043e 767f a13c
00000020: cad3 a53d 439c 093e 1735 d93e eca1 b0bb
00000030: f088 52be b398 83bd 4a7b a53d 30f2 fa3d
00000040: cefc f13d d58a 193d 34a1 1e3e 1086 0dbd
00000050: 71d2 e9bb 0666 ef3d 69ea 7b3d 2518 553d
00000060: 871a 79bc 8b90 d03c 2a2d b83e ef4d 833c
00000070: 01ef 263c 41ef 343e 910b 1c3e 7559 0bbe
00000080: 0865 fcbd b6b9 163e cd6a e93d 6e71 233d
00000090: 5528 b43e cd1d 03bc b493 833d 4cf2 143c
000000a0: 8cb2 ba3e c47e 113e d210 c83e ce62 763d
000000b0: ae20 6a3d aa8b 97bd 8aa5 023e 1e4b 043e
000000c0: 5e8b ce3d 3060 b9bd 8eab 263e e962 15bc
000000d0: 1c10 423d 0de1 0c3e 07de a33d 4d31 3c3e
000000e0: 7b6b c43d 1ab8 9cbd b41d 7b3c d382 b33c
000000f0: dfa1 663e a270 0dbe 0046 6d3e 4196 a33e
00000100: 6adb 703e f4ef 63be ce5f df3b 85fc 82be
00000110: fcb4 a4bd fcd2 533d 9498 20bc 841b 673d
00000120: 31d1 9e3d 6d1e 7ebb 771f cabd 1173 0d3e
00000130: abdf 583e 0ff0 953d 07a5 57bc 541f edbd
00000140: 8f51 a93c 4519 053d 4486 1dbd 0aea 7bbb
00000150: bafc 9e3d ce98 40be 72f6 01bd e780 323d
00000160: df6f ec3d d9a8 973d 6a53 07be 07c1 6e3e
00000170: 1060 133e b933 a6bd 1624 87bd 3f33 bc3c
00000180: dcd9 f0bb f005 a83c c080 ec3c 5ac8 b2bd
00000190: 1506 0ebe b885 bc3d 2005 8f3a 75c9 0fbd
000001a0: b3e0 31bd cbc1 1b3d cd14 ccbd 49c4 e53c
000001b0: 8835 ca3d 9c74 edbc eba5 cb3b 6081 cb3d
000001c0: b40e ca3d f742 8c3e 9963 aabd c913 be3d
000001d0: 00e7 ea3d 8cf0 a1bb d3cb a43c ce66 e63c
000001e0: 1c09 4a3d e783 403e 16a3 143e c8f8 c0bc
000001f0: 981a 673c 40c6 543e 4e94 85bd 43a9 23be
00000200: 806b 9cbe 60b1 543e e5ee 2a3e 7dcd 11bd
00000210: ffac 0abe 201e 30be a834 5e3e 2988 1c3d
00000220: 0928 7e3e c6a4 d03d d360 cb3e afae aa3d
00000230: aa32 b0be 3e7d e93c 09ec 08bc ae25 733e
00000240: 6446 273e b7ba 1c3d 8e24 c5bc 33b9 503e
00000250: 5a5f d7bd 3bc6 043e 2be1 91bd ad2d df3d
00000260: 5df1 963c 62be a23d 4a88 4f3e 1158 74bc
00000270: 6f89 d3bc ee8c 193e cf47 e43d b1b0 e1bc
00000280: 5d46 a9bd 688a 8b3d 5068 6a3b e4a4 f7bb
00000290: f70b 7b3d 2a7f 02be 70fd 5e3d ac0c 153e
000002a0: e916 533e 2094 d43d abf4 533e 1b96 473e
000002b0: b932 213d 9dc0 e53c 7a2b 213e 04cc a23d
000002c0: c2f3 693e c02b 3bbd c940 753e 3fcc 99bc
000002d0: 6020 a93d 2101 9d3d 972f 27bd a774 393e
000002e0: 8d48 193e e2a4 fabc 9ea0 27bd 5d70 e1bd
000002f0: 3f6d 0b3d 8fe5 05be 1259 b63d 6751 8b3e
00000300: d857 763d f970 4c3d 0106 1f3c c82a 843d
00000310: 8ce9 4b3d 7229 133e 78d1 30bd 8a3c 423e
00000320: 3ca1 b7bd a94c da3d cfde 0dbe 792c 323e
00000330: b7a3 4f3e 3a80 0d3e a02f 133e 6a93 b0bd
00000340: 770a 2c3e 5581 d73d f484 203e 8a68 a5bd
00000350: 8c02 a7bc b9c6 19bd b960 cb3d 576d 73bd
00000360: 23ea 573c 39e7 baba bde9 3a3d f31e 7f3e
00000370: 3dae 7e3e 2022 9a3d 7851 51bd 3287 c63d
00000380: 2b57 de3b 47b8 033d f81a f13d b981 2c3e
00000390: 867e 9abd 7977 493e d777 f13d ae2e 333d
000003a0: f285 dcbd 7dc9 d6bc 4c61 79bd ae6b 0a3e
000003b0: 0822 2b3e 4b2c 5c3d dc0a 3a3e 7a49 893d
000003c0: f054 f23d 4afb 2c3e 022f 16be 5730 d23c
000003d0: 50ba c03d 0443 963d a080 953c 92fb b8bc
000003e0: 6b22 843d c2a4 8c3e 46f2 713e 8208 ef3d
000003f0: 3a8f 663c 6a66 183e 8ffb 813d 1dad f3bd

fc2.bias f4 [64]
0.069574274 0.010518639 -0.08544584 0.20892565 -0.08892388 0.03253885 -0.10604773 0.0942081
0.03916021 -0.00063487946 -0.039592016 0.06812888 0.03308744 0.04207686 0.056031913 0.08619875
0.09244754 -0.020880407 -0.037339684 -0.08672451 0.17857479 0.062229797 0.030541925 0.048888877
0.07872694 0.031586956 0.03556829 -0.0036130555 0.031521905 -0.08511966 0.13625719 0.008501643
-0.035423454 0.09823195 0.06794358 0.13299042 0.16446352 0.21425733 0.06612715 -0.10551277
0.07763265 0.17008342 -0.12203768 -0.10522729 -0.09244113 -0.028913122 0.007483285 0.104190685
0.03341387 -0.033758324 -0.02710794 0.03224272 0.06799739 0.096051365 -0.0648917 -0.02663666
0.07595092 0.0109471185 -0.12455517 0.17999189 0.09315458 -0.12222395 0.059665073 0.16651306
00000000: f57c 8e3d 5f56 2c3c 3bfe aebd 9bf0 553e
00000010: b91d b6bd 7547 053d 8d2f d9bd 2df0 c03d
00000020: 7566 203d 0a6e 26ba 3d2b 22bd 2787 8b3d
00000030: b286 073d c958 2c3d b881 653d f888 b03d
00000040: 2355 bd3d 630d abbc 7ff1 18bd 9f9c b1bd
00000050: 4fdc 363e ace4 7e3d 0f33 fa3c b43f 483d
00000060: 973b a13d 5361 013d 0eb0 113d 03c9 6cbb
00000070: 1d1d 013d 3753 aebd 0187 0b3e 7a4a 0b3c
00000080: 2f18 11bd d52d c93d 0126 8b3d a42e 083e
00000090: 2069 283e 4666 5b3e ac6d 873d 1417 d8bd
000000a0: defd 9e3d 592a 2e3e e4ee f9bd 6881 d7bd
000000b0: c651 bdbd 36db ecbc 5836 f53b ed61 d53d
000000c0: fbdc 083d 2b46 0abd 7811 debc f110 043d
000000d0: 3742 8b3d 94b6 c43d f1e5 84bd 2035 dabc
000000e0: 288c 9b3d 8b5b 333c c816 ffbd cb4f 383e
000000f0: d4c7 be3d 8d50 fabd 5d63 743d 6682 2a3e

fc3.weight f4 [5, 64]
0.075324945 0.14205572 -0.09476446 0.18883857 0.011225185 -0.05913477 0.047087062 -0.013219098
0.009940806 -0.11440239 -0.08002712 0.030181179 0.09951687 0.07450428 0.017886095 0.05502789
0.16430295 0.14042506 -0.21148865 -0.14296655 -0.03055001 0.082117215 0.26948583 0.23460373
0.17657614 0.18662578 0.09796269 -0.09620721 0.15911339 -0.0101194875 0.081286445 -0.048163272
0.042885795 0.25625256 0.17705685 0.021859305 0.12450166 0.060031183 -0.07662687 0.0718512
0.11731544 0.11812394 -0.025258224 -0.07158211 0.0011807366 -0.08480407 -0.03112596 0.12668096
0.019023648 0.022702621 -0.06300095 0.17361875 0.07882803 0.12592049 0.0037430935 -0.06275787
0.1189286 -0.14779297 -0.11470011 0.1271708 -0.08679517 0.013288794 -0.078061976 0.2203034
0.30869693 0.007766489 0.062874444 0.039338924 0.062139127 0.21304694 0.05138659 0.08588973
0.031230459 0.26797774 0.14162849 0.28980547 0.044331875 0.07687198 0.22733045 0.21205233
-0.023869902 0.22913757 0.2031662 0.036082193 -0.09783046 -0.09740292 -0.29458562 -0.08588344
0.11897477 -0.13660593 -0.03185795 0.18453845 0.013693222 -0.09470238 -0.046370097 0.055866767
-0.03857247 0.016266687 -0.00213624 -0.026872154 -0.18375883 -0.28056952 0.23509076 0.0022411514
0.2131914 0.14178778 -0.005402609 0.04567553 0.058057576 -0.11146477 0.05957961 0.23162386
-0.016872397 0.2682725 0.096900776 0.17525731 0.045241974 0.3284688 0.032884207 0.12261639
-0.11283697 -0.012056292 0.052694395 0.11405227 0.14490268 0.041832257 0.31571066 -0.12584129
-0.08216344 0.014724481 -0.14571035 -0.0823959 0.038391933 -0.062550314 0.1126367 0.073584594
0.09962983 -0.034004096 -0.12224555 -0.088503234 0.075294666 -0.19437116 -0.092382595 -0.14890678
-0.044538483 -0.21581465 -0.22397324 -0.17322354 -0.19199593 -0.018424906 0.022713317 -0.17528968
-0.12164977 0.04662068 -0.17677158 -0.19010575 -0.065961085 0.03636709 -0.13589586 -0.0040249517
-0.032843847 -0.22591366 -0.17319642 -0.015191336 -0.16980442 -0.0930551 -0.11876616 0.028056618
-0.1022733 -0.122593336 -0.046225935 0.07822962 -0.030620355 0.08362258 -0.091828346 -0.22058225
-0.099904306 -0.0011207011 0.10495903 -0.15379737 -0.14556985 0.006431835 0.008006924 -0.2037429
-0.11913656 0.0052297446 -0.06333831 -0.20022218 -0.19068776 0.048981607 -0.044643007 -0.19184162
-0.27641103 0.1496898 -0.05374518 0.12446186 0.038783923 -0.03878645 -0.050906584 0.0012256103
0.084474236 -0.08724158 -0.11629198 -0.13535522 -0.09149212 0.05309342 0.12603743 -0.08285881
0.19304004 -0.08113854 -0.024828622 0.01891833 0.13136645 0.0012379123 0.16342421 0.11895336
0.17045186 -0.076826945 0.11248125 0.14368956 0.0109453965 -0.07651093 0.09950427 -0.06643382
-0.10488244 -0.18675666 0.20517749 0.106007546 0.11516818 0.25355548 -0.04786839 0.086933956
0.046724554 -0.08871093 -0.10356727 -0.033161867 0.18003778 -0.11515122 0.09321123 -0.2364051
0.09294184 -0.18924151 -0.034388628 -0.21440223 -0.08901339 -0.44916806 -0.036629636 0.04457216
0.20284325 0.3448628 -0.032883734 -0.14769147 -0.036822055 0.06815284 -0.0911993 0.24745834
00000000: f743 9a3d 0e77 113e df13 c2bd e65e 413e
00000010: d7e9 373c 4d37 72bd 5dde 403d ea94 58bc
00000020: c3de 223c cd4b eabd 42e5 a3bd 853e f73c
00000030: 80cf cb3d b395 983d dc85 923c ed64 613d
00000040: 083f 283e 96cb 0f3e 7b90 58be d365 12be
00000050: 0444 fabc 122d a83d 0cfa 893e f63b 703e
00000060: 60d0 343e d41a 3f3e aaa0 c83d 4908 c5bd
00000070: 9fee 223e 35cc 25bc 8279 a63d da46 45bd
00000080: 04a9 2f3d 8933 833e 644e 353e 4912 b33c
00000090: bafa fe3d 42e3 753d 8cee 9cbd b926 933d
000000a0: 1443 f03d f7ea f13d 56ea cebc a499 92bd
000000b0: f2c2 9a3a c2ad adbd dffb febc a7b8 013e
000000c0: 7bd7 9b3c d9fa b93c a406 81bd 1dc9 313e
000000d0: 9770 a13d 4df1 003e b04e 753b 3387 80bd
000000e0: d690 f33d 0a57 17be e4e7 eabd 1039 023e
000000f0: abc1 b1bd 3eb9 593c f5de 9fbd 3797 613e
00000100: 860d 9e3e 087e fe3b 51c4 803d da21 213d
00000110: 9985 7e3d fa28 5a3e bf7a 523d f4e6 af3d
00000120: 05d7 ff3c 6134 893e 0f07 113e 6261 943e
00000130: 5795 353d 0f6f 9d3d 50c9 683e 3f24 593e
00000140: d08a c3bc 0aa3 6a3e cd0a 503e ecca 133d
00000150: 565b c8bd 2f7b c7bd edd3 96be a8e3 afbd
00000160: 0ba9 f33d 6de2 0bbe 7b7d 02bd a6f7 3c3e
00000170: 8959 603c 52f3 c1bd 92ee 3dbd 8dd4 643d
00000180: 2bfe 1dbd b741 853c 2900 0cbb fe22 dcbc
00000190: 462b 3cbe cfa6 8fbe a2bb 703e 48e0 123b
000001a0: d94e 5a3e d130 113e 5e08 b1bb 4416 3b3d
000001b0: c8cd 6d3d a447 e4bd c009 743d ce2e 6d3e
000001c0: fb37 8abc 035b 893e ea73 c63d a776 333e
000001d0: a64f 393d 102d a83e 97b1 063d 4d1e fb3d
000001e0: 1217 e7bd c187 45bc 14d6 573d 3d94 e93d
000001f0: 5e61 143e 4d58 2b3d d4a4 a13e 8adc 00be
00000200: 4e45 a8bd f33e 713c 1835 15be 2ebf a8bd
00000210: dc40 1d3d 611a 80bd 12ae e63d 85b3 963d
00000220: b90a cc3d e147 0bbd e05b fabd 2f41 b5bd
00000230: 1734 9a3d 3c09 47be 1633 bdbd 057b 18be
00000240: fc6d 36bd 84fe 5cbe 3e59 65be 8361 31be
00000250: 959a 44be d4ef 96bc 4711 ba3c 237f 33be
00000260: 8423 f9bd 53f5 3e3d 9c03 35be 15ab 42be
00000270: 9b16 87bd a8f5 143d 4928 0bbe bee3 83bb
00000280: 4587 06bd e955 67be 675a 31be 15e5 78bc
00000290: 36e1 2dbe ac93 bebd ac3b f3bd fed6 e53c
000002a0: aa74 d1bd 3712 fbbd 6857 3dbd da36 a03d
000002b0: 8ad7 fabc 5142 ab3d 8010 bcbd 50e0 61be
000002c0: a19a ccbd 7de4 92ba c3f4 d63d 0f7d 1dbe
000002d0: 4310 15be 24c2 d23b 792f 033c fba1 50be
000002e0: defd f3bd 475e ab3b 84b7 81bd 0b07 4dbe
000002f0: a743 43be f0a0 483d 96db 36bd 2172 44be
00000300: bf85 8dbe 4848 193e e823 5cbd dce5 fe3d
00000310: e4db 1e3d 8ade 1ebd 6c83 50bd a8a4 a03a
00000320: d400 ad3d b7ab b2bd 7d2a eebd 8f9a 0abe
00000330: 3860 bbbd 7c78 593d f50f 013e e1b1 a9bd
00000340: 4aac 453e f62b a6bd 6565 cbbc 9dfa 9a3c
00000350: ed84 063e 7241 a23a ad58 273e d29d f33d
00000360: ef8a 2e3e 7257 9dbd 925c e63d 5b23 133e
00000370: 5254 333c c3b1 9cbd e5c8 cb3d 740e 88bd
00000380: 9bcc d6bd 233d 3fbe 0c1a 523e 7c1a d93d
00000390: 4bdd eb3d 06d2 813e a511 44bd 6e0a b23d
000003a0: 3f62 3f3d 13ae b5bd 141b d4bd bdd4 07bd
000003b0: d35b 383e 67d4 ebbd 88e5 be3d 2e14 72be
000003c0: 4b58 be3d 87c8 41be 17db 0cbd 428c 5bbe
000003d0: a74c b6bd 5bf9 e5be f508 16bd 4c91 363d
000003e0: 24b6 4f3e db91 b03e 18b1 06bd 6f3c 17be
000003f0: b9d2 16bd b793 8b3d b3c6 babd b865 7d3e

fc3.bias f4 [5]
0.0025626693 -0.03121935 -0.09007053 -0.04937849 -0.0678044
00000000: 75f2 273b b9bf ffbc e676 b8bd 1941 4abd
00000010: 09dd 8abd

opp_actors.0.fc1.weight f4 [64, 28]
-0.006921471 0.082043715 -0.20165075 -0.12129969 -0.058642812 0.015525941 0.034369607 0.13507454
-0.042662308 0.050007075 0.03202372 -0.04830656 -0.18886553 -0.12515956 -0.07790284 0.0070005804
0.024032459 0.16219114 -0.13612859 -0.08229474 0.07846938 0.104503796 -0.061309338 0.13964427
-0.024134386 0.063711084 0.16181827 -0.17531322 -0.13877384 -0.10389461 -0.06902978 0.1534096
-0.12249444 -0.08454924 -0.14156635 -0.17699338 -0.12214339 0.16244875 0.06339144 0.07893609
0.010058821 -0.09688807 0.0319729 -0.17645171 -0.13655218 -0.09742601 0.11643483 0.110804304
-0.083812684 -0.049754236 0.16370372 0.15514196 0.089723766 0.0636604 0.08378432 -0.111273184
0.015280477 -0.15738116 -0.13098097 -0.102080226 0.122007206 0.011264261 -0.121148966 0.11490759
0.1179006 -0.02385284 -0.0143515 0.044883538 0.09804288 0.18145962 -0.14563416 -0.06925627
0.054911565 0.14832537 0.17384008 0.16674976 0.054797713 -0.16433567 0.09002629 -0.13453484
-0.1805357 0.16887596 0.117655195 -0.18851507 0.09864823 -0.0015154904 -0.028838791 -0.08650792
0.10629297 -0.11193484 0.06318057 0.11140425 0.14934216 0.07066257 -0.20254003 -0.112196326
0.059582397 0.03955424 -0.14742202 -0.108819656 0.17822948 0.07838466 -0.09706609 -0.047563955
-0.18002412 0.008244594 -0.14231476 -0.14577271 -0.03645286 -0.022241645 -0.07658693 0.11213781
-0.14551389 0.1730946 0.1442916 -0.13986382 -0.09358987 -0.03228064 0.032862548 0.04479645
0.042354 0.011320069 -0.10498795 0.10250446 -0.15153319 -0.11201103 -0.047307894 -0.09205577
-0.07404643 -0.18076982 -0.06355119 0.04039617 -0.12845849 0.041397505 0.10050465 -0.062889
6.787791e-05 -0.0337699 0.10884745 0.12016235 0.17209435 0.11917362 0.15780804 -0.016730122
-0.20214231 -0.09772212 0.16318631 -0.0039422815 -0.13432083 -0.1448193 -0.12056437 -0.17773634
-0.053904124 0.10363899 0.102171555 -0.18226048 0.038649734 -0.09057007 -0.03207605 -0.07662713
-0.029384669 -0.08526008 -0.15218584 -0.19251597 0.014053075 -0.031041728 -0.064292155 0.07118945
-0.15252858 -0.02628655 0.17547876 -0.07708434 0.15073057 0.04826637 -0.19607422 0.102401815
-0.03910648 -0.08436296 0.06270637 -0.15271564 0.017975342 -0.039566964 0.13495459 0.05275336
0.14137766 0.019706525 -0.051522855 -0.03974399 -0.14781608 0.22123769 0.19288003 0.08295212
-0.1390107 0.021555452 -0.13322002 -0.10403173 -0.15221868 0.03480228 -0.112617 -0.017686147
0.0022265562 0.08558524 -0.13271062 -0.125045 -0.109734714 0.13227497 -0.0679325 0.13405079
0.024148975 0.023930073 -0.0014067888 -0.0373583 0.032346442 -0.043153092 0.015538355 0.02411282
-0.14782287 -0.09905153 0.21989456 -0.1533679 -0.012356971 0.23423123 0.06928446 0.0053506643
-0.1609672 0.076841 -0.1346084 -0.040159814 -0.084403984 -0.019768909 0.041245077 0.13031961
0.025274972 0.16927002 0.15210766 -0.119477205 0.09732687 -0.1335908 -0.080095425 0.05558397
-0.0047348733 0.20814905 -0.10105209 0.00030253828 0.07550751 -0.18276323 0.08219598 -0.15627365
-0.0015016925 -0.015495211 -0.08441655 0.024977982 0.135332 -0.06561421 -0.11102057 -0.08984094
00000000: 82cd e2bb 8906 a83d 897d 4ebe f96b f8bd
00000010: 7233 70bd 8460 7e3c 25c7 0c3d fb50 0a3e
00000020: acbe 2ebd 38d4 4c3d 4e2b 033d 19dd 45bd
00000030: f765 41be d429 00be 868b 9fbd 2065 e53b
00000040: b8df c43c 6f15 263e 4b65 0bbe 258a a8bd
00000050: 8eb4 a03d 1606 d63d 801f 7bbd e8fe 0e3e
00000060: 7ab5 c5bc f57a 823d b0b3 253e 4f85 33be
00000070: bb1a 0ebe b3c6 d4bd 7c5f 8dbd 6817 1d3e
00000080: 5dde fabd 2728 adbd c5f6 10be c13d 35be
00000090: 5026 fabd f758 263e 5fd3 813d 3fa9 a13d
000000a0: c1cd 243c 416d c6bd 04f6 023d c2af 34be
000000b0: 56d4 0bbe 4a87 c7bd 6275 ee3d 5eed e23d
000000c0: fca5 abbd 19cb 4bbd f3a1 273e 89dd 1e3e
000000d0: 18c1 b73d 6260 823d 1d97 ab3d 32e3 e3bd
000000e0: f75a 7a3c 8728 21be e01f 06be 700f d1bd
000000f0: eade f93d bc8d 383c f31c f8bd ac54 eb3d
00000100: df75 f13d 0867 c3bc 8e22 6bbc cdd7 373d
00000110: b5ca c83d 8dd0 393e 1f21 15be 3bd6 8dbd
00000120: f3ea 603d 9be2 173e 2203 323e 73c0 2a3e
00000130: 9173 603d 9c47 28be b45f b83d 80c3 09be
00000140: 5ade 38be d2ed 2c3e 35f5 f03d 180a 41be
00000150: 1508 ca3d 6ba3 c6ba 543f ecbc 102b b1bd
00000160: 21b0 d93d 183e e5bd d164 813d e927 e43d
00000170: 27ed 183e 8ab7 903d a766 4fbe 30c7 e5bd
00000180: ac0c 743d a003 223d ccf5 16be d7dc debd
00000190: ca81 363e 2388 a03d 96ca c6bd 6cd2 42bd
000001a0: 3e58 38be 5514 073c f6ba 11be 7145 15be
000001b0: 984f 15bd 1c34 b6bc 9cd9 9cbd 82a8 e53d
000001c0: 9801 15be b63f 313e 2dc1 133e 7638 0fbe
000001d0: 0cac bfbd b438 04bd e19a 063d 7b7c 373d
000001e0: 637b 2d3d d077 393c ec03 d7bd dced d13d
000001f0: 842b 1bbe 0a66 e5bd ecc5 41bd bc87 bcbd
00000200: a8a5 97bd b91b 39be 2027 82bd 7476 253d
00000210: 9f8a 03be 6e90 293d 62d5 cd3d f3cb 80bd
00000220: ad59 8e38 4f52 0abd 69eb de3d ae17 f63d
00000230: 8039 303e 4d11 f43d 6e98 213e 9c0d 89bc
00000240: 65fe 4ebe 8922 c8bd 501a 273e 412e 81bb
00000250: 668b 09be 834b 14be 74ea f6bd 8400 36be
00000260: 92ca 5cbd ae40 d43d 523f d13d 7ea2 3abe
00000270: 2f4f 1e3d cd7c b9bd 2d62 03bd afee 9cbd
00000280: 1eb8 f0bc d69c aebd 9bd6 1bbe e822 45be
00000290: de3e 663c 394b febc 9bab 83bd c6cb 913d
000002a0: 7430 1cbe e456 d7bc b4b0 333e 65de 9dbd
000002b0: 1d59 1a3e f5b2 453d aec7 48be 0bb8 d13d
000002c0: 1e2e 20bd 7dc6 acbd 336c 803d 7d61 1cbe
000002d0: 0641 933c f810 22bd 8931 0a3e e813 583d
000002e0: 4ec5 103e 946f a13c a109 53bd 98ca 22bd
000002f0: 195d 17be 228c 623e 5882 453e cde2 a93d
00000300: d258 0ebe 0f95 b03c d46a 08be 960e d5bd
00000310: 37df 1bbe d68c 0e3d bea3 e6bd 8ae2 90bc
00000320: 6aeb 113b 5047 af3d 4be5 07be cc0b 00be
00000330: 98bc e0bd 1773 073e 3220 8bbd 9c44 093e
00000340: 12d4 c53c 0009 c43c 0064 b8ba 0405 19bd
00000350: b47d 043d 4cc1 30bd 9694 7e3c 4088 c53c
00000360: e15e 17be 87db cabd 0a2c 613e 7a0c 1dbe
00000370: e574 4abc 50da 6f3e 03e5 8d3d a054 af3b
00000380: 96d4 24be d05e 9d3d c9d6 09be 9e7e 24bd
00000390: ffdb acbd 68f2 a1bc 99f0 283d 8172 053e
000003a0: 750d cf3c 1f55 2d3e 1cc2 1b3e 77b0 f4bd
000003b0: 4f53 c73d 07cc 08be 1209 a4bd 04ac 633d
000003c0: ff26 9bbb 0625 553e 66f4 cebd 009e 9e39
000003d0: aea3 9a3d 4926 3bbe 5e56 a83d 3306 20be
000003e0: 70d4 c4ba a0df 7dbc 96e2 acbd a09e cc3c
000003f0: 7994 0a3e be60 86bd c15e e3bd 87fe b7bd

opp_actors.0.fc1.bias f4 [64]
0.13572825 0.06292478 0.05756661 -0.011376441 0.09070896 0.08474568 0.059597187 -0.04895308
0.00095163373 -0.037401218 -0.16002913 0.039746378 -0.14807174 0.053285547 -0.14034157 -0.06680269
-0.08059054 0.12398733 -0.17097372 0.08420851 0.13780524 0.09251552 0.04883086 0.06760549
0.12117859 0.0066535966 0.05761349 -0.09821445 -0.02308873 -0.044995707 -0.00065272517 -0.0763286
-0.21451908 -0.10130586 0.062580705 0.08963089 -0.20661753 0.0774335 -0.19574364 -0.19381328
-0.13964264 -0.07787219 0.013142566 -0.11283626 0.12637353 0.12193199 -0.044022366 0.08403575
-0.0154695595 -0.10725453 -0.03282957 0.009236939 -0.12638247 -0.20803623 0.020600336 0.09094927
0.15334362 -0.07284058 0.07233481 -0.05656832 0.054502174 -0.07305604 0.070611484 0.09788746
00000000: 59fc 0a3e b5de 803d f7ca 6b3d 4164 3abc
00000010: 9fc5 b93d 258f ad3d 2e1c 743d 0683 48bd
00000020: 0f77 793a 0532 19bd adde 23be 19cd 223d
00000030: 1ea0 17be f241 5a3d b3b5 0fbe d9cf 88bd
00000040: a70c a5bd 12ed fd3d bc13 2fbe 8375 ac3d
00000050: d11c 0d3e c778 bd3d de02 483d bf74 8a3d
00000060: 7b2c f83d 6a06 da3b 1ffc 6b3d a824 c9bd
00000070: 9424 bdbc 6b4d 38bd a51b 2bba 2b52 9cbd
00000080: e4aa 5bbe 7279 cfbd 502a 803d 6690 b73d
00000090: 8c93 53be 7495 9e3d 0571 48be fd76 46be
000000a0: 7bfe 0ebe 747b 9fbd eb53 573c b216 e7bd
000000b0: 1068 013e 7bb7 f93d cc50 34bd ef1a ac3d
000000c0: 0974 7dbc 43a8 dbbd 4d78 06bd 8856 173c
000000d0: 686a 01be 7307 55be 09c2 a83c 9c43 ba3d
000000e0: 1c06 1d3e 712d 95bd 4624 943d 2fb4 67bd
000000f0: ac3d 5f3d 689e 95bd c19c 903d 3879 c83d

opp_actors.0.fc2.weight f4 [64, 64]
0.11318294 0.06902584 -0.012452156 0.08891006 -0.0627791 0.13051663 0.068692796 0.054426998
-0.054229707 -0.0258672 -0.012187829 0.06600586 0.08615197 0.02830656 0.08080989 -0.09990848
-0.078224726 0.036351584 0.014784274 -0.069230296 0.07239489 -0.04857083 -0.004845676 -0.046333574
0.12481799 -0.111727394 -0.03504187 -0.10759058 0.055754993 -0.051449984 0.07171649 -0.10105601
-0.07093905 -0.04381999 0.036141936 0.09583499 0.07822824 -0.0044370987 -0.10844175 -0.044660714
-0.06810024 -0.007226622 0.04618634 0.09473447 0.068767875 0.04565866 -0.034063946 -0.012006619
-0.014082599 -0.093866415 -0.0273195 0.005794813 -0.18735434 0.06351743 -0.01991278 -0.0664456
0.09206182 -0.08379714 0.05437852 0.15348953 0.004426035 0.02990307 0.064070016 0.10298207
-0.038352847 -0.07033987 -0.009782106 0.097756386 0.010747731 0.08685142 -0.0009293556 0.03835252
0.0043465346 0.0033932477 -0.11895244 -0.109279275 0.010391265 0.061866716 0.08396907 0.00542365
0.052690208 0.052279636 -0.107906535 -0.10986668 -0.096918255 0.0021490902 -0.07903956 -0.04000163
-0.018701762 0.04877022 0.028982371 0.11595948 0.11274885 -0.07974459 -0.000393793 0.020641819
0.10912481 -0.03874013 -0.04912527 -0.07918203 0.09210764 -0.03541346 -0.04681565 0.08454619
0.115020454 -0.005267665 -0.08811326 0.10184814 -0.042750597 -0.057603106 -0.08787799 -0.060116887
-0.09789564 -0.07215178 -0.11386976 -0.025194094 0.050259396 -0.094890684 -0.0001745671 -0.046095222
0.06046228 0.10826518 -0.016570374 -0.062912464 -0.096045524 -0.073440224 0.03609039 0.028680414
0.04822057 -0.028229514 0.053487666 -0.12851498 0.01916125 0.10335148 -0.13655932 -0.07125575
0.06497082 -0.02592794 -0.06663042 0.055453844 -0.001509626 -0.014334525 -0.037966773 0.09417994
0.06533544 0.008079303 0.019076437 0.050153837 0.06930584 -0.068119384 -0.02782564 0.038310125
-0.07804063 0.099238336 -0.10677625 0.046727803 -0.08978906 0.035547037 0.06900248 0.011135473
-0.012528494 0.0794892 -0.10479062 -0.093130045 -0.10653706 -0.09219257 0.0032442808 -0.056680724
0.027848125 0.00015410091 0.08757477 -0.05420102 -0.049860116 0.0674724 -0.03160681 0.10857927
-0.068960555 -0.0013689995 -0.029616013 0.05452855 0.04789594 -0.08263511 0.06795924 -0.019071177
-0.048925254 -0.00964881 0.067216955 0.12261765 0.044493306 0.0073202155 0.06887872 -0.07099317
-0.0765681 -0.02757848 -0.104730174 0.048229378 0.0068636346 -0.06015127 -0.006249487 0.04701042
0.10372367 0.10696378 -0.096231 0.008284809 0.0011738314 0.04454464 -0.017041445 0.05258956
0.03951309 0.11045199 -0.13097858 -0.056515615 -0.09312912 -0.08058418 -0.012200654 0.06369642
-0.11247643 0.06656605 0.06658812 -0.07030915 0.0153852645 -0.08165124 -0.0018672497 -0.05235677
-0.048694357 -0.088435024 -0.13299406 0.08632581 -0.011086102 -0.018918274 -0.07389117 0.07862251
-0.071546674 -0.049737584 -0.09627635 -0.13163751 0.09506147 -0.10981035 -0.03244331 -0.04953901
0.03153441 0.046587493 -0.10341221 0.10229019 -0.1062863 0.016654653 -0.03699473 -0.047080297
0.0710642 0.11232583 -0.006888005 -0.041700885 0.091809005 0.06704831 0.0062293685 -0.06356586
00000000: 75cc e73d 6b5d 8d3d 2104 4cbc 7a16 b63d
00000010: 5492 80bd 27a6 053e cfae 8c3d d8ee 5e3d
00000020: f81f 5ebd 73e7 d3bc 76af 47bc 152e 873d
00000030: 7270 b03d 29e3 e73c a87f a53d d19c ccbd
00000040: 4934 a0bd 66e5 143d bd39 723c 9dc8 8dbd
00000050: c643 943d 35f2 46bd 7ac8 9ebb 46c8 3dbd
00000060: 93a0 ff3d 55d1 e4bd 1088 0fbd 7358 dcbd
00000070: 595f 643d 38bd 52bd 18e0 923d 74f6 cebd
00000080: 7e48 91bd 977c 33bd 9109 143d 2345 c43d
00000090: 2136 a03d 1565 91bb b516 debd 27ee 36bd
000000a0: 2378 8bbd 4dcd ecbb e32d 3d3d 2504 c23d
000000b0: 2cd6 8c3d 9304 3b3d a386 0bbd 69b7 44bc
000000c0: b4ba 66bc 093d c0bd 25cd dfbc 6ae2 bd3b
000000d0: d1d9 3fbe 6d15 823d 2020 a3bc a114 88bd
000000e0: e88a bc3d d69d abbd 03bc 5e3d 5c2c 1d3e
000000f0: 4608 913b 48f7 f43c 2437 833d 43e8 d23d
00000100: e017 1dbd 5a0e 90bd 2045 20bc 8034 c83d
00000110: 4017 303c 28df b13d 00a0 73ba 8817 1d3d
00000120: 606d 8e3b 4061 5e3b 569d f3bd d0cd dfbd
00000130: 2040 2a3c f467 7d3d faf7 ab3d e0b8 b13b
00000140: b0d1 573d 2c23 563d 1afe dcbd c801 e1bd
00000150: 147d c6bd c0d7 0c3b 7edf a1bd c0d8 23bd
00000160: 7034 99bc 48c3 473d 706c ed3c 2a7c ed3d
00000170: dee8 e63d 2251 a3bd 0076 ceb9 0819 a93c
00000180: d47c df3d f8ad 1ebd 9437 49bd 302a a2bd
00000190: eea2 bc3d b40d 11bd c4c1 3fbd 8e26 ad3d
000001a0: d88f eb3d 609c acbb ba74 b4bd c295 d03d
000001b0: 401b 2fbd 3cf1 6bbd 60f9 b3bd 203d 76bd
000001c0: 827d c8bd 50c4 93bd 8c34 e9bd d863 cebc
000001d0: ccdc 4d3d 0c56 c2bd 000c 37b9 58ce 3cbd
000001e0: 4ca7 773d 22ba dd3d 98be 87bc 40d8 80bd
000001f0: 84b3 c4bd d467 96bd 84d3 133d 30f3 ea3c
00000200: ef82 453d 9541 e7bc e215 5b3d 6e99 03be
00000210: 0ef8 9c3c f1a9 d33d 35d6 0bbe 89ee 91bd
00000220: 6c0f 853d d566 d4bc 8875 88bd 9223 633d
00000230: a5de c5ba 5bdb 6abc 0c83 1bbd 6ae1 c03d
00000240: 96ce 853d 0e5f 043c 3046 9c3c 1c6e 4d3d
00000250: 38f0 8d3d 2d82 8bbd 99f2 e3bc 14eb 1c3d
00000260: c4d3 9fbd 783d cb3d 82ad dabd a765 3f3d
00000270: 54e3 b7bd c599 113d 2c51 8d3d 8f71 363c
00000280: 5044 4dbc 3ccb a23d 779c d6bd f7ba bebd
00000290: 1a30 dabd 75cf bcbd 009e 543b 0c2a 68bd
000002a0: c021 e43c 2696 2139 675a b33d e401 5ebd
000002b0: 1f3a 4cbd f82e 8a3d 2476 01bd cf5e de3d
000002c0: 313b 8dbd 0070 b3ba 489d f2bc 5459 5f3d
000002d0: 882e 443d 993c a9bd 372e 8b3d 283b 9cbc
000002e0: d965 48bd 0b16 1ebc 0ba9 893d f61e fb3d
000002f0: 9d3e 363d 6bde ef3b 4910 8d3d de64 91bd
00000300: bccf 9cbd 44ec e1bc c67c d6bd 2b8c 453d
00000310: 57e8 e03b 2e61 76bd 7fc8 ccbb 008e 403d
00000320: 136d d43d d40f db3d c214 c5bd 02bd 073c
00000330: 3fdb 993a 7174 363d 809a 8bbc 2768 573d
00000340: 7ad8 213d a734 e23d 401f 06be eb7c 67bd
00000350: 7bba bebd 5209 a5bd 40e5 47bc 4573 823d
00000360: 0b5a e6bd c853 883d 5a5f 883d 3efe 8fbd
00000370: 7a12 7c3c c438 a7bd 81be f4ba 0d74 56bd
00000380: bc73 47bd 6c1d b5bd 982f 08be 96cb b03d
00000390: 7ba2 35bc 7ffa 9abc 4154 97bd d704 a13d
000003a0: 1087 92bd a3b9 4bbd 892c c5bd fccb 06be
000003b0: 97af c23d 40e4 e0bd 47e3 04bd 6be9 4abd
000003c0: 3a2a 013d 87d2 3e3d c8c9 d3bd 857d d13d
000003d0: a2ac d9bd 576f 883c c987 17bd 45d7 40bd
000003e0: 1b8a 913d 160b e63d c6b4 e1bb 8cce 2abd
000003f0: 5c06 bc3d a050 893d bb1f cc3b d12e 82bd

opp_actors.0.fc2.bias f4 [64]
0.06907952 -0.068875685 -0.07137836 0.014690567 0.048217017 -0.023447236 0.057378948 -0.08582053
0.026364345 -0.034900468 -0.0038151934 0.07354136 -0.06198994 -0.07634032 -0.03767345 0.05074085
0.11475153 0.10087867 0.065860584 -0.10808818 0.073205896 0.022073785 -0.012962347 -0.07246441
-0.07990853 0.025227929 -0.028534945 -0.03531307 -0.1246193 0.112936325 0.014996277 -0.0046421634
-0.019501405 0.046712417 -0.09195249 -0.0085443035 0.1074779 -0.025318563 -0.10702732 -0.07456936
0.08407312 0.071172364 0.09607011 -0.0624516 -0.058119074 -0.12046416 -0.021175398 -0.036281385
0.067865156 -0.056313217 -0.09004846 0.021638157 -0.018676266 -0.03677819 0.08329521 0.07186253
-0.124586135 0.05343889 0.022670602 0.092027076 -0.117290266 0.042967316 -0.13586414 -0.12288031
00000000: 9079 8d3d b20e 8dbd d12e 92bd b4b0 703c
00000010: 357f 453d 6b14 c0bc 3006 6b3d adc2 afbd
00000020: 0afa d73c cbf3 0ebd 5308 7abb da9c 963d
00000030: 2ae9 7dbd 5058 9cbd 7a4f 1abd a3d5 4f3d
00000040: da02 eb3d 7a99 ce3d eae1 863d 565d ddbd
00000050: f9ec 953d 15d4 b43c 0660 54bc 3868 94bd
00000060: 15a7 a3bd cdaa ce3c 1ec2 e9bc 70a4 10bd
00000070: 6738 ffbd 294b e73d f2b2 753c 4a1d 98bb
00000080: 69c1 9fbc 8555 3f3d 9651 bcbd 68fd 0bbc
00000090: 601d dc3d e068 cfbc 2431 dbbd d2b7 98bd
000000a0: 872e ac3d d1c2 913d 68c0 c43d 40cd 7fbd
000000b0: 440e 6ebd eab5 f6bd 0778 adbc ca9b 14bd
000000c0: e3fc 8a3d b0a8 66bd 546b b8bd 8142 b13c
000000d0: f8fe 98bc baa4 16bd ae96 aa3d aa2c 933d
000000e0: 0427 ffbd bde2 5a3d b3b7 b93c b178 bc3d
000000f0: e135 f0bd 7ffe 2f3d f81f 0bbe aca8 fbbd

opp_actors.0.fc3.weight f4 [5, 64]
-0.043897383 -0.11955427 -0.009685743 0.07930965 -0.0037399621 -0.09382996 -0.01651543 -0.104796514
0.060044274 0.020443609 0.15426956 0.03918516 0.00618421 0.042119727 0.10646198 -0.07371825
-0.062361762 0.087538935 0.025047762 0.11255602 0.020624878 0.04972629 0.03476342 0.08144784
0.060596846 -0.092018425 0.027230686 -0.085542336 0.0132382 0.05599762 -0.03360914 0.058139388
0.09668166 -0.0031684914 -0.08329729 0.046119522 0.062489275 -0.0014220489 0.10889611 0.009045273
-0.05583365 0.07116806 0.041463118 0.04652648 -0.07468939 -0.091726445 0.062844716 0.037245233
0.0988484 -0.10421705 -0.057221252 -0.0058091367 -0.052478153 0.07115569 0.08475478 0.08879745
0.01755318 -0.13058285 -0.031932622 0.04818016 0.028702755 0.0574384 -0.036664158 0.103291094
0.113625646 0.12385404 0.041104138 -0.056807496 -0.036454644 -0.0714859 0.06935976 -0.03266819
0.02975529 0.047476057 -0.06624306 0.04037345 0.002912587 0.021642 -0.06435753 -0.0006154134
0.11200751 0.07544527 -0.0705546 0.06328766 0.0014490931 0.1206819 -0.03409146 0.120580435
0.07286432 -0.015355205 0.07712644 0.10617155 -0.095081255 0.046820622 0.07411547 -0.029419266
0.072078474 0.08461436 -0.10797803 0.069902726 -0.08831872 0.06121834 -0.0691178 -0.03890507
0.033264633 -0.07607467 0.018383184 -0.055440806 0.039549634 -0.020197941 -0.11019976 -0.037529625
0.012368089 0.06844349 -0.071366474 -0.051349968 0.06710054 -0.07644503 -0.04273507 -0.096191734
-0.030112445 -0.08348899 0.028027909 0.11088845 0.06072629 -0.09219159 0.105761714 -0.11170758
-0.054044954 0.07013048 0.057249047 0.05998002 -0.079198375 -0.11603083 -0.12669861 0.027016126
-0.12064809 -0.05221484 0.070645824 -0.030388445 0.027570933 -0.09833905 -0.0030033195 0.10550001
-0.0009868148 -0.017458862 -0.08553047 -0.051853538 0.04042575 -0.11556261 0.021267239 -0.10016063
-0.0068283114 -0.12066167 0.039631736 0.00021269917 -0.08929291 -0.06521862 -0.053967692 -0.023663778
-0.05250465 0.06624066 -0.0515056 -0.012691746 -0.10674482 0.10677165 -0.07492013 0.053152844
-0.09340435 -0.101942286 -0.023716249 -0.06679836 -0.034972996 -0.05572692 -0.09236693 -0.09507045
0.10751206 0.0705006 -0.053987633 0.06653301 -0.079522416 -0.08246102 0.032585457 -0.066227496
0.09400995 -0.0047093974 -0.11448564 0.087173305 0.039479967 0.03617153 0.003259769 -0.09939325
0.04490326 0.0003376007 -0.07613963 0.10223188 -0.07473548 -0.06276947 -0.0039464287 -0.13813019
-0.06856889 -0.05279723 0.03821309 0.108530834 0.08813748 0.11622159 0.01319929 0.018541705
-0.004702372 -0.026579477 -0.091381885 -0.12345593 0.076542415 -0.035232812 -0.03360759 0.058416456
-0.061959557 0.07453947 0.021527078 0.025793657 -0.05097176 0.104836226 -0.07770404 -0.071815416
0.10633536 -0.061081715 0.104243696 0.045073647 0.059871368 0.0351171 0.023511827 0.032055497
-0.039424222 0.1073121 0.07340642 0.004355758 0.035840273 -0.02904817 0.016058167 -0.095635965
-0.029327296 -0.11970663 -0.04628303 0.09492327 0.101934925 -0.09901278 -0.085232325 0.124859504
-0.044122458 -0.009615594 0.07646163 0.104773164 0.052193522 0.04662542 0.009573232 0.0031500757
00000000: becd 33bd ded8 f4bd f3b0 1ebc 196d a23d
00000010: 271a 75bb ec29 c0bd 5e4b 87bc 8e9f d6bd
00000020: fcf0 753d 5b79 a73c d7f8 1d3e 9e80 203d
00000030: eaa4 ca3b bc85 2c3d bd08 da3d 98f9 96bd
00000040: 0c6f 7fbd 9d47 b33d f730 cd3c c583 e63d
00000050: 81f5 a83c cbad 4b3d 1664 0e3d 20ce a63d
00000060: 6634 783d 2874 bcbd e312 df3c d230 afbd
00000070: 09e5 583c c35d 653d bda9 09bd 9123 6e3d
00000080: 0901 c63d 77a6 4fbb c597 aabd d3e7 3c3d
00000090: c1f4 7f3d 0b64 baba ec04 df3d a032 143c
000000a0: d3b1 64bd 8fc0 913d 3bd5 293d 8d92 3e3d
000000b0: c0f6 98bd 13db bbbd bbb4 803d 758e 183d
000000c0: 0871 ca3d c06f d5bd d560 6abd 925a bebb
000000d0: 55f3 56bd 13ba 913d ea93 ad3d 70db b53d
000000e0: b0cb 8f3c 83b7 05be c8cb 02bd 8f58 453d
000000f0: 0a22 eb3c 8744 6b3d 282d 16bd 488a d33d
00000100: 90b4 e83d 30a7 fd3d d05c 283d faae 68bd
00000110: 7751 15bd 3367 92bd 7d0c 8e3d 14cf 05bd
00000120: 5ec1 f33c 4176 423d 71aa 87bd a15e 253d
00000130: 1ae1 3e3b 904a b13c e1cd 83bd b253 21ba
00000140: 3264 e53d 0d83 9a3d ee7e 90bd f69c 813d
00000150: 7fef bd3a 1228 f73d 7da3 0bbd e0f2 f63d
00000160: e339 953d 6694 7bbc 78f4 9d3d 7870 d93d
00000170: f6b9 c2bd fbc6 3f3d dac9 973d ac00 f1bc
00000180: e19d 933d 4b4a ad3d 9623 ddbd 2929 8f3d
00000190: 72e0 b4bd 15c0 7a3d a28d 8dbd ec5a 1fbd
000001a0: 7f40 083d 09cd 9bbd 5598 963c e615 63bd
000001b0: ccfe 213d 2776 a5bc 69b0 e1bd aab8 19bd
000001c0: 86a3 4a3c 1a2c 8c3d 9628 92bd 5854 52bd
000001d0: 026c 893d 368f 9cbd f80a 2fbd 2c00 c5bd
000001e0: 60ae f6bc 47fc aabd c99a e53c 7c19 e33d
000001f0: 21bc 783d f2ce bcbd 9999 d83d f2c6 e4bd
00000200: 3e5e 5dbd 92a0 8f3d fa7d 6a3d 9cad 753d
00000210: c232 a2bd 92a1 edbd 48bd 01be ec50 dd3c
00000220: 5916 f7bd 3adf 55bd c2ae 903d 30f1 f8bc
00000230: 70dc e13c fc65 c9bd 57d3 44bb 6410 d83d
00000240: 0358 81ba e305 8fbc 992a afbd 6064 54bd
00000250: 7995 253d 17ac ecbd a238 ae3c 0421 cdbd
00000260: 07c0 dfbb 771d f7bd e354 223d 0008 5f39
00000270: 34df b6bd 5791 85bd 3a0d 5dbd 8ada c1bc
00000280: 1e0f 57bd 2fa9 873d 89f7 52bd 0af1 4fbc
00000290: 079d dabd 18ab da3d ba6f 99bd ccb6 593d
000002a0: c84a bfbd 1ec7 d0bd 9448 c2bc 94cd 88bd
000002b0: d83f 0fbd e941 64bd df2a bdbd 4cb4 c2bd
000002c0: 482f dc3d 9e62 903d 2322 5dbd 7542 883d
000002d0: a6dc a2bd 53e1 a8bd 5478 053d 48a2 87bd
000002e0: 4a88 c03d 4a51 9abb 7277 eabd eb87 b23d
000002f0: bfb5 213d 9928 143d d9a1 553b b08e cbbd
00000300: 7bec 373d 0000 b139 18ef 9bbd f35e d13d
00000310: ea0e 99bd 488d 80bd 0b51 81bb 0072 0dbe
00000320: d96d 8cbd e941 58bd 5485 1c3d 6a45 de3d
00000330: 6c81 b43d 9605 ee3d d641 583c c6e4 973c
00000340: 5b16 9abb 34bd d9bc 6d26 bbbd 76d6 fcbd
00000350: 45c2 9c3d 4850 10bd 1da8 09bd 1846 6f3d
00000360: 4ec9 7dbd 26a8 983d 8e59 b03c 384d d33c
00000370: c4c7 50bd 60b4 d63d 4c23 9fbd f613 93bd
00000380: 5ac6 d93d d230 7abd b87d d53d 259f 383d
00000390: ae3b 753d f3d6 0f3d e09b c03c a04c 033d
000003a0: 4b7b 21bd 72c6 db3d 1b56 963d bfba 8e3b
000003b0: 40cd 123d 6ef6 edbc 6b8c 833c cadc c3bd
000003c0: cc3f f0bc c028 f5bd 4693 3dbd 2267 c23d
000003d0: 42c3 d03d 36c7 cabd 498e aebd 57b6 ff3d
000003e0: c0b9 34bd b98a 1dbc ea97 9c3d 5093 d63d
000003f0: e0c8 553d 4cfa 3e3d 0cd9 1c3c 8071 4e3b

opp_actors.0.fc3.bias f4 [5]
-0.02470559 -0.045236696 0.091515444 -0.08409269 -0.08731605
00000000: 6163 cabc 1d4a 39bd 736c bb3d ca38 acbd
00000010: c2d2 b2bd
