best_model7/dppo/agent_2/actor_params.pkl (torch, 27159 bytes, 6 tensors)

fc1.weight f4 [64, 28]
0	0xbe23102f	-0.15924142
1	0xbdd998bd	-0.10624836
2	0xbda5c5ef	-0.080943935
3	0xbe3715d8	-0.17879426
4	0xbc2fc7b0	-0.010728762
5	0xbe2a402b	-0.1662604
6	0x3d6f3280	0.05839777
7	0x3db52a14	0.088459164
8	0x3d44f62a	0.048086323
9	0x3e160242	0.14649299
10	0xbc979ef8	-0.01850842
11	0x3dc064fe	0.09394263
12	0xbe078628	-0.1323477
13	0xbd188a50	-0.03724128
14	0xbe2c8ca6	-0.16850528
15	0xbc7b62d0	-0.015343383
16	0xbdfb1aca	-0.12260969
17	0x3e56d687	0.20980273
18	0x3e2570ca	0.16156307
19	0x3e0db663	0.13839106
20	0x3d9da90c	0.07698259
21	0xbddccc3e	-0.107811436
22	0x3e331233	0.17487411
23	0xbe3cd4d1	-0.18440558
24	0xbdf70616	-0.12061708
25	0xbdf1bb0f	-0.11803257
26	0xbda06e2d	-0.07833514
27	0x3d2e9b2f	0.042628463
28	0xbd400daa	-0.04688803
29	0xbda6f38b	-0.08151921
30	0xbd372d06	-0.044720672
31	0x3e00844f	0.12550472
32	0xbd831972	-0.06401338
33	0xbe26a829	-0.16275086
34	0xbdfaa3fc	-0.12238309
35	0xbe072149	-0.13196291
36	0xbca08696	-0.019595426
37	0xbe43727e	-0.19086644
38	0xbd9f758e	-0.07786094
39	0x3d8e7c26	0.06957273
40	0x3d2722d3	0.040804695
41	0xbd2d232c	-0.04226987
42	0xbcaf8958	-0.021427795
43	0xbdf5a26f	-0.119938724
44	0x3dd4ef54	0.10397211
45	0xb9cc4790	-0.0003896323
46	0xbd962b4d	-0.07332478
47	0xbc8f183d	-0.017467612
48	0x3d110583	0.035405647
49	0x3e51d968	0.2049309
50	0x3e00a00d	0.12561055
51	0xbd8651c2	-0.06558563
52	0x3aeea450	0.0018206928
53	0x3e2239c9	0.15842356
54	0x3dce1769	0.10063059
55	0x3e1b80d7	0.15185867
56	0xbcf1f38b	-0.029535076
57	0x3e25a35d	0.161756
58	0x3e1a9d38	0.15099037
59	0xbdcd5600	-0.10026169
60	0x3de3dc9e	0.11126064
61	0x3c451341	0.012028516
62	0xbe0b0ea5	-0.13579805
63	0xbdcca18a	-0.09991749
64	0xbdba7df1	-0.09106053
65	0xbe17b555	-0.14815266
66	0x3d529848	0.051414758
67	0xbdef4fac	-0.11685118
68	0x3db403df	0.08789801
69	0x3d9e13e3	0.07718637
70	0x3d2682a4	0.040651932
71	0x3e477c85	0.19481094
72	0xbdaf2046	-0.085510775
73	0x3caa68d4	0.02080194
74	0x3daa8132	0.08325423
75	0x3df2051b	0.1181738
76	0x3c07ecad	0.008296174
77	0x3e42aa71	0.1901033
78	0x3d2d997c	0.042382702
79	0x3e1d853d	0.15382858
80	0xbe377332	-0.17915037
81	0xbe34ce25	-0.17656763
82	0xbe2bf6cc	-0.16793364
83	0x3d2b3ef2	0.041808076
84	0x3e753f52	0.23949936
85	0xbdc471fa	-0.09592052
86	0x3e07fd4a	0.13280216
87	0xbe198ced	-0.14995165
88	0xbdfbee0f	-0.123012654
89	0xbd27a244	-0.040926233
90	0xbccfc4fe	-0.025362488
91	0x3c87e6eb	0.016589602
92	0xbddd3315	-0.10800759
93	0x3e6fc0f1	0.23413445
94	0x3da154cb	0.07877501
95	0x3df57359	0.119848914
96	0xbe0a0f98	-0.13482511
97	0x3dc50b02	0.0962124
98	0xbd34bdac	-0.044126198
99	0xbd8df4e7	-0.06931477
100	0x3d155c25	0.03646483
101	0x3dcb0951	0.09913886
102	0x3d234698	0.039862245
103	0xbc3914df	-0.01129648
104	0x3d359984	0.044335857
105	0xbc9fce5d	-0.019507581
106	0xbce145d3	-0.027499115
107	0xbc7ef9f8	-0.015562527
108	0x3e01d412	0.12678555
109	0xbdf4bc69	-0.11949999
110	0x3d8225db	0.063548766
111	0x3e3c50da	0.18390217
112	0xbe08167b	-0.13289826
113	0xbe36b9f0	-0.17844367
114	0xbe00debf	-0.12584971
115	0xbe23b3a9	-0.15986504
116	0x3e1b20c4	0.15149218
117	0x3e050781	0.12991144
118	0xbd1d5fbd	-0.03842138
119	0x3e1b3709	0.15157713
120	0x3d1e7db0	0.038694084
121	0xbe3dd7a5	-0.18539293
122	0xbe31109c	-0.17291492
123	0xbdd2079a	-0.10255356
124	0xbe4107eb	-0.18850677
125	0xbdcb6ef6	-0.099332735
126	0x3d515acc	0.05111198
127	0xbc1574a0	-0.009122044
128	0xbd9bdb1e	-0.07610153
129	0x3c4c0db3	0.012454438
130	0x3e248b05	0.16068657
131	0xbc1fee16	-0.009761354
132	0x3d30eb43	0.043193113
133	0xbd68b15d	-0.05680977
134	0xbe112c8b	-0.14177148
135	0x3a3c3607	0.00071796816
136	0x3dca4206	0.09875874
137	0x3e094847	0.13406478
138	0xbe361406	-0.17781076
139	0xbcf31c6c	-0.029676639
140	0xbe3a1677	-0.18172632
141	0xbc08197c	-0.008306857
142	0xbc51d659	-0.012807452
143	0x3db1f70c	0.086896986
144	0xbd82f335	-0.06394044
145	0xbd485188	-0.04890588
146	0x3d01580a	0.0315781
147	0xbe3b7266	-0.18305358
148	0x3dc2a09a	0.095032886
149	0x3e3d61ba	0.18494311
150	0xbe0497ef	-0.12948583
151	0x3e4dde81	0.2010441
152	0x3d3ca7ec	0.04605858
153	0x3e1a5b15	0.15073808
154	0x3e2977e7	0.16549645
155	0xbe10a34f	-0.14124797
156	0x3e3dc360	0.18531561
157	0x3d660d07	0.056164768
158	0x3da75eaa	0.081723526
159	0xbde4585f	-0.11149668
160	0xbe255594	-0.16145927
161	0x3d707de6	0.058713816
162	0x3daa8742	0.0832658
163	0x3dbba672	0.09162606
164	0xbe375fc7	-0.1790763
165	0xbe3b411e	-0.18286559
166	0x3de2200e	0.1104127
167	0x3a052df0	0.00050803926
168	0x3db6581e	0.08903526
169	0x3ca7e820	0.020496428
170	0x3d457381	0.048205856
171	0x3d602fd4	0.054733112
172	0xbe169ced	-0.147083
173	0x3dfebbec	0.12438187
174	0x3db44fa1	0.088042505
175	0x3d983f2c	0.07433924
176	0xbcd69ce7	-0.026197864
177	0x3e41119f	0.18854378
178	0x3e2b91e8	0.16754878
179	0xbd34f36f	-0.04417747
180	0x3e4ecd61	0.20195533
181	0x3d3bb4df	0.04582679
182	0x3e2ad92b	0.16684406
183	0x3e3d6a96	0.1849769
184	0x3d5d02a1	0.053957585
185	0x3d8070dc	0.06271526
186	0x3d7abe35	0.06121655
187	0x3e40e341	0.1883669
188	0xbe33ad8b	-0.1754667
189	0x3d8b86f4	0.0681285
190	0x3e4e4038	0.20141685
191	0xbdd2f93e	-0.103014454
192	0xbdbb860a	-0.09156425
193	0xbc459ea9	-0.012061753
194	0x3d157206	0.036485694
195	0x3e3559f7	0.177101
196	0xbb971786	-0.0046109585
197	0x3d889e54	0.06670824
198	0xbdb8a234	-0.09015313
199	0x3e3b60b1	0.18298604
200	0xbdc13cd1	-0.09435428
201	0x3e3343d9	0.1750635
202	0x3ddf6928	0.10908729
203	0x3e11dc93	0.14244299
204	0x3e6d28a6	0.23160037
205	0xbd1de4f9	-0.038548443
206	0x3dfed43d	0.12442825
207	0xbe306957	-0.17227684
208	0x3e0aab6b	0.13541953
209	0xbe03f8af	-0.12887834
210	0xbe0388df	-0.12845181
211	0xbdf906cd	-0.121595
212	0x3e44a0d8	0.19201982
213	0x3e209c4d	0.15684624
214	0xbe05eb32	-0.13078001
215	0xbe168b5a	-0.14701596
216	0x3d898fe0	0.06716895
217	0xbd507fd3	-0.050903153
218	0x3d05d698	0.032675356
219	0x3da5a959	0.08088941
220	0xbe10658e	-0.1410124
221	0xbe304e02	-0.17217258
222	0x3c5233e6	0.012829756
223	0x3dc83f72	0.09777726
224	0x3e3ba2d0	0.18323827
225	0x3d566981	0.05234671
226	0x3c0a992f	0.008459373
227	0x3d74a21d	0.059724916
228	0x3e26fc51	0.16307189
229	0xbe1198b7	-0.14218412
230	0x3cdacee6	0.026709985
231	0x3dff013e	0.12451409
232	0x3e5b2a5f	0.21402882
233	0x3e6c2244	0.23059946
234	0x3dc37055	0.0954291
235	0x3e838a5b	0.25691494
236	0xbe334c42	-0.17509559
237	0x3d005402	0.031330116
238	0x3cde9368	0.027169898
239	0x3e0266a8	0.12734473
240	0x3d3be0fc	0.04586886
241	0x3e3be312	0.18348339
242	0xbe27af5c	-0.16375488
243	0x3d73d93c	0.059533343
244	0x3dda8da4	0.10671547
245	0x3e34bc9d	0.17650075
246	0x3d64e90c	0.055886313
247	0x3de20afe	0.11037253
248	0xbd087e24	-0.033323422
249	0xbcd2bc0f	-0.025724439
250	0x3e20905a	0.15680066
251	0x3e47da48	0.19516861
252	0x3e579d7c	0.2105617
253	0xbdbac36c	-0.09119305
254	0x3d06239e	0.03274881
255	0xbe3adb5f	-0.18247746

fc1.bias f4 [64]
0	0xbd4bec27	-0.04978576
1	0x3e7caae3	0.24674563
2	0x3da29d4a	0.07940157
3	0x3dd902d1	0.1059624
4	0xbc9dbe6c	-0.01925584
5	0x3d276982	0.040872104
6	0x3dfacf82	0.1224661
7	0xbda5cebe	-0.080960736
8	0x3e301591	0.17195727
9	0x3df1face	0.11815415
10	0xbd9a6642	-0.075390354
11	0xbd8d2cb2	-0.068932906
12	0x3e10669e	0.14101645
13	0xbcba26db	-0.022723606
14	0xbd8e1809	-0.06938178
15	0x3e000f20	0.1250577
16	0xbceaa40e	-0.02864268
17	0x3ddf9f47	0.109190516
18	0x3c79bced	0.015242797
19	0xbde96ee0	-0.11398101
20	0xbdfced99	-0.12350006
21	0x3d0cc7d8	0.034370273
22	0xbc903adb	-0.01760619
23	0x3e51c921	0.20486881
24	0x3d584219	0.05279741
25	0x3cf1fe52	0.029540215
26	0x3da123c6	0.07868151
27	0x3e3cb2da	0.18427601
28	0xbe26001b	-0.16210978
29	0x3c230483	0.009949806
30	0xbd11b2b7	-0.035570826
31	0x3e6b47c9	0.22976603
32	0x3e47bd5e	0.19505832
33	0x3c375dfc	0.011191841
34	0x3e744dcb	0.238578
35	0x3e46c320	0.19410372
36	0x3e3289be	0.17435357
37	0x3e3368f9	0.17520513
38	0xbd2b80d6	-0.041870914
39	0xbdb73c50	-0.089470506
40	0xbc352bca	-0.011057803
41	0xbd787d45	-0.06066634
42	0x3e5e89d2	0.21732262
43	0x3e6700e9	0.22558941
44	0xbdcb20df	-0.09918379
45	0x3c4de3c8	0.012566514
46	0xbdce0529	-0.10059578
47	0xbe2ffd7c	-0.1718654
48	0x3ce2e04b	0.027694842
49	0xbdc2af4f	-0.09506094
50	0x3e6eceec	0.23321122
51	0xbd7124cd	-0.058872987
52	0x3e90232b	0.2815183
53	0xb9911da0	-0.00027678628
54	0xbd4cf4f0	-0.050038278
55	0xbd8c86dd	-0.06861661
56	0x3e5ea49b	0.2174248
57	0x3ce16ea4	0.027518578
58	0x3e78f974	0.24313909
59	0x3e82787b	0.25482544
60	0x3dca69bc	0.098834485
61	0x3e36e0ba	0.17859164
62	0x3ce0c9ca	0.02743997
63	0x3d39386c	0.045219824

fc2.weight f4 [64, 64]
0	0x3c4a7cfd	0.012358901
1	0xbdbb7e50	-0.091549516
2	0xbd587460	-0.05284536
3	0x3d84e781	0.06489468
4	0xba67e486	-0.00088460033
5	0x3dd81c09	0.10552222
6	0x3d8ebfa7	0.069701485
7	0x3cffaa7e	0.031209227
8	0xbdde4aec	-0.10854134
9	0x3cda92bb	0.026681295
10	0x3dc2c5ab	0.095103584
11	0xbc1a2e75	-0.00941049
12	0x3ca14bc7	0.019689454
13	0x3d63000f	0.055419978
14	0xbdbae72a	-0.09126122
15	0xbda96bbf	-0.08272504
16	0x3caee050	0.021347195
17	0xbde35080	-0.110993385
18	0xbc4542eb	-0.01203988
19	0x3d7ba8d3	0.0614403
20	0xbaf7c0ae	-0.0018902028
21	0xbdc2524b	-0.094883524
22	0xbde3ab0b	-0.11116608
23	0xbde75400	-0.112953186
24	0xbd80f7bb	-0.06297251
25	0xbdf183a8	-0.117926896
26	0x3b6b3b75	0.0035893593
27	0xbdcc75b6	-0.09983389
28	0xbcd1e140	-0.025620103
29	0xbdaaf8be	-0.08348225
30	0x3d696e3a	0.056989886
31	0x3dd795f6	0.1052665
32	0x3dd89cbd	0.105767705
33	0xbdd1437f	-0.10217952
34	0xbc94a791	-0.018146308
35	0xbdc16b41	-0.09444285
36	0xbc9a652b	-0.018847069
37	0xbd096789	-0.033546004
38	0xbd7b5d22	-0.061368115
39	0x3c9ad795	0.018901626
40	0xbdc1ceb2	-0.09463252
41	0xbce0a7a1	-0.027423682
42	0xbd6ada86	-0.057337306
43	0xbe051391	-0.12995745
44	0x3d6054bd	0.054768313
45	0xbcb1412e	-0.021637525
46	0xbd59f95b	-0.05321632
47	0xbe05c73a	-0.1306428
48	0x3d48e064	0.04904212
49	0x3c863be3	0.016385978
50	0xbdbef5d2	-0.0932423
51	0xbd83e418	-0.0643999
52	0xbdaded38	-0.084925115
53	0x3dd578df	0.10423445
54	0x3e04dbc9	0.12974466
55	0xbd1a962c	-0.03774087
56	0xbaca48e7	-0.0015433104
57	0xbdf0af00	-0.117521286
58	0x3cebf5e3	0.028803771
59	0xbc146aa7	-0.009058631
60	0xbda62059	-0.081116386
61	0x3d072d82	0.033002384
62	0xbdc20892	-0.09474291
63	0x3dd92014	0.106018215
64	0xbd7c0b9d	-0.061534513
65	0x3de5f78b	0.11228856
66	0x3d6fb413	0.05852134
67	0x3a38545e	0.00070316147
68	0x3e20e49f	0.15712212
69	0x3dfa6a3d	0.122272946
70	0x3db16afc	0.08662984
71	0xbd6fefbf	-0.05857825
72	0x3d780f43	0.06056143
73	0x3e2ca239	0.16858758
74	0xba0cd9c6	-0.0005373027
75	0x3b3b6f06	0.002860011
76	0x3d8bb1d0	0.068210244
77	0x3d8130fa	0.0630817
78	0xbcd26617	-0.025683446
79	0x3cffb87b	0.031215897
80	0xbca5fd96	-0.02026252
81	0xbd515171	-0.05110306
82	0x3d4139e7	0.04717436
83	0xbc743555	-0.0149052935
84	0x3d9834ad	0.07431922
85	0x3d89c42a	0.067268685
86	0x3df30b96	0.11867444
87	0x3ce9dac8	0.028546706
88	0x3d8b5f67	0.06805306
89	0x3e420a6f	0.18949293
90	0x3de84d71	0.11342896
91	0xbd37e84d	-0.044899274
92	0xbdd3a9f8	-0.10335153
93	0xbd28b96a	-0.04119245
94	0x3d0cb027	0.03434768
95	0x3b17e582	0.0023177569
96	0x3e1f406b	0.15551917
97	0x3d619d53	0.055081677
98	0x3e13dd88	0.14439976
99	0x3e5758b7	0.21029936
100	0xbd7245e0	-0.05914867
101	0x3e2d6ed4	0.16936809
102	0xbb1d0a1b	-0.0023962322
103	0xbdafa273	-0.085759066
104	0x3c527397	0.012844942
105	0x3da96fe1	0.08273292
106	0x3e27fa8f	0.16404174
107	0x3e2d595d	0.1692862
108	0x3d5221f7	0.051301923
109	0x3dc0c3ee	0.094123706
110	0xbda22ed4	-0.07919088
111	0x3e05c21c	0.13062328
112	0x3d8522c5	0.065007724
113	0x3d5b99aa	0.053613342
114	0x3e0dec0d	0.13859577
115	0xbdf913d6	-0.121619865
116	0x3e0055ce	0.12532732
117	0x3d0ca60a	0.034338035
118	0x3e02b983	0.1276608
119	0x3d9c2dc2	0.07625915
120	0x3e0c01d1	0.13672568
121	0x3d6fa931	0.058510963
122	0x3e2d3804	0.169159
123	0x3deac255	0.11462847
124	0x3d5211ac	0.051286384
125	0x3de87fce	0.11352502
126	0xbc2b8d41	-0.010470689
127	0x3d820e88	0.06350428
128	0x3db9f238	0.09079403
129	0x3d4bd0f9	0.04975984
130	0x3dcf2763	0.10114934
131	0xbda6f0db	-0.08151408
132	0xbd2fb4b8	-0.042896956
133	0xbe006a60	-0.12540579
134	0x3cfbcd80	0.030737638
135	0x3cbc4413	0.022981679
136	0xbc1388d9	-0.009004795
137	0x3d61ca7b	0.05512474
138	0x3dcd1145	0.100130595
139	0xbde779da	-0.11302538
140	0xbe09ad62	-0.13445047
141	0xbd771c30	-0.060329616
142	0x3dd7dc76	0.105400965
143	0xbda14274	-0.07874003
144	0x3df78fe6	0.12087993
145	0xbdf4fe36	-0.119625494
146	0x3da77a8f	0.08177673
147	0xbd95c82e	-0.07313572
148	0xbd530a3c	-0.051523432
149	0x3de60896	0.112321064
150	0x3d6da8ee	0.058022432
151	0x3dccf5de	0.10007833
152	0x3da5169a	0.080609515
153	0x3d0c9784	0.034324184
154	0xbd68ea1c	-0.05686389
155	0x3cc6fdf8	0.024291024
156	0xbd7bed90	-0.061505854
157	0x3d121c58	0.035671562
158	0xbdbf1d72	-0.09331788
159	0xbd53ed3d	-0.05173992
160	0x3b88f502	0.004179598
161	0x3db3e48e	0.08783828
162	0xbd1ff605	-0.039052982
163	0xbdc4bb8c	-0.09606084
164	0xbdf67db8	-0.12035698
165	0xbd05c0cb	-0.032654565
166	0x3d85b67f	0.06528949
167	0xbd89a304	-0.06720546
168	0x3dc7c5f4	0.097545534
169	0x3ddb7a1e	0.107166514
170	0xbdb38ad2	-0.08766712
171	0xbe03da92	-0.12876347
172	0x3d7bc290	0.061464846
173	0xbda710ca	-0.08157499
174	0xbdc7b946	-0.09752135
175	0x3d440534	0.047856525
176	0x3ddecacb	0.108785234
177	0x3ddf97ee	0.1091765
178	0xbd4d9c01	-0.050197605
179	0xbdbb846c	-0.09156117
180	0xbdab881f	-0.083755724
181	0x3dd42857	0.10359257
182	0xbb817fe0	-0.0039520115
183	0xbde2e936	-0.11079638
184	0xbd553b9f	-0.052058812
185	0x3d45ada4	0.0482613
186	0xbdfdf3f4	-0.12400046
187	0x3dc83f7a	0.09777732
188	0xbde1af48	-0.1101976
189	0x3c0a0b33	0.008425522
190	0x3bf3cea0	0.007440403
191	0xbc86ee00	-0.01647091
192	0xbd94947c	-0.07254884
193	0x3ab7696d	0.0013993211
194	0xb91e54d1	-0.00015099651
195	0xbc90aa75	-0.017659405
196	0xbd458d21	-0.048230294
197	0x3d6ffe20	0.05859196
198	0xbd5024ab	-0.05081622
199	0x3c6133ec	0.013745289
200	0x3ca24aa4	0.019810982
201	0x3dc04a3c	0.09389159
202	0xbdc2cacc	-0.09511337
203	0x3dde57cb	0.10856589
204	0xbc51ab09	-0.012797126
205	0xbddaf1d3	-0.106906556
206	0x3c009146	0.007847136
207	0x3aa40124	0.0012512547
208	0x3db2da56	0.087330505
209	0xbd4dcc11	-0.05024344
210	0x3bdf8304	0.006821038
211	0xbd7c8223	-0.061647546
212	0x3dacc86e	0.084366664
213	0xbdcbd2dc	-0.099523276
214	0xbda0e2c0	-0.07855749
215	0xbd963e94	-0.073361546
216	0x3d6b277c	0.057410702
217	0xbe094853	-0.13406496
218	0x3de93f2a	0.11389001
219	0xbdeac469	-0.114632435
220	0x3db1412f	0.08655011
221	0xbcdad816	-0.026714366
222	0xbd4646ea	-0.048407473
223	0x3d9d2328	0.07672721
224	0xbdce5830	-0.10075414
225	0x3dc77922	0.09739901
226	0x3d0e757f	0.03478002
227	0x3e075548	0.13216126
228	0xbd0d33a9	-0.034473095
229	0x3dd5be71	0.104367144
230	0x3dc6e4b1	0.09711588
231	0xbd93e89a	-0.072220996
232	0x3da36b29	0.079794236
233	0x3d491605	0.049093265
234	0xbcaf6757	-0.021411581
235	0xbd2ec8ab	-0.04267184
236	0xbdc46f03	-0.09591486
237	0xbd863c54	-0.065544754
238	0x3c90e33d	0.01768648
239	0x3c1a9238	0.009434275
240	0xbd64e3e6	-0.055881403
241	0xbe0da793	-0.13833456
242	0xbd1602d9	-0.03662381
243	0x3dd8c848	0.105850756
244	0x3dcc2123	0.09967258
245	0x3daa033b	0.083013974
246	0xbdd6bc05	-0.10485081
247	0xbd3901dd	-0.045167793
248	0x3d0da6b9	0.034582827
249	0xbdecbdc1	-0.1155963
250	0xbdfcd3e5	-0.12345103
251	0xbceb07c4	-0.028690226
252	0x3a8ec89c	0.0010893526
253	0xbd8f2754	-0.06989923
254	0x3be0616b	0.0068475506
255	0xbc017ead	-0.007903737

fc2.bias f4 [64]
0	0x3d53b2f0	0.05168432
1	0x3df9495e	0.12172197
2	0xbcaf22d5	-0.021378914
3	0x3dae2ca8	0.08504611
4	0xbde8eeee	-0.11373697
5	0x3db050c1	0.086091526
6	0x3d8c744a	0.06858118
7	0xbb895f51	-0.004192271
8	0x3c0d26bd	0.008615193
9	0xbd54459c	-0.051824197
10	0x3d836221	0.06415201
11	0xbda00f92	-0.0781547
12	0xbaaa4e96	-0.0012993391
13	0xbde55e79	-0.1119966
14	0xbdb61c0e	-0.0889207
15	0x3df6ae3f	0.120449536
16	0x3d3de775	0.046363313
17	0xbdcde18e	-0.10052787
18	0x3cf9a339	0.030473338
19	0x3d3ccf77	0.04609629
20	0xbccdd41a	-0.025125552
21	0x3d23a677	0.039953675
22	0x3e2d744d	0.16938896
23	0x3d9b1e87	0.07574182
24	0x3d199d9e	0.03750383
25	0x3d624414	0.055240706
26	0x3d89f4ef	0.067361705
27	0x3e1814c5	0.14851673
28	0x3e4a347c	0.19746584
29	0xbdd3a116	-0.10333459
30	0x3e344a99	0.17606582
31	0xbd9da322	-0.07697131
32	0x3dcb79f0	0.09935367
33	0xbdd78d2e	-0.10524975
34	0xbde9191c	-0.11381742
35	0x3d8f1959	0.069872566
36	0x3c5b75ec	0.013394814
37	0xbd97cdd8	-0.074123085
38	0x3dbfba64	0.09361723
39	0xbda743d6	-0.081672356
40	0xbc967a09	-0.018368738
41	0x3d829209	0.0637551
42	0x3daae664	0.08344725
43	0x3c1db491	0.00962557
44	0xbdb6b178	-0.08920568
45	0x3e20b0d3	0.15692453
46	0xb9423bf0	-0.0001852361
47	0xbcba7ca4	-0.022764511
48	0x3dcef9d4	0.10106245
49	0x3e0b5f0d	0.13610478
50	0x3d9a9d0a	0.07549484
51	0x3e042f79	0.12908734
52	0x3e268056	0.16259894
53	0x3d721e8a	0.059111156
54	0xbdbb7866	-0.091538236
55	0xbd4cc6f9	-0.049994443
56	0xbdc93989	-0.09825427
57	0x3e4873c7	0.19575416
58	0x3e10da14	0.1414569
59	0x3e4eca7e	0.20194432
60	0xbd06db24	-0.032923833
61	0xbd92479c	-0.07142565
62	0xbd904327	-0.07044058
63	0xbd8e787b	-0.069565736

fc3.weight f4 [5, 64]
0	0x3da72b58	0.08162564
1	0x3d62ab1a	0.055338956
2	0xbb51835e	-0.003196917
3	0xbd1b1d5b	-0.037869792
4	0x3b877540	0.0041338503
5	0x3da77deb	0.08178314
6	0xbd5884d4	-0.05286105
7	0x3d4aa452	0.049473114
8	0x3dc0a17f	0.09405803
9	0xbd9cc1a6	-0.07654123
10	0x3a519749	0.00079952605
11	0xbd84b269	-0.064793415
12	0xbdb7b6e8	-0.089704335
13	0x3cc92f1c	0.024558596
14	0xbd99c0e1	-0.07507492
15	0x3dfa2f84	0.12216094
16	0xbd42e1ef	-0.04757875
17	0x3d997290	0.07492554
18	0x3c8a2c1d	0.016866738
19	0xbe156903	-0.1459084
20	0xbde1ac99	-0.110192485
21	0x3d2312ca	0.03981284
22	0xbcfaf862	-0.030636016
23	0x3dca0a72	0.098652735
24	0x3e245b36	0.16050419
25	0xbd8b9b84	-0.068167716
26	0xbca6fefe	-0.020385262
27	0xbd50fd65	-0.051022906
28	0x3dded665	0.10880736
29	0xbdc1e1c6	-0.09466891
30	0x3df47f25	0.119383134
31	0x3d5005b0	0.050786674
32	0x3d95ab9b	0.07308122
33	0xbcf24528	-0.029573992
34	0x3daa1c94	0.08306232
35	0x3df200b8	0.11816543
36	0xbc0730d4	-0.008251388
37	0x3da39b14	0.07988563
38	0x3dca20f5	0.09869567
39	0xbde5f466	-0.11228256
40	0x3e15dfae	0.14636108
41	0xbb1c192c	-0.0023818715
42	0x3d90513b	0.070467435
43	0x3c8bca27	0.017064167
44	0x3db3c599	0.08777923
45	0x3e05b784	0.13058287
46	0x3e14803e	0.14502046
47	0x3db16359	0.08661527
48	0x3e3d6fb1	0.18499638
49	0x3b922add	0.004460676
50	0x3d687a43	0.056757223
51	0x3e3af11f	0.18256043
52	0x3d880946	0.06642394
53	0x3dfa5d4a	0.12224825
54	0xbd8df6e0	-0.06931853
55	0x3d8e1bf6	0.06938927
56	0xbd3dc824	-0.046333447
57	0x3dd4ad7f	0.10384654
58	0x3dfec5f6	0.12440102
59	0x3dc73eaa	0.09728749
60	0x3d198f16	0.037489973
61	0xbd0f673d	-0.035010565
62	0xbd47ce7f	-0.048780914
63	0x3e1258b7	0.14291655
64	0x3dfd75b1	0.123759635
65	0xbc84171e	-0.016124304
66	0xbc436a4f	-0.011927201
67	0xbd46dfc0	-0.04855323
68	0xbd9de664	-0.07709959
69	0x3ddcf7e8	0.10789472
70	0xbd18998d	-0.037255812
71	0x3c3b0afe	0.011416195
72	0xbcd7a92d	-0.026325786
73	0x3cf810f8	0.030281529
74	0x3e012bcb	0.12614362
75	0x3ddea8cd	0.1087204
76	0xbd79ddbf	-0.06100249
77	0xbdcbae3b	-0.09945341
78	0x3d8d6ef7	0.069059305
79	0x3d9e1b4a	0.07720049
80	0x3db6c4fc	0.089242905
81	0xbbb53740	-0.005530268
82	0x3d011ee3	0.031523596
83	0xbbfd9235	-0.0077383765
84	0x3baa827a	0.0052035423
85	0x3d28bf56	0.041198097
86	0x3e0570a4	0.1303125
87	0x3d69b964	0.057061568
88	0x3dc0aefd	0.09408376
89	0xbc897e65	-0.016783902
90	0xbda19cdf	-0.07891249
91	0x3d23d2c2	0.039995916
92	0x3e1d4fb1	0.15362431
93	0x3dbbe7bf	0.091750614
94	0x3d77ce43	0.06049944
95	0x3d097154	0.033555344
96	0x3dcf6255	0.10126177
97	0xbd788f98	-0.060683817
98	0xbd369439	-0.04457495
99	0xbc9e3eba	-0.01931702
100	0xbd9b2832	-0.07576026
101	0xbda8d9cc	-0.082446665
102	0x3e1c5151	0.15265395
103	0x3c0b2950	0.008493736
104	0xbd532102	-0.05154515
105	0xbcf23cc7	-0.029569997
106	0x3d8395b9	0.06425042
107	0x3d90e0a0	0.07074094
108	0x3dc5371f	0.09629654
109	0xbb81e856	-0.003964464
110	0xbe061624	-0.13094383
111	0x3cad4378	0.021150336
112	0x3e4524a5	0.1925226
113	0x3e0ca6f4	0.13735563
114	0x3b9fec7c	0.004880486
115	0x3dcfc9fe	0.10145949
116	0x3d16fafc	0.03686045
117	0x3d83bc99	0.064324565
118	0xbcf2ebee	-0.029653516
119	0x3d18ee73	0.037336778
120	0xbd7b4697	-0.061346617
121	0x3dfc54b7	0.123208456
122	0x3dcfda83	0.101491
123	0x3e3fbd09	0.18724455
124	0xbe191610	-0.14949822
125	0x3d0f547e	0.034992687
126	0xbdebdd5a	-0.11516829
127	0xbe0740a2	-0.13208249
128	0x3ca78ae1	0.020451965
129	0xbdd7c239	-0.10535092
130	0x3ce000ee	0.027344193
131	0xbc4981f6	-0.0122990515
132	0x3d9cccf2	0.07656278
133	0xbe0820d6	-0.13293776
134	0xbd890fff	-0.06692504
135	0x3dad0510	0.08448231
136	0xbe3c2e13	-0.18376951
137	0x3dc041d6	0.09387557
138	0xbe16d6e5	-0.14730413
139	0xbe076989	-0.13223852
140	0xbd0aa144	-0.0338452
141	0x3da87345	0.08225111
142	0x3c4f34ff	0.012646913
143	0xbe04c737	-0.1296662
144	0xbd409039	-0.04701254
145	0xbdd25158	-0.10269421
146	0xbe30703f	-0.17230318
147	0xbcb94979	-0.022618042
148	0x3d171f26	0.03689494
149	0x3d9bb18f	0.07602226
150	0xbe32b32a	-0.17451158
151	0x3d139dab	0.036039036
152	0xbe0255f4	-0.12728101
153	0xbdb8cea6	-0.0902379
154	0xbd3d7d37	-0.046261992
155	0xbe57c5ba	-0.2107152
156	0xbda668e6	-0.081254765
157	0x3d561541	0.052266363
158	0xbd933770	-0.07188308
159	0xbcb03318	-0.021508738
160	0xbe60e6b2	-0.21963003
161	0x3cb62058	0.02223222
162	0x3d3647a5	0.04450192
163	0x3c573060	0.013134092
164	0x3d9e079d	0.07716296
165	0x3c657740	0.014005482
166	0xbe3f4022	-0.18676808
167	0x3bfb3e20	0.007667318
168	0xbe2300f7	-0.15918337
169	0xbdeb1cee	-0.11480127
170	0x3d1d47dc	0.03839861
171	0xbdb53d19	-0.08849544
172	0xbda3fbc2	-0.08007003
173	0xbe59f74e	-0.21285746
174	0x3d6ecedd	0.05830275
175	0xbe4fef4a	-0.20306125
176	0xbe2db06f	-0.16961835
177	0xbdb04a68	-0.08607942
178	0x3d388c66	0.04505577
179	0xbe4710cf	-0.19440006
180	0xbe329085	-0.17437942
181	0xbbad1543	-0.0052820756
182	0xbe69b55b	-0.22823088
183	0xbd1255e2	-0.035726435
184	0xbdcf4aa4	-0.101216584
185	0xbcfd5aa2	-0.030927006
186	0xbe1611e2	-0.14655259
187	0xbe1ff0db	-0.15619223
188	0xbd55302e	-0.0520479
189	0x3c3da1a7	0.011574185
190	0xbdc54bab	-0.09633573
191	0xbdb39741	-0.08769084
192	0xbd835df7	-0.06414407
193	0xbd12d7c2	-0.035850294
194	0xbcd52bf2	-0.026021931
195	0xbd87f31c	-0.06638166
196	0xbc4c1630	-0.012456462
197	0x3dd0086d	0.10157857
198	0xbc7d90b7	-0.015476397
199	0xbdd5a00e	-0.10430919
200	0xbde9870a	-0.1140271
201	0x3de9f3b2	0.11423434
202	0xbde6f4e3	-0.11277177
203	0xbdc1fc89	-0.094719954
204	0xbdc56037	-0.09637492
205	0xbb9e205c	-0.004825635
206	0xbd8a2182	-0.06744672
207	0x3d01210d	0.03152566
208	0x3cc6b009	0.024253862
209	0xbdda8ada	-0.10671015
210	0xbd07cbe0	-0.033153415
211	0xbda14e52	-0.078762665
212	0x3c9f47c2	0.019443396
213	0xbd9998c0	-0.07499838
214	0x3e087c65	0.13328703
215	0xbc22c0ad	-0.009933633
216	0xbdc9f21e	-0.09860633
217	0xbd8035fe	-0.06260298
218	0x3ddc895d	0.107683875
219	0x3d4e224d	0.05032568
220	0x3dda2986	0.10652451
221	0xbc0b58eb	-0.008505086
222	0x3c07e510	0.008294359
223	0xbd968cea	-0.07351096
224	0xbccd4572	-0.025057528
225	0xbdc16b94	-0.09444347
226	0x3c942583	0.018084293
227	0xbd09ff96	-0.03369101
228	0xbd60cb61	-0.054881457
229	0x3dd031a8	0.10165721
230	0xbdb80fcd	-0.08987389
231	0xbd0f96f4	-0.03505607
232	0xbd8d2816	-0.068924114
233	0x3cc0baf9	0.023526656
234	0xbd8a9ff2	-0.067687884
235	0xbdc1dd53	-0.09466042
236	0x3c87f4ae	0.016596165
237	0xbd6f883c	-0.058479533
238	0xbdc884d9	-0.09790964
239	0x3d9ded75	0.07711307
240	0xbb71f3a7	-0.003691891
241	0x3c354d68	0.011065818
242	0xbb826181	-0.0039789085
243	0xbcad4a20	-0.02115351
244	0xbde72d18	-0.11287898
245	0x3dc467da	0.095901206
246	0x3b70d7f9	0.0036749823
247	0xbd8d0592	-0.06885828
248	0x3dfde176	0.12396519
249	0xbcbfa855	-0.023395697
250	0x3d389630	0.045065105
251	0x3d470d30	0.04859656
252	0xbd9d1a7f	-0.07671069
253	0xbdde677d	-0.108595826
254	0x3c81437b	0.015779248
255	0x3c690022	0.014221223

fc3.bias f4 [5]
0	0x3e1dfd72	0.15428713
1	0x3de21f78	0.110411584
2	0xbdac8cfe	-0.084253296
3	0x3d546c47	0.051861074
4	0xbdcf2cd7	-0.101159744
