model5/DOMAC/agent_3/29critic_params.pkl (torch, 59223 bytes, 6 tensors)

fc1.weight f4 [64, 133]
00000000: 23c3 95bb 18f3 13bd 7f3c 2dbd 74c4 b1bc
00000010: ab18 8dbd ebde 1c3d 4d71 523d 6c72 0cbc
00000020: 3847 28bd d344 b83c eaa7 1bbe ffbb a33d
00000030: f945 77bb 8ad6 81bc c87a 82bd 99be 84bd
00000040: 659f a03d cf48 f7bc 3153 18be ab1a 18bd
00000050: 82a8 89bc 9a81 83bd afbb e7bc 24c2 3e3d
00000060: dcf8 213d 4d85 65bc 163e 27bd 3a60 1fbd
00000070: 43e2 3e3d 8348 c2bc 4605 8abd cfaf 723c
00000080: 7268 00be 1895 03bd fd4a 0d3d bdff a6bc
00000090: 754e 16bd 077e 41be 8868 0cbe 6232 6fbc
000000a0: 6371 703d 6f87 30be adbc 0fbe ad90 85bd
000000b0: c6c6 52bd dbfc d23d 6950 ef3b 8016 343d
000000c0: 9123 783d 567f 463e 7097 77bb a6ff 983d
000000d0: 17ec 9cbb 763a 1f3e 2ec4 de3c 0f6a e4bc
000000e0: 4138 f9bc 9649 793d d105 44bc 11d9 5f3d
000000f0: 519b b7bb cbf2 173d 3941 693d e39c 083d
00000100: 7b2e e0bb 0d6a d63d 81d6 6e3d 8707 4e3d
00000110: 91b7 bbbb a8d5 d13d 50dc adbd fc49 33bd
00000120: 6746 36bd 7443 70bd d07d 03be 0b86 3f3d
00000130: 7f2c e5bd baaa af3c 0ce7 41bc 6acc adbc
00000140: 0a23 02bd 7b9a 9ebd bfae 0abd a23f d2bd
00000150: c789 d03c f0e7 d43c 6875 b9bc 079a 7b3d
00000160: 8201 563c 85bf 653e 9446 363c b946 053c
00000170: ddf8 17bd f392 08bd e002 d73d 592e 513e
00000180: 37b3 823b 467f 04be 9c4c bfbd 738c af3d
00000190: a38c d83c 7a14 c03c 77cf edbc 48f5 abbd
000001a0: 7349 b7bc cd5c 923c 710f 52bd 6127 ebbc
000001b0: 8a86 3e3d dfce 50bd 0033 21bd 2d7d f83b
000001c0: cb7c 1fbd 5ef4 9bbd 27b0 693d 6fc0 b6bd
000001d0: 0ea5 953b 97c2 b5bd 0043 89be cd40 673d
000001e0: 4b3c 933c 949c 84be 7135 5ebc 3ae3 513d
000001f0: 9b47 afbd 924e 09bd 2d1d 033d 82db c43c
00000200: 4f77 d7bc 03fe 033e 50e5 5dbe 1cc5 b4bb
00000210: 8412 9cbc 1761 0b3c 4ba6 97bd 1e61 2dbc
00000220: a9ce 6abd 52a6 873d 9411 72bb cd97 813c
00000230: 1959 a3bc 6c18 bc3d af1b 093e 2a8d 263e
00000240: 2b88 b63d 4d21 86bb e411 fe3d 25f6 093e
00000250: 9cfc afbc e5e8 1c3d 9c14 803d 5647 123e
00000260: 979a 333e d0aa 263e 16bc dd3b ce84 54bd
00000270: 2278 c63d f776 af3c de4b f03c a3c4 4bbd
00000280: 0dad 8ebd ce2a 85bb 9976 563d d9e0 f2bc
00000290: 90c6 6bbd 0b2c 693d dab6 2f3d 446e c13d
000002a0: 6073 e8bb 4c20 d53b 9479 3c3e 3a30 693e
000002b0: 0b82 b83d 5b85 0cbd dd62 d83d 9e1a 343e
000002c0: 621c 4b3d eb67 0b3e fb94 6f3d 5221 683d
000002d0: 88cf df3c 527c 023e da4b 023e 3303 b7bc
000002e0: cf96 68bc 58da b3bc 037a 833d 5648 bf3d
000002f0: 38c6 04bd 6108 42bd a078 653d cbfd 3cbd
00000300: 68ac adbb 60b4 a2bb 78bb 993c 8683 c8bc
00000310: 1fb6 abbb d48c 323d 1a59 8b3d 78c5 973d
00000320: 446b 0a3d 45b9 4ebd e1a9 8d3d 71cf 643e
00000330: 0082 bdbc 2153 e23d e5ed 2e3a 3a33 a93d
00000340: 6270 393e 80bd d13d e740 143e 1e30 d33c
00000350: 21d8 e53d 47a9 0c3e fa90 703d 91d2 6ebc
00000360: ce85 823d 90a2 e83c fa5a 363d a5b9 353b
00000370: 1dff 033d 06de e7bc ba33 cbbd f84d 553d
00000380: fa22 7fbb 8bd6 a63d 2c29 903d 852f 8b3d
00000390: e2c4 6dbd 6da5 763d 7e0e d73d 2a80 d63d
000003a0: 35b1 aa3d 469a 373e 0343 e33c dede e3bc
000003b0: 0840 ce3d e5b4 623e 749d 2b3e 5ca0 c83c
000003c0: 904f cfbc 812c a63c cab9 c23d 9320 4e3d
000003d0: 3bef 2f3c 97b2 8fbd 8c3e ac3d 820d adbd
000003e0: 3162 abbd 3ab1 47bd 95b9 8ebc bb81 3d3d
000003f0: 2488 10bd a4da e4bc d9bc c63d 7de7 36bd
-0.0045703813 -0.036120504 -0.04229402 -0.021700121 -0.06889471 0.03829853 0.051377583 -0.008572202
-0.041083544 0.022493755 -0.15200773 0.07994842 -0.0037730916 -0.01584937 -0.06371075 -0.06481666
0.07842902 -0.030186085 -0.14875485 -0.037134808 -0.016803984 -0.06421204 -0.028287737 0.046571866
0.03954397 -0.014008832 -0.040830694 -0.03891013 0.0466025 -0.023716217 -0.06739287 0.014812424
-0.12539843 -0.03212461 0.034495343 -0.020385617 -0.036695916 -0.18895732 -0.1371175 -0.014599415
0.058701884 -0.17239164 -0.14036818 -0.06521735 -0.051459096 0.103021346 0.007303287 0.04396677
0.060580794 0.19384512 -0.0037779473 0.07470636 -0.0047888863 0.15549645 0.027193155 -0.027882604
-0.030422332 0.060861193 -0.011964277 0.05465037 -0.005603232 0.03709678 0.056946967 0.033352744
-0.0068414784 0.10469446 0.058310036 0.050300147 -0.00572867 0.1024583 -0.08489287 -0.04377173
-0.044500735 -0.05865808 -0.12840962 0.046758693 -0.111901276 0.021443713 -0.011834871 -0.021215636
-0.031771697 -0.077443086 -0.033858057 -0.10266043 0.025456322 0.025989503 -0.022638991 0.06142619
0.013061883 0.2243634 0.011125226 0.008134537 -0.03710257 -0.033343267 0.10498595 0.20427836
0.003988649 -0.12939176 -0.09340784 0.085717104 0.026434248 0.023447264 -0.029029591 -0.08396393
-0.02237389 0.017866516 -0.051284257 -0.0287053 0.046515025 -0.050978538 -0.039355278 0.0075832815
-0.03893737 -0.07614969 0.057052758 -0.089234225 0.004566795 -0.08875006 -0.2680893 0.056458283
0.017973086 -0.2590071 -0.013562546 0.05124209 -0.085585795 -0.033522196 0.032010246 0.02403045
-0.026302008 0.12889867 -0.21669507 -0.0055166613 -0.019051798 0.008507035 -0.07404765 -0.010582237
-0.057325993 0.0662352 -0.0036936747 0.015819455 -0.019939946 0.091843456 0.13389467 0.16264787
0.08912691 -0.004093325 0.12405756 0.13472803 -0.021482758 0.038308043 0.06253931 0.14285025
0.1753944 0.16276097 0.0067668064 -0.051884465 0.09690882 0.021419032 0.029333051 -0.049748074
-0.069666006 -0.0040639406 0.052359197 -0.029648231 -0.05756241 0.05692677 0.04289899 0.094448596
-0.007093832 0.006504094 0.18405753 0.22772303 0.09009179 -0.034306865 0.10565732 0.17588279
0.049587615 0.1361386 0.05849169 0.0566724 0.027320638 0.12742737 0.12724248 -0.022340393
-0.014196112 -0.0219547 0.06419756 0.09339969 -0.0324156 -0.047371272 0.05602324 -0.046140473
-0.0053000934 -0.00496535 0.01876615 -0.024476778 -0.0052402164 0.043591335 0.06804104 0.07410711
0.033793703 -0.050469656 0.069171675 0.22344758 -0.023133278 0.11051012 0.0006673022 0.08261724
0.18109277 0.102412224 0.14477883 0.02577978 0.11222864 0.13736449 0.05873201 -0.01457657
0.063731775 0.028397828 0.044520356 0.002772906 0.032225717 -0.028304111 -0.099219754 0.05207631
-0.003893076 0.081463896 0.07039103 0.06796173 -0.05804909 0.060216356 0.10500811 0.10473664
0.08334581 0.17929944 0.027741915 -0.027816232 0.10070807 0.22139318 0.16759282 0.024490528
-0.025306493 0.020284893 0.09508093 0.050324034 0.010738189 -0.07016485 0.08410367 -0.08449842
-0.08368338 -0.048753 -0.017422477 0.0462663 -0.035286084 -0.027936287 0.097039886 -0.04465436

fc1.bias f4 [64]
00000000: 0fa1 71bd bb59 373d f858 4bbb 2c84 2fbb
00000010: 19e5 353d 58f0 313d 4e9e 2b3d 4e97 17bd
00000020: 1403 bf3c 233a b3bc 5eed c0bd 74c2 c43d
00000030: fe41 f8bc 3838 ca3d 657f 5ebc ff42 0b3c
00000040: e994 113d 26d8 58bb aad5 243d f542 9a3d
00000050: e4c4 d33b 385d f83d b25f af3c 7aff 843d
00000060: 0b59 3dbc 1353 153c b3bc e03c 5a35 3a3b
00000070: ca4f 6a3d ac6c 9cbd 3fad b23d 1909 7cbd
00000080: 6b7f 99bd 6ba5 c73c 44b0 8bbc b14f a13d
00000090: e3dd 34bd 25b0 8c3b 0b02 df3d 59a6 33bd
000000a0: a227 fb3a eab5 be3d ad0c ea3c f2ff 3d3d
000000b0: 3bee 073c 0c20 873d 9b9b 873d 2ab5 153b
000000c0: b069 9d3c f636 34bd f776 343d 068d 2bbd
000000d0: af84 e1bc 07fb 66bd 869a 603b 06ed f23d
000000e0: 6476 133c 8121 79bb d90b a73c 1730 be3d
000000f0: 7cfe 62bd 6041 29bd e5d7 b2bd c012 583d
-0.058991488 0.044763308 -0.0031028371 -0.0026781661 0.044407938 0.0434421 0.041899018 -0.03700953
0.023316897 -0.021878308 -0.09420274 0.096074015 -0.030304905 0.09874004 -0.013580178 0.00849986
0.035542402 -0.003308782 0.04024283 0.07532302 0.00646268 0.12127155 0.021407936 0.06494041
-0.011556874 0.009114045 0.027433729 0.0028413148 0.057205 -0.07637915 0.0872445 -0.061532114
-0.07495006 0.02437087 -0.017051823 0.07876528 -0.04415692 0.004293459 0.108890615 -0.043859813
0.0019161592 0.09312041 0.028570497 0.046386667 0.008296545 0.06597909 0.06621476 0.0022843578
0.019215435 -0.043997727 0.044058766 -0.041882537 -0.027529089 -0.056391742 0.003427179 0.11861615
0.0090003945 -0.0038014355 0.020391392 0.09286516 -0.055418476 -0.041322112 -0.08732585 0.052752256

fc2.weight f4 [64, 64]
00000000: cfc5 a3bd 2665 453c f802 aa3d ff98 a43d
00000010: 8168 00be bd4b 903d 88f6 29bd f6f2 d23c
00000020: 8e31 d3bc a8b6 b03d 046e 423e bb7c a3bd
00000030: a242 54bd 2050 4c3d 8d2a 143d 7c8c d13b
00000040: 5467 9ebc c51f 8dbd 1611 dbbc 98cb db3d
00000050: 5246 89bc 4652 3d3d 431b e63c 89da 06be
00000060: 76b3 ab3d 05e9 dc3b 749d 27be 1490 a8bd
00000070: 82d8 b3bc 0b9b 073e e808 e63c 7b50 813d
00000080: ed39 e7bd e770 d13d 2ec4 d43d aab5 f63d
00000090: 2e14 013e 3725 0c3e 9a6b abb9 6cd3 e9bd
000000a0: 2b17 9a3c 1809 04be 0a3c 37bc 5ea0 00be
000000b0: 5ea9 a43c 43c6 693d b833 a53d 434c ee3d
000000c0: bd38 2e3d cc03 a0bd d1c0 b6bd fe29 5abc
000000d0: bf6a 943d 2c04 4cbd ce0d 7f3d 1bcf 0abe
000000e0: 3965 ff3d cdf1 f63d 7904 b23c 7f27 873d
000000f0: 8fcc 703d 938d 93bd 2cde e53d 0168 0b3d
00000100: 4e25 3b3c 1052 fe3d 1974 b53d b7f0 50bc
00000110: 0486 1e3e 8656 ee3d 3293 923d ce41 2b3d
00000120: c55a 7f3d 5b93 cf3d bada d8bd 174f bd3c
00000130: 9643 d1bd 4144 313e d0b0 cdbc 2623 9a3d
00000140: 5ff0 f83d 1ef9 123e 5ec0 3f3e 5728 2bbe
00000150: f1f5 203d 7307 b6bc 7b06 023e 8c82 cb3d
00000160: 03a7 4a3e 37d2 f53c c511 e5bd ccd9 d13d
00000170: 86b5 f03d baf6 553e 7457 ab3d 412c 823d
00000180: 5a6d 623c d429 293e f2a5 b1bc 1e5c fd3d
00000190: 9124 9dbd 9906 fc3d 51c7 353d 5869 d63d
000001a0: c56d 39bb 6808 973c dfbc f1bb 5687 9e3b
000001b0: 07fa 223c f895 2a3d c8c3 eb3d 49c7 993d
000001c0: ea81 1fbd 5e21 aa3d bc5f 903d 703b 943d
000001d0: 1a7e 073e 34c8 523d 5a55 e33d 55eb 353e
000001e0: 86fe 5cbd b3f4 7b3d 3587 d63d be34 b03d
000001f0: 32e0 a8bd 5a9a 96b9 225d 2c3d 0a1b a63d
00000200: a8b5 263d 3fa4 3b3d 4356 10bd 49f7 353b
00000210: efa6 a2bd 1a88 7a3d 2e0a 05be 254a 64bd
00000220: dc92 efbd 75de 54bd 086b 8a3d 7a8a e03d
00000230: c167 3c3c 3645 98bc dadd 303d 433e 8b3c
00000240: 318b 4abc 0455 f5bd 6a5a be3c cfea 9c3d
00000250: 3c0a 453d 9d9d a0bd 65cb 89bd e7f1 dd3d
00000260: 05b5 893d c705 9cbd 2f03 1b3d c8c8 aabd
00000270: 42de 7a3d fb6c 193d 754a 6dbd e0a4 c2bd
00000280: 4a76 923d bbaf 9dbd 0e7d ac3d 1d7e d13d
00000290: 737c f9bd 3f39 33bd b799 f3bd 90e1 4dbc
000002a0: 1580 8b3b d352 c03c af43 97bd 6193 4f3d
000002b0: 03c1 543d c929 ea3d cc67 cebd 00d1 d23b
000002c0: cf4a 06bc 6c79 ebbc 3ed8 28bd ecc5 dbbd
000002d0: 859f 023d e28e 01be 6d03 eb3b 1735 0dbd
000002e0: e7d5 fcbd f297 36bd 7523 973d b72c 963c
000002f0: fe7b bbbc 9d00 b73d 72b7 aebd 0899 bebd
00000300: 5034 fabd fc9b f33b c168 e7bd d76f 47bd
00000310: 53cc b93a d565 663d 7210 1ebd c4d3 0bba
00000320: 26c7 b2bd 0f80 ecbc f747 d73d a851 d4bd
00000330: 7650 37bd c199 d13d b887 cebd 6c53 ffbc
00000340: b4e1 bbbd 1817 b63d 2480 9e3d 8467 a33d
00000350: 30a1 b93c 2a2e 9c3a 4a90 d5bd d28c 80bd
00000360: f77d da3c f035 16bd 0212 a5bb b028 5fbd
00000370: a242 e53c 334e cebc ffd8 b83d 46c1 ce3d
00000380: b04b 403c 155f d0bd 0d27 e2bb 3606 19bd
00000390: 2722 253d a735 8b3b 3bee 79bd d237 623c
000003a0: 1c15 623b dcf2 4f3c 2093 83bc 2eb4 d9bd
000003b0: 4e8f 8b3d a689 12bd abd1 723d 3424 c9bd
000003c0: 6ac0 a43d 99e5 21bd a440 ad3c c84a 733d
000003d0: ce9d bebb 3572 a9bd 45dc a8bd 79c9 46bc
000003e0: 147a 8b3d 2baf 95bc db54 213d aa22 c2bb
000003f0: 157a 563c a864 1a3d f85f a33d 41d6 d43d
-0.07996713 0.012048041 0.083013475 0.08036994 -0.12539865 0.07045696 -0.041494876 0.025750618
-0.025780465 0.08628589 0.1898728 -0.07982775 -0.05182136 0.0498811 0.036173392 0.006394921
-0.01933638 -0.06890825 -0.026741546 0.10732192 -0.016757164 0.04622104 0.028089171 -0.13169302
0.08383839 0.0067416453 -0.16368657 -0.08230606 -0.021953825 0.13242738 0.028080419 0.063141786
-0.11290345 0.102266125 0.10388981 0.120463684 0.12605354 0.13686071 -0.0003269583 -0.11417279
0.018809875 -0.12894094 -0.011183748 -0.12561175 0.020100292 0.057073843 0.08066505 0.116356395
0.04253458 -0.07813224 -0.089234956 -0.013315676 0.07246923 -0.049808666 0.062269025 -0.13555567
0.124704786 0.120578386 0.021730648 0.0659933 0.058788832 -0.072047375 0.112240165 0.034034733
0.011422468 0.12417996 0.088600345 -0.012752703 0.1548081 0.11637597 0.071569815 0.041810803
0.062342424 0.10135528 -0.10588594 0.023109002 -0.10217969 0.17311193 -0.025108725 0.07526235
0.12155222 0.14352843 0.18725726 -0.16714607 0.039297048 -0.022220349 0.12697785 0.09937009
0.19790272 0.030007465 -0.1118503 0.102466196 0.11753373 0.208949 0.0836629 0.06356097
0.013820017 0.16519862 -0.021685574 0.123710856 -0.0767299 0.12305946 0.044379536 0.104693115
-0.0028294188 0.018436626 -0.0073772515 0.0048379106 0.0099473065 0.041646928 0.11511952 0.07508714
-0.038942255 0.083071455 0.0704951 0.07237899 0.13231698 0.05146046 0.11100264 0.17765553
-0.05395367 0.06151266 0.104750074 0.0860381 -0.08245887 -0.0002872523 0.042081006 0.08110626
0.040700585 0.045810934 -0.035238516 0.0027765802 -0.07941996 0.061164953 -0.12992164 -0.055734772
-0.11697933 -0.051969964 0.06758696 0.10963912 0.011499346 -0.01858769 0.043180324 0.016997462
-0.012362287 -0.11979106 0.023236472 0.07661974 0.048105463 -0.07842562 -0.067282476 0.10837155
0.0672398 -0.076182894 0.037844833 -0.08339077 0.061247118 0.037457447 -0.057932336 -0.09504104
0.07151468 -0.076995336 0.0842229 0.10229132 -0.1218194 -0.043755766 -0.11894553 -0.012565985
0.004257212 0.023476994 -0.073859565 0.05067766 0.051941883 0.11433751 -0.100783914 0.006433606
-0.008196547 -0.028744422 -0.04122185 -0.1073111 0.03189041 -0.12652162 0.0071720392 -0.03447446
-0.12345486 -0.0445785 0.0737981 0.018331869 -0.022886273 0.08935664 -0.08531083 -0.09306532
-0.12217009 0.0074343663 -0.11299277 -0.048690643 0.0014175273 0.05624946 -0.038589902 -0.0005333985
-0.08729391 -0.028869657 0.10511773 -0.10367137 -0.044754468 0.10234404 -0.1008448 -0.031167708
-0.09173909 0.088911235 0.07739285 0.079787284 0.022659868 0.0011915613 -0.104279116 -0.06276859
0.026671393 -0.036672533 -0.005037547 -0.054482162 0.027985875 -0.025183773 0.09025764 0.10095458
0.011736795 -0.101743855 -0.006901628 -0.03735944 0.040315773 0.004248339 -0.06101821 0.013807254
0.0034497445 0.0126921795 -0.016061366 -0.1063007 0.068144426 -0.035775803 0.059281986 -0.09821358
0.080445126 -0.039525602 0.021148987 0.05939749 -0.0058171516 -0.082737364 -0.08245138 -0.012132996
0.06810394 -0.018272003 0.039387565 -0.0059245424 0.01309063 0.03769365 0.07977289 0.10392428

fc2.bias f4 [64]
00000000: 3725 9fbd 14e7 933d a8aa 963c a7e1 893d
00000010: c6a4 8f3d 72d6 483d 7bc2 7a3d 51f3 b0bc
00000020: b0e9 343d 96e3 b73d a94c f2bd 8c25 683d
00000030: 5f24 5d3d ecf7 5c3c b247 8bbd ffe9 dabd
00000040: c8fb adbc 7685 ef3c 3134 04be eee8 963d
00000050: 870f 4e3c 6f29 a8bd 6619 ef3d 90d6 ee3c
00000060: 30b5 e3bd 58a3 b1bd eb12 8ebd 1a32 043e
00000070: 3ba2 5dbd 40c3 d4bc 1142 d53d 8a85 e83d
00000080: 8d3a 8a3c b037 e43d 2229 8ebd dfb8 8bbd
00000090: d2de 493d a6cb 4ebd ca56 b5bd b0cd f33b
000000a0: cf62 673d e8c2 a9bb 5267 123e ef8d c13d
000000b0: 74e0 a0bd 03df 80bc 841b 2b3d 60c1 c1bd
000000c0: 51da 7bbd 202f babd 4436 9f3d 3d94 7e3c
000000d0: ad23 bfbd 0612 fabd 8550 a53d 8601 8a3d
000000e0: 0faf adbd 3efc b43d e386 3b3d fb9d 07bc
000000f0: 2970 03bd ec6f aabd ee76 92bc 4a71 083e
-0.0777077 0.07221809 0.018391922 0.06732493 0.0701385 0.049032636 0.061220627 -0.021600397
0.044168174 0.089789554 -0.11831028 0.056676432 0.053989764 0.013486844 -0.06800784 -0.106891625
-0.021238223 0.029238444 -0.12910534 0.073686466 0.012576944 -0.08211028 0.11674766 0.029155046
-0.11118543 -0.086737335 -0.06937202 0.12909737 -0.054109793 -0.025972009 0.10412992 0.113535956
0.016873622 0.11143434 -0.06941439 -0.06822371 0.049284764 -0.050487183 -0.08854444 0.0074402913
0.056490716 -0.0051807053 0.14297226 0.094509 -0.07855311 -0.01573134 0.041774288 -0.094607115
-0.0614875 -0.0909102 0.07774022 0.015538272 -0.093329765 -0.12210469 0.080719985 0.06738572
-0.084806554 0.08837174 0.045782935 -0.008277412 -0.032089386 -0.08322129 -0.017878976 0.13324466

fc3.weight f4 [25, 64]
00000000: f5cc 9abd cb48 27be 30fe cebd c6b1 173d
00000010: 3bfa b0bd 1d6e 92bc 1c53 2d3d d786 32bc
00000020: e88e d4bd cdfa cabd ec77 56be cde6 f0bd
00000030: f431 103c 0ce3 923b 6a3b 243d 3c31 88bd
00000040: 5c41 d5bd c364 eabd 458a cb3d 2c05 f4bd
00000050: bab4 1dbe 3345 69be 7701 16be 29c2 04be
00000060: 16aa ae3d 1303 e2bb 98ad f2bd 59a4 cfbc
00000070: 9c64 b23d 85ef fc3c 007a d9bd 4170 b73d
00000080: d294 e5bb aded aebd 545e a5bd 643a 21be
00000090: 9c52 913d 5c33 8abd aa7e fa3c f3b6 9fbb
000000a0: e30d 413e ffe6 e83d f7e9 c7bc 1d46 253d
000000b0: b9b5 d33c 15dd 4bbd 7671 23be cf88 62be
000000c0: 037a d93d 9b16 90bd d22d 0bbe 6a93 c6bd
000000d0: 16f9 a43d 8164 3dbd 78df 583e febc b73d
000000e0: 70bf 043c d22e ad3d aab1 91bd 8852 24bd
000000f0: b2a1 a1bb 5cd3 86bd 3f36 ce3d 8e8f 903d
00000100: d064 783b ca49 fabb ded0 a73c 0e25 c9bd
00000110: 3865 12be c448 48be 5f81 0ebe 46a5 1bbd
00000120: 8d45 56be c8e2 fcbd 74ef 2abe 6cb1 163d
00000130: 6aec 28bd c5e1 0bbe e6e6 33bd 09be 9c3c
00000140: 624c 2dbe 6ef3 10bc 3316 e13d 3f3d ef3d
00000150: c594 b7bd d4ff 16be c783 cb3c 5ff6 b1bd
00000160: 355c 203d a18c e8bd b75f 91bc ee26 283d
00000170: d528 c23d bc27 1d3d de98 ba3d 76b6 4bbc
00000180: 58c5 e43d 3f83 663d 5aab 12bd 4532 22be
00000190: 4aba 28bd a6b2 853b 8501 13bb b473 4b3d
000001a0: f843 b43d 29d4 f2bd bb06 793b 0b97 90bd
000001b0: 7dda e13c 6f18 e33c b2d1 15be 3a5e b6bd
000001c0: 74f2 08be b637 24be c65b 41bd 73c3 1cbd
000001d0: e645 31bd e23d a93d ed51 2a3e b2c8 c43d
000001e0: 2f29 fbbd 2897 a2bc 5955 04be 6d87 0b3d
000001f0: 732b f63d 6a8f a83d ec2b a23c 058c ae3d
00000200: fe85 92bd d4d4 ac3b 1a34 e13d 7112 493d
00000210: f574 18be 482b b8bd 929a 8fbd 1c1d 3ebe
00000220: 3878 1dbc 5b2a e3bd 58d7 69bd 2d2d 1dbe
00000230: 747f 8e3d 675b 933d 3141 cd3d 9ad9 db3d
00000240: bad5 aabd 43a3 43bc 86d9 783c ce04 3b3d
00000250: cf05 16be 3d4a fa3a 38e6 ffbd ac6f 37bd
00000260: f43d 94bd f5c8 403d 4792 2abe b2a8 1ebe
00000270: 7c57 a9bc fb35 733d ee07 b1bd 3665 073e
00000280: d9a6 ba3c 15f7 64bc 3eb2 b63b 70d6 bbbd
00000290: 134d 973d d96d 96bd 1f9f 0abe 9446 94bd
000002a0: 266c 0d3e 2f91 23bd c29c 213d d817 13be
000002b0: 2ab8 a73d 864a a53d a1c9 1cbe 58de f3bb
000002c0: ba44 0dbd 876f f4bd 87a0 863d c339 3d3d
000002d0: a772 3dba fa63 04bd f4b0 f73c 7bdd 563d
000002e0: 4a02 c53d ba9a 663d d227 14be 13d4 1cbe
000002f0: 3b1f ea3d c468 ddbd 0652 db3d 6e8c 9c3d
00000300: e9a0 113e fe81 3a3d 2715 ddbc c95f a83d
00000310: 212f edbd e0aa 9ebd 77be d53c 5211 05be
00000320: 71c2 273b f62f 4cbd be5f eabd 3c76 c6bd
00000330: 605f 2fbd 7ea2 24bd 1a8c 78bd ce1d 8dbc
00000340: 4537 15be c82f 1bbd adb6 97bc b9b8 dfbc
00000350: cee8 f2bd b34c 91bd dea0 903b 174b 9f3d
00000360: 1c40 a23a 2b95 623d 90cb 9ebd 4967 58bd
00000370: 28d3 f83d 95fb 1bbe c53c 3e3c 3d9e c23d
00000380: d510 35bd c990 433d 9bce 233b 7434 54bd
00000390: 0ed5 58bc fe7e f5bd 7bb7 4cbd 807c 3a3d
000003a0: 7579 fbbc 8c7b d73d 5489 a53c 632b c03c
000003b0: 0f49 06be 7545 aabd 6783 37bd e759 00be
000003c0: eaef b73d a806 52bd d19a 433d 6a6b 16be
000003d0: 36cf d8bd 4600 023c 006e 023e 77b2 313c
000003e0: 0421 ccbd 2eac 42bd 4aec d9bd 87e5 9fbd
000003f0: a48c 8e3d 2047 163d 2b3b e2bc 4baa 76bd
-0.07558624 -0.16336362 -0.10107076 0.037034772 -0.08641478 -0.017874772 0.042315587 -0.010896406
-0.1037882 -0.09911118 -0.20944184 -0.11762772 0.008800972 0.0044826325 0.040095724 -0.06650016
-0.10412857 -0.11445 0.09938482 -0.11915049 -0.15400973 -0.22780304 -0.14648996 -0.12964691
0.08528535 -0.006897339 -0.11849517 -0.025346922 0.08710596 0.03087593 -0.10618973 0.089569576
-0.007006266 -0.08541427 -0.08074632 -0.1574493 0.070958346 -0.06748077 0.030577976 -0.004874104
0.18852954 0.11372184 -0.024403555 0.04035007 0.025843488 -0.049771387 -0.1596125 -0.22122501
0.10618975 -0.07035562 -0.13591698 -0.09696086 0.08055322 -0.046238426 0.21178997 0.08971594
0.008102283 0.08456196 -0.07113965 -0.04011777 -0.0049326057 -0.06583282 0.1006894 0.07058631
0.0037901886 -0.007638191 0.020485338 -0.09821521 -0.14296424 -0.19559008 -0.13916539 -0.037999414
-0.20924969 -0.123479426 -0.16692907 0.036790296 -0.041241087 -0.13660343 -0.043921374 0.019133585
-0.16923669 -0.008847101 0.10990562 0.11681604 -0.089639224 -0.14746028 0.02484311 -0.0868957
0.039150435 -0.11354948 -0.017745836 0.04105275 0.09480444 0.03836797 0.09111188 -0.012433639
0.11170453 0.05627751 -0.035807945 -0.15839489 -0.041193284 0.0040801344 -0.0022431326 0.04967089
0.088020265 -0.118568726 0.0037998396 -0.07060059 0.027570004 0.027721612 -0.14630774 -0.08904691
-0.13373739 -0.16036877 -0.047206663 -0.038272332 -0.04327955 0.08263756 0.16632815 0.09608592
-0.122637145 -0.019847468 -0.12923183 0.0340647 0.12020006 0.08230479 0.019796334 0.085228
-0.07154463 0.0052743945 0.10996266 0.049089853 -0.14888366 -0.0899263 -0.07011904 -0.18565792
-0.009611182 -0.11092063 -0.057090133 -0.15349264 0.069579035 0.07195168 0.100222 0.107348636
-0.08341546 -0.01194078 0.01518858 0.04565888 -0.14650653 0.0019095611 -0.124950826 -0.044784233
-0.07238379 0.047066648 -0.16657363 -0.1549404 -0.020671599 0.05937765 -0.086440906 0.13222203
0.022784637 -0.013974925 0.0055754473 -0.0917176 0.073877476 -0.073451705 -0.13537262 -0.07240024
0.13810787 -0.03993338 0.039456137 -0.14364564 0.081894234 0.08070855 -0.1531129 -0.007442277
-0.03448937 -0.11935335 0.06573587 0.046197664 -0.00072268624 -0.032321908 0.030235745 0.052457314
0.09619577 0.056299902 -0.14468315 -0.15315275 0.11431738 -0.10810998 0.10709004 0.07643972
0.14221539 0.045534126 -0.026987625 0.082213946 -0.11581255 -0.077474356 0.026091797 -0.12994888
0.0025598074 -0.049850427 -0.114440426 -0.0969052 -0.042815566 -0.040194027 -0.060680486 -0.017226126
-0.14571865 -0.037887365 -0.018519724 -0.027309762 -0.1186081 -0.07094707 0.004413708 0.07777994
0.0012378725 0.05531804 -0.0775367 -0.052832875 0.1214965 -0.1523269 0.011611168 0.09502838
-0.044205505 0.0477455 0.0024994973 -0.051807836 -0.01323439 -0.119871125 -0.049979668 0.04552889
-0.030697564 0.105216116 0.020207085 0.023458188 -0.13113807 -0.08314029 -0.04480305 -0.12534295
0.08981307 -0.05127588 0.047755066 -0.14689413 -0.10586397 0.0079346355 0.12737274 0.010845772
-0.09967235 -0.047527485 -0.10640772 -0.07807451 0.06960419 0.036688924 -0.027616104 -0.060220998

fc3.bias f4 [25]
00000000: c678 50bc 93fc 70bd 55f9 993d ba78 d53a
00000010: c506 fbbc c83b 5f3d 90d5 c13d 936c bfbc
00000020: f346 86bd 9d96 94bb f668 3a3d d293 0cbd
00000030: 61aa 3cbc 8f44 a73d af55 c5bd b2c6 b9bd
00000040: 4476 333d c2b2 74bc 3725 55bd d461 e13b
00000050: 23c2 b83d 2896 c53d 671e af3d dbc9 493c
00000060: 44af 92bd
-0.012724107 -0.058834624 0.075182594 0.001628659 -0.030642876 0.05450037 0.09464562 -0.023367202
-0.06556501 -0.004534556 0.045510255 -0.03432066 -0.011515231 0.081673734 -0.096354835 -0.09071101
0.04381396 -0.014935197 -0.052037444 0.006878117 0.09021404 0.09647781 0.08550721 0.0123161925
-0.071623355
