model5/DOMAC/agent_3/70actor_params.pkl (torch, 144687 bytes, 18 tensors)

fc1.weight f4 [64, 156]
0.015442768 -0.033367198 0.0057507986 0.012730759 -0.012432231 -0.048039313 0.039395433 -0.04797789
0.02422238 0.019992646 -0.034555595 0.050588917 -0.013956667 0.013181217 0.008948937 -0.08102028
0.08574676 0.04659753 -0.07691633 -0.021499041 0.010842542 -0.055067904 -0.03936816 0.052006647
0.022672202 -0.042749226 -0.004600482 0.039578617 0.036443383 0.038111567 -0.042350598 0.041400105
-0.009891237 -0.0593517 -0.06020823 -0.07222078 0.034670617 -0.07350416 -0.05122351 0.019803332
0.06361881 -0.030061696 -0.05354543 -0.08591601 -0.005353563 -0.03100798 0.020400891 -0.07297555
-0.04685446 0.09229634 0.08305757 0.063077666 0.026447935 0.03853972 0.088580534 -0.08007895
-0.07853159 0.09407406 0.048751313 -0.008048347 0.033220343 -0.0457729 0.044770915 0.064723834
0.048074886 -0.011681111 -0.043245703 0.057719965 0.08286601 -0.008478222 -0.057082042 -0.021563005
-0.02456761 -0.07802998 -0.0274685 0.048710883 -0.040756915 0.077347554 0.026027882 0.05614335
0.033156566 -0.047581185 0.03294712 -0.01436879 -0.041153092 0.056755055 -0.03061422 0.037642945
-0.0053630006 0.02937159 0.036398504 0.041285858 0.037295166 -0.025781224 0.04984703 0.0046788314
-0.045742158 -0.08095815 -0.10020625 0.06325221 0.029405078 0.041110083 0.026550693 -0.026428182
0.08872912 0.07467378 -0.0930551 0.014114804 0.040971596 -0.02319365 -0.011984553 -0.0038602955
-0.07373244 -0.030891512 0.08945017 -0.09709088 0.043419067 -0.09493826 -0.0076198885 -0.029979669
0.0040886467 -0.03248206 0.059475504 0.020714307 -0.071436934 0.027752781 0.049072433 0.07553431
-0.015281386 0.015644645 -0.07867444 0.094839774 0.049389023 0.011785784 -0.06824509 -0.035514332
-0.091786124 0.06602617 -0.049853545 -0.005174056 0.012753129 0.011996963 0.04345472 0.04312621
0.086251624 0.027184455 0.018270405 -0.031938147 -0.03517229 -0.051732216 0.02904176 0.04894755
0.073194355 0.026105901 -0.029581528 -0.06226927 0.10133558 -0.007589447 -0.016937615 -0.06000369
-0.05201386 0.025220625 0.062466286 -0.06896884 -0.07993888 -0.025180109 -0.08759945 0.0838504
-0.008750752 -0.057726566 0.02060195 0.048845585 0.016978374 -0.062774874 0.0110434955 -0.06511426
0.0377783 0.010647055 0.036035325 -0.005657588 -0.06986849 0.018374762 0.096425414 0.012633838
0.010090508 -0.032906655 -0.06258694 0.04513913 0.012327633 -0.056778204 0.021004189 -0.0997445
0.006719734 -0.06544997 -0.0012073301 -0.08585615 0.046456993 0.047878534 -0.031666286 -0.08902924
-0.020371769 -0.1099543 -0.03676512 -0.02778635 -0.052597504 0.025578432 0.032804295 0.014092088
0.09172736 -0.10892051 0.09026537 -0.004468611 0.04615573 0.10935963 0.007046416 -0.067093186
0.011151912 0.081682734 0.053015657 0.00610399 0.05346192 -0.06724459 -0.09725645 0.08619561
0.048052333 0.0358326 0.004627625 -0.027261643 -0.06924358 -0.013115763 0.0926919 -0.022413904
0.11452789 0.06717797 0.026499769 -0.040621195 0.0033365795 0.0809397 0.0031098789 0.05408229
-0.11557107 -0.049278524 -0.09859202 -0.038518257 0.024240686 -0.078794345 0.11992853 -0.09867382
-0.030857276 -0.05861234 0.0009649756 -0.029000163 -0.021669282 -0.020943047 0.028153691 -0.08303185
00000000: aa03 7d3c 0bac 08bd 3271 bc3b ac94 503c
00000010: 8eb0 4bbc dfc4 44bd 1b5d 213d 7784 44bd
00000020: 036e c63c 9ec7 a33c 2b8a 0dbd 5336 4f3d
00000030: 81aa 64bc 08f6 573c 909e 123c f6ed a5bd
00000040: ff9b af3d 0ddd 3e3d 4f86 9dbd c21e b0bc
00000050: eba4 313c e28e 61bd 8240 21bd ec04 553d
00000060: 0ebb b93c d019 2fbd a4bf 96bb 301d 223d
00000070: a845 153d e01a 1c3d d277 2dbd 2893 293d
00000080: db0e 22bc c51a 73bd e89c 76bd 7de8 93bd
00000090: c702 0e3d 5989 96bd becf 51bd 993a a23c
000000a0: 944a 823d f243 f6bc 7452 5bbd bcf4 afbd
000000b0: f16c afbb 7304 febc c51f a73c 3574 95bd
000000c0: 76ea 3fbd dd05 bd3d 161a aa3d dd2e 813d
000000d0: 57a9 d83c d3db 1d3d b669 b53d 6f00 a4bd
000000e0: 2cd5 a0bd e7a9 c03d 75af 473d 37dd 03bc
000000f0: 0e12 083d 5d7c 3bbd b561 373d ee8d 843d
00000100: 2cea 443d 2162 3fbc 6822 31bd c56b 6c3d
00000110: a8b5 a93d 3ee8 0abc dcce 69bd e6a4 b0bc
00000120: 0342 c9bc 2fce 9fbd 9f05 e1bc 1085 473d
00000130: b9f0 26bd 6568 9e3d 6d38 d53c 92f6 653d
00000140: 2ecf 073d 7de4 42bd 8ff3 063d 136b 6bbc
00000150: 2590 28bd fd77 683d acca fabc 7d2f 1a3d
00000160: 1cbc afbb b09c f03c 9916 153d 5c1b 293d
00000170: d1c2 183d 2533 d3bc 662c 4c3d e250 993b
00000180: 215c 3bbd 63cd a5bd ef38 cdbd 608a 813d
00000190: ebe2 f03c 0c63 283d d780 d93c ea7f d8bc
000001a0: 9db7 b53d 91ee 983d ac93 bebd c741 673c
000001b0: d5d1 273d 9c00 bebc dc5a 44bc 03fd 7cbb
000001c0: 0901 97bd 3210 fdbc a731 b73d 95d7 c6bd
000001d0: 31d8 313d fe6e c2bd 42b0 f9bb ec97 f5bc
000001e0: 0efa 853b e90b 05bd 969c 733d 0db1 a93c
000001f0: 874d 92bd cd59 e33c 2d00 493d bbb1 9a3d
00000200: c75e 7abc 3329 803c 1120 a1bd 5b3b c23d
00000210: 254c 4a3d 2919 413c 15c4 8bbd 7a77 11bd
00000220: 5dfa bbbd bb38 873d 3b33 4cbd 218b a9bb
00000230: 80f2 503c e98e 443c 94fd 313d 1ca5 303d
00000240: b1a4 b03d efb1 de3c d1ab 953c 93d1 02bd
00000250: d210 10bd 29e5 53bd fce8 ed3c 3a7d 483d
00000260: ece6 953d 0bdc d53c f654 f2bc 100e 7fbd
00000270: 0789 cf3d e5b0 f8bb c1c0 8abc 6ec6 75bd
00000280: 7c0c 55bd 7c9b ce3c a6dc 7f3d 893f 8dbd
00000290: ffb6 a3bd 8446 cebc 5767 b3bd c2b9 ab3d
000002a0: 505f 0fbc b172 6cbd 6cc5 a83c 4f12 483d
000002b0: 3b16 8b3c 1d90 80bd c7ef 343c a05a 85bd
000002c0: 6bbd 1a3d fc70 2e3c c799 133d 4a63 b9bb
000002d0: 3617 8fbd ab86 963c b07a c53d 28fe 4e3c
000002e0: a852 253c 21c9 06bd 952d 80bd cfe3 383d
000002f0: d7f9 493c 4390 68bd fa10 ac3c d846 ccbd
00000300: 3731 dc3b a20a 86bd 473f 9eba 59d5 afbd
00000310: b049 3e3d 481c 443d 82b4 01bd f654 b6bd
00000320: b2e2 a6bc b82f e1bd 0697 16bd 33a0 e3bc
00000330: 7b70 57bd dc89 d13c cc5d 063d 80e2 663c
00000340: 8edb bb3d b711 dfbd 0ddd b83d 6d6d 92bb
00000350: ca0d 3d3d f1f7 df3d 9fe5 e63b 2768 89bd
00000360: 82b6 363c 4749 a73d f226 593d fb03 c83b
00000370: e3fa 5a3d 88b7 89bd 642e c7bd 5387 b03d
00000380: 86d2 443d 34c5 123d 55a3 973b cf53 dfbc
00000390: 94cf 8dbd 7fe3 56bc 40d5 bd3d 5d9d b7bc
000003a0: 998d ea3d 9b94 893d 0b16 d93c 6962 26bd
000003b0: 84aa 5a3b b7c3 a53d 1ccf 4b3b 6485 5d3d
000003c0: 86b0 ecbd 47d8 49bd 9dea c9bd 52c5 1dbd
000003d0: 6794 c63c ee5e a1bd 179d f53d 8015 cabd
000003e0: 66c8 fcbc 7e13 70bd 6bf6 7c3a c091 edbc
000003f0: c783 b1bc c190 abbc 92a2 e63c 9a0c aabd

fc1.bias f4 [64]
0.025803244 0.051987093 -0.030755779 0.030718133 0.022274107 0.07203484 0.09702405 -0.052673876
-0.011373804 0.09019404 0.015363056 -0.050111815 0.021032805 0.062804736 -0.017317463 -0.042968504
-0.031024266 -0.0209968 0.013222571 0.070809685 0.032941684 0.03455062 -0.03344196 0.04179509
-0.0793993 0.0253753 0.085686386 0.023385465 0.07537835 -0.004555961 0.08352173 0.09937065
0.036703542 0.064038746 0.020881144 0.08766228 -0.010890851 -0.05595446 0.010897423 0.06269738
-0.04065857 -0.05600339 -0.07395834 -0.048339993 0.048032764 -0.034162514 -0.08068218 -0.027866747
-0.003650636 0.04533467 -0.07221635 0.02490882 -0.025795247 -0.05161033 0.009535302 -0.07027163
0.0370039 0.0057491832 -0.07954403 0.003920609 0.018833097 0.035744056 0.020801814 -0.005078514
00000000: 5361 d33c 6bf0 543d 8bf3 fbbc 98a4 fb3c
00000010: 3078 b63c 0187 933d 8cb4 c63d 90c0 57bd
00000020: 3159 3abc a7b7 b83d 54b5 7b3c 0c42 4dbd
00000030: fd4c ac3c c59f 803d 5add 8dbc beff 2fbd
00000040: 9a26 febc 7b01 acbc 7ca3 583c ab04 913d
00000050: dced 063d f384 0d3d 70fa 08bd 5431 2b3d
00000060: 1a9c a2bd dcdf cf3c 587c af3d e092 bf3c
00000070: f75f 9a3d 2c4a 95bb 710d ab3d d782 cb3d
00000080: 7456 163d bf26 833d ef0e ab3c 4888 b33d
00000090: 8a6f 32bc 8130 65bd 1b8b 323c 7c67 803d
000000a0: 9a89 26bd d063 65bd 7877 97bd 2800 46bd
000000b0: 01be 443d feed 0bbd b33c a5bd ce48 e4bc
000000c0: 823f 6fbb d9b0 393d 2ae6 93bd 950d cc3c
000000d0: 8e50 d3bc 5a65 53bd f539 1c3c 93ea 8fbd
000000e0: 6791 173d a563 bc3b fbe7 a2bd 7478 803b
000000f0: de47 9a3c 5c68 123d 9168 aa3c aa69 a6bb

fc2.weight f4 [64, 64]
0.14301582 0.10032539 0.048845768 0.107109204 0.06658993 0.11653723 0.104695186 -0.0029176176
-0.049911384 -0.07087248 0.0095396815 -0.09667695 -0.047494464 -0.10821533 -0.05080404 0.14800787
-0.028236745 -0.07577028 0.003850094 -0.0022602105 -0.11542814 0.1607782 -0.053817235 -0.09551326
-0.059152383 -0.05306969 0.03886821 0.07468544 -0.04769568 -0.09933383 0.11579344 0.04591815
0.02459458 0.07356509 -0.11994939 0.1397879 -0.09438923 -0.032176595 0.102396905 -0.056695707
0.038866155 0.09694199 -0.107951924 -0.06345399 -0.06779735 -0.061407875 0.061394505 -0.11025237
0.1648758 -0.054647323 0.11102612 -0.0646908 0.03130416 0.014165259 -0.060015187 -0.023007834
-0.017911064 0.08847587 0.05511804 -0.014214147 -0.059044514 -0.023323108 -0.06862534 -0.057324108
-0.12235968 -0.11585277 -0.09584153 -0.08200392 0.098921254 -0.0034460183 0.025671016 0.061894983
0.064706855 0.07676705 0.105904594 -0.099345 -0.00808483 0.0719762 0.073825605 -0.12397857
0.037429433 0.058125768 -0.10456987 0.07638171 -0.006441437 -0.121267915 0.10512073 -0.06895755
-0.08950985 0.034300547 -0.08763348 -0.004953364 0.018343812 0.005000147 -0.04572779 -0.06124464
-0.108925395 -0.0075869057 0.0023047735 -0.12680966 -0.12504052 0.09967262 -0.010104949 -0.01152093
-0.042461745 -0.0895342 0.0042395643 -0.04338662 0.12097289 0.089815885 0.07089189 -0.07187873
-0.014017867 0.08941383 0.10712505 0.093168914 -0.070859045 0.06543011 -0.037152417 -0.088181034
-4.016245e-05 0.021218203 0.114411175 -0.02411216 -0.030452162 -0.035499338 0.06216843 0.07692568
-0.10443398 -0.079395555 -0.091944024 0.008904659 0.0046316762 -0.10725435 0.04935465 0.029362649
0.0070787 0.047948264 0.09127814 0.06807479 0.025632994 0.043510575 -0.09200374 -0.12526117
-0.1112935 0.049678747 -0.07307254 0.024951972 0.09521868 2.1732254e-05 -0.08653328 0.053154595
-0.026115077 0.05499573 -0.10893155 -0.06502608 -0.098973475 0.088386334 0.024020523 -0.08468837
-0.031442273 0.04278581 0.07752697 -0.031425957 -0.112577006 -0.10921364 0.078933895 0.0009615848
0.07523108 0.1007722 -0.03700192 -0.018581754 -0.06491793 0.018789817 -0.070309885 0.023947105
0.0026512546 -0.06565595 0.08850995 -0.09477784 -0.09507313 -0.037303552 0.07701695 -0.08312668
0.05017231 -0.019192912 0.041934997 0.09564678 -0.023776207 -0.077706695 -0.0094096055 -0.032073606
-0.051925022 0.03218646 0.0907577 0.0150108915 0.12515539 0.07915718 0.16591151 -0.10311429
0.092717685 0.102376334 0.11867472 0.043150906 -0.04599401 -0.030882448 -0.036189012 -0.019350084
-0.102508195 0.046204884 -0.062136896 0.0141326515 -0.0021031618 0.021221632 0.03525552 -0.04540426
0.08338191 0.08411416 0.022297947 0.16293049 0.0039538005 -0.04910513 0.026509473 -0.054016057
-0.05711409 0.0068651675 0.041418087 0.11363779 0.098071784 0.090089805 -0.008419216 0.122895405
0.1069075 -0.05547151 -0.11279267 -0.07266718 0.060465023 -0.032559052 -0.068617895 -0.08575975
0.012382031 0.13785072 -0.07540345 0.13701573 -0.038204476 -0.05910158 0.015036724 0.025721818
0.09753706 -0.067487605 0.08702299 0.100226365 0.021176845 0.15460983 -0.019533336 0.08876015
00000000: bd72 123e 6677 cd3d 8012 483d 125c db3d
00000010: 4d60 883d 12ab ee3d 6e6a d63d 8035 3fbb
00000020: e16f 4cbd 9725 91bd 534c 1c3c 91fe c5bd
00000030: 8e89 42bd 00a0 ddbd e617 50bd 608f 173e
00000040: bf50 e7bc 732d 9bbd dc51 7c3b 0a20 14bb
00000050: 9765 ecbd 0aa3 243e 766f 5cbd 759c c3bd
00000060: c549 72bd 9a5f 59bd 4634 1f3d aef4 983d
00000070: 8c5c 43bd 896f cbbd 1c25 ed3d ac14 3c3d
00000080: 937a c93c 4ba9 963d 07a8 f5bd 8f24 0f3e
00000090: 244f c1bd 9bcb 03bd 78b5 d13d c239 68bd
000000a0: 1e32 1f3d 8689 c63d e615 ddbd 2af4 81bd
000000b0: 56d9 8abd d386 7bbd ce78 7b3d ffcb e1bd
000000c0: 34d5 283e dfd5 5fbd aa61 e33d 9c7c 84bd
000000d0: ca38 003d 6715 683c 7cd2 75bd ed7a bcbc
000000e0: 39ba 92bc d632 b53d 74c3 613d 74e2 68bc
000000f0: a9d8 71bd 1a10 bfbc 718b 8cbd afcc 6abd
00000100: b697 fabd 3844 edbd 9048 c4bd acf1 a7bd
00000110: 3a97 ca3d 98d6 61bb 064c d23c 9885 7d3d
00000120: 0785 843d 0b38 9d3d 82e4 d83d 6475 cbbd
00000130: 3c76 04bc 4268 933d e131 973d 7ae8 fdbd
00000140: 9b4f 193d 4915 6e3d ba28 d6bd 046e 9c3d
00000150: b112 d3bb 505b f8bd 8a49 d73d 9e39 8dbd
00000160: f150 b7bd bb7e 0c3d 2f79 b3bd d44f a2bb
00000170: c345 963c 46d8 a33b 104d 3bbd a9db 7abd
00000180: 4714 dfbd 949b f8bb af0b 173b 64da 01be
00000190: 9f0a 00be 2921 cc3d 3a8f 25bc 48c2 3cbc
000001a0: 5eec 2dbd b55d b7bd 0bec 8a3b 2bb6 31bd
000001b0: a2c0 f73d 64f1 b73d c42f 913d 2835 93bd
000001c0: 32ab 65bc 991e b73d 6164 db3d 58cf be3d
000001d0: 8c1e 91bd 3900 863d 222d 18bd 4298 b4bd
000001e0: 1a74 28b8 ccd1 ad3c 6850 ea3d dd86 c5bc
000001f0: d076 f9bc c167 11bd 53a4 7e3d 368b 9d3d
00000200: 7ce1 d5bd 239a a2bd 264d bcbd d9e4 113c
00000210: 51c5 973b 2ba8 dbbd 1a28 4a3d f089 f03c
00000220: 70f4 e73b 6665 443d 09f0 ba3d cc6a 8b3d
00000230: 49fc d13c 2538 323d 756c bcbd 7744 00be
00000240: d9ed e3bd f17b 4b3d 0ea7 95bd 1468 cc3c
00000250: 0302 c33d a94d b637 5c38 b1bd a2b8 593d
00000260: 49ef d5bc 3443 613d 8117 dfbd 652c 85bd
00000270: 9bb2 cabd e503 b53d b0c6 c43c 1971 adbd
00000280: 9dc9 00bd 2c40 2f3d 76c6 9e3d 81b8 00bd
00000290: c68e e6bd 67ab dfbd 18a8 a13d dd12 7c3a
000002a0: c112 9a3d a861 ce3d 538f 17bd c338 98bc
000002b0: b1f3 84bd 1aed 993c a1fe 8fbd b82c c43c
000002c0: acc0 2d3b a076 86bd b444 b53d e21a c2bd
000002d0: b4b5 c2bd 9ccb 18bd 10bb 9d3d 523e aabd
000002e0: 7b81 4d3d 743a 9dbc 08c4 2b3d 76e2 c33d
000002f0: 52c6 c2bc b024 9fbd bf2a 1abc 9d5f 03bd
00000300: 55af 54bd f3d5 033d 2cdf b93d 3ef0 753c
00000310: bc28 003e 291d a23d b5e4 293e 962d d3bd
00000320: c5e2 bd3d afaa d13d bb0b f33d 01bf 303d
00000330: 3764 3cbd 30fd fcbc ee3a 14bd 1184 9ebc
00000340: d1ef d1bd 5541 3d3d 4283 7ebd a38c 673c
00000350: 33d5 09bb fdd8 ad3c 1868 103d d1f9 39bd
00000360: 23c4 aa3d 0b44 ac3d 2faa b63c 40d7 263e
00000370: e28e 813b 7622 49bd 652a d93c f13f 5dbd
00000380: 77f0 69bd 33f5 e03b 03a6 293d eeba e83d
00000390: dcd9 c83d 0181 b83d c0f0 09bc 96b0 fb3d
000003a0: 52f2 da3d 1836 63bd d8ff e6bd 88d2 94bd
000003b0: 2caa 773d a45c 05bd 8a87 8cbd cfa2 afbd
000003c0: 01de 4a3c bd28 0d3e 206d 9abd da4d 0c3e
000003d0: 4c7c 1cbd 8014 72bd 975c 763c 90b6 d23c
000003e0: 83c1 c73d f136 8abd 1c39 b23d 7b43 cd3d
000003f0: 107b ad3c 0a52 1e3e 6004 a0bc e2c7 b53d

fc2.bias f4 [64]
0.1212786 -0.017825693 0.11422536 -0.005833451 -0.011876097 -0.00850637 -0.010556393 -0.12822099
-0.03336026 -0.04403899 -0.12332666 0.12872106 0.034631856 -0.08333416 0.0759133 0.03787607
-0.10240671 0.006822165 0.08676414 0.095663734 0.07352987 -0.10792316 -0.020979732 0.080808274
-0.053826075 0.04256164 0.11022391 -0.035273656 -0.029807368 0.06710236 -0.11438711 0.12221434
-0.067881346 -0.061944995 0.05593659 -0.030792264 -0.07023369 -0.044415273 -0.11911276 -0.030959012
0.096984684 0.055746987 -0.0010054809 -0.09936152 -0.0995276 0.1048316 -0.045929924 0.08639691
0.107474394 0.018423403 -0.10122906 -0.037039816 -0.031855293 0.048755687 0.08161471 0.024456536
0.02471718 -0.04312484 -0.07070866 -0.027394524 0.06860015 -0.04570779 0.12030711 -0.07698607
00000000: ea60 f83d 3007 92bc fcee e93d 8926 bfbb
00000010: f693 42bc 4d5e 0bbc b9f4 2cbc 5d4c 03be
00000020: c5a4 08bd 3a62 34bd b092 fcbd 74cf 033e
00000030: 22da 0d3d 1aab aabd 6f78 9b3d f023 1b3d
00000040: 9cba d1bd 788c df3b 66b1 b13d 59eb c33d
00000050: d496 963d d106 ddbd b0dd abbc cf7e a53d
00000060: bb78 5cbd 1d55 2e3d 13bd e13d 1c7b 10bd
00000070: 952e f4bc f66c 893d ca43 eabd 834b fa3d
00000080: 6005 8bbd 09ba 7dbd c41d 653d 0f40 fcbc
00000090: aed6 8fbd caec 35bd 64f1 f3bd c19d fdbc
000000a0: e89f c63d f456 643d 57ca 83ba 0d7e cbbd
000000b0: 20d5 cbbd f3b1 d63d 0421 3cbd ddf0 b03d
000000c0: 891b dc3d adec 963c 2e51 cfbd 10b7 17bd
000000d0: b27a 02bd 0bb4 473d 9d25 a73d 1359 c83c
000000e0: af7b ca3c aca3 30bd b4cf 90bd 7b6a e0bc
000000f0: 3c7e 8c3d 1738 3bbd 9363 f63d dfaa 9dbd

fc3.weight f4 [5, 64]
0.12507297 -0.114189714 0.12594885 0.1527534 0.115811795 0.14395212 -0.059225332 0.005831645
0.073690064 0.1666598 -0.076407626 0.13554338 0.02366595 -0.047174983 -0.08863767 0.0051882667
0.0745347 0.11908469 0.12788318 0.023506086 -0.10540264 0.017766943 0.025055947 0.14230192
0.11743234 -0.022234045 -0.07760144 0.003109894 -0.058950223 -0.037568152 0.08454512 0.14973958
0.11452695 0.0010426941 -0.07272117 0.09848483 -0.031654943 -0.10463287 0.09032434 -0.063832976
0.086249776 0.15708643 -0.10011208 0.017061355 -0.087607995 -0.058681417 -0.03007473 -0.024418496
0.13718708 -0.044181053 0.07956584 0.041641135 0.10095998 -0.06670683 0.14370006 -0.09352775
-0.019341152 0.029378206 -0.085699245 0.1193943 -0.067181654 0.10949492 0.11412326 0.028799802
0.11220301 -0.11984548 -0.092206575 0.04525803 -0.026042387 0.0054830257 0.09139328 0.02892607
-0.083746746 -0.13077553 0.108058736 -0.12954156 -0.06110817 -0.09476782 -0.038929764 -0.038898386
-0.06911187 -0.09608866 0.10451023 0.095726 0.07816341 -0.118348666 -0.039898712 0.023988556
-0.12240066 0.12275624 0.03160556 0.014033393 0.000600307 0.093460254 0.0052323192 0.104852565
0.035210945 -0.062926844 -0.07530097 0.120879814 0.035937812 -0.0942621 -0.045167133 0.070103824
0.089087285 -0.01327582 -0.11035942 0.03495982 -0.01785409 0.016690062 0.045229375 0.046999816
0.02981876 0.030853335 -0.06941466 0.057133116 -0.054184947 0.12707388 0.08448676 0.07513762
0.027482035 0.010716289 -0.11658582 -0.012402866 0.07994914 -0.037745956 0.054893717 -0.12417806
-0.043753237 -0.052609794 0.081013694 0.00093217264 -0.024833618 0.017984677 0.07458538 0.0073068175
-0.06585365 0.04032052 0.06403828 -0.08408305 -0.057494894 0.059602242 -0.11751003 -0.100358866
0.06763886 -0.008316082 -0.06527525 0.018113848 0.08186641 0.10295781 0.07398696 0.041565962
-0.13511136 -0.14035971 0.08644875 -0.04922637 -0.032228664 0.038967643 -0.060256973 -0.07944193
-0.15006569 -0.0063856216 0.090249695 0.09874655 0.04269187 0.081874 -0.050181612 -0.052224007
0.07167399 -0.11550654 0.005459619 -0.12182633 -0.06342882 -0.0120885 0.06579243 0.05797231
-0.014687235 -0.033910327 -0.04057853 0.048125774 -0.16697028 -0.103546426 -0.08350153 -0.05050536
0.0021936125 0.016505867 0.028438628 -0.12212625 -0.0598933 0.07249507 -0.13857704 -0.060497865
-0.050721668 -0.09550253 -0.032858208 -0.0885299 0.113898635 -0.060737927 -0.11822436 -0.11026111
0.08523953 0.114988945 -0.08747049 -0.10498727 -0.08621374 0.035012014 0.037407577 0.07335113
-0.04851386 -0.03646549 0.06898656 -0.08877657 -0.046857446 0.11423148 -0.11202758 0.09541393
0.014430677 -0.048287272 0.016361518 -0.09237469 0.10373963 -0.007662846 0.073381335 -0.08411925
-0.1281456 -0.057544474 0.085420474 0.034825172 0.12684438 0.08775334 0.06222281 0.10016761
0.018689355 0.041887987 0.09764132 -0.105048105 0.08946046 -0.047135472 0.024003863 -0.12474521
-0.030823732 0.082553856 -0.050591618 -0.02366277 0.0114405 0.047000527 -0.06670953 -0.029605405
0.061784916 0.056561783 -0.005118832 -0.023699941 -0.11801153 0.024828654 -0.01071195 -0.12568696
00000000: 2113 003e 4cdc e9bd bcf8 003e 636b 1c3e
00000010: bc2e ed3d 2f68 133e 4396 72bd 6217 bf3b
00000020: d1ea 963d dea8 2a3e 9a7b 9cbd e2cb 0a3e
00000030: 18df c13c 8e3a 41bd ab87 b5bd 5602 aa3b
00000040: a6a5 983d ade2 f33d cff3 023e d68f c03c
00000050: 57dd d7bd fb8b 913c 2142 cd3c 98b7 113e
00000060: 5e80 f03d 2c24 b6bc 81ed 9ebd 5dcf 4b3b
00000070: ca75 71bd 10e1 19bd fe25 ad3d 5555 193e
00000080: 1b8d ea3d 02ab 883a d6ee 94bd 6ab2 c93d
00000090: 9da8 01bd c249 d6bd f8fb b83d ddba 82bd
000000a0: b9a3 b03d 44db 203e 9007 cdbd 41c4 8b3c
000000b0: d26b b3bd ed5b 70bd 485f f6bc 4c09 c8bc
000000c0: c57a 0c3e 31f7 34bd 6af3 a23d e58f 2a3d
000000d0: 1bc4 ce3d 979d 88bd 1c26 133e 7a8b bfbd
000000e0: 5671 9ebc 90aa f03c 1683 afbd 0085 f43d
000000f0: 8996 89bd df3e e03d 75b9 e93d 90ed eb3c
00000100: b1ca e53d 8c71 f5bd cdd6 bcbd 7c60 393d
00000110: d856 d5bc f4aa b33b 662c bb3d 5ef6 ec3c
00000120: 6a83 abbd 05ea 05be e64d dd3d 8ba6 04be
00000130: 8f4c 7abd a115 c2bd d174 1fbd ea53 1fbd
00000140: 868a 8dbd 22ca c4bd 7609 d63d fe0b c43d
00000150: 2314 a03d c960 f2bd d56c 23bd a683 c43c
00000160: 32ad fabd a067 fb3d d574 013d 51ec 653c
00000170: ec5d 1d3a 1768 bf3d e073 ab3b f1bc d63d
00000180: 5a39 103d cadf 80bd 6537 9abd d68f f73d
00000190: 8733 133d 7d0c c1bd 2c01 39bd 9892 8f3d
000001a0: 6573 b63d d382 59bc 1f04 e2bd 0732 0f3d
000001b0: be42 92bc 99b9 883c 7042 393d e182 403d
000001c0: 7946 f43c 22c0 fc3c 4629 8ebd 6a04 6a3d
000001d0: 09f1 5dbd a81f 023e 6507 ad3d c1e1 993d
000001e0: 0122 e13c 6093 2f3c 8cc4 eebd 6435 4bbc
000001f0: 60bc a33d 819b 1abd 3cd8 603d 1151 febd
00000200: 9836 33bd 5e7d 57bd 82ea a53d 0c5d 743a
00000210: df6f cbbc 9a54 933c 38c0 983d 076e ef3b
00000220: 47de 86bd 2127 253d 8026 833d bc33 acbd
00000230: c47f 6bbd 7b21 743d 19a9 f0bd f388 cdbd
00000240: 3e86 8a3d 2d40 08bc 08af 85bd 7e63 943c
00000250: 94a9 a73d 8bdb d23d 7a86 973d 1241 2a3d
00000260: a25a 0abe 75ba 0fbe 0b0c b13d 97a1 49bd
00000270: 3402 04bd 899c 1f3d 04d0 76bd 73b2 a2bd
00000280: d2aa 19be 7a3e d1bb d5d4 b83d a23b ca3d
00000290: acdd 2e3d 8ead a73d 3c8b 4dbd d7e8 55bd
000002a0: d0c9 923d b18e ecbd 9be6 b23b 1580 f9bd
000002b0: f8e6 81bd d80e 46bc 2ebe 863d 5f74 6d3d
000002c0: baa2 70bc 8ee5 0abd ac35 26bd 881f 453d
000002d0: 42fa 2abe 2610 d4bd da02 abbd b5de 4ebd
000002e0: b6c2 0f3b 5037 873c 20f8 e83c 541d fabd
000002f0: ad52 75bd 4c78 943d 24e7 0dbe 9ccc 77bd
00000300: 86c1 4fbd d596 c3bd 5496 06bd 2a4f b5bd
00000310: b043 e93d 55c8 78bd 9d1f f2bd 94d0 e1bd
00000320: 1092 ae3d 537f eb3d ba23 b3bd 9103 d7bd
00000330: d490 b0bd c268 0f3d b038 193d 1e39 963d
00000340: 78b6 46bd d65c 15bd d348 8d3d 7ed0 b5bd
00000350: 98ed 3fbd 32f2 e93d b76e e5bd 6168 c33d
00000360: a56e 6c3c e0c8 45bd 9708 863c f12e bdbd
00000370: 7175 d43d 9c18 fbbb f448 963d b746 acbd
00000380: 9a38 03be c1b3 6bbd eef0 ae3d d7a4 0e3d
00000390: 7ee3 013e 06b8 b33d 58dd 7e3d ad24 cd3d
000003a0: 6b1a 993c bd92 2b3d 2cf8 c73d 7623 d7bd
000003b0: 0c37 b73d 2011 41bd c0a3 c43c 6b7a ffbd
000003c0: 0d82 fcbc ff11 a93d 2839 4fbd 6dd8 c1bc
000003d0: ef70 3b3c a083 403d 029f 88bd 0987 f2bc
000003e0: 2e12 7d3d 54ad 673d e0bb a7bb 6126 c2bc
000003f0: 07b0 f1bd 7665 cb3c 2d81 2fbc 15b4 00be

fc3.bias f4 [5]
0.10740064 -0.025542164 0.105720475 -0.061335903 -0.016124642
00000000: def4 db3d cd3d d1bc fa83 d83d 5b3b 7bbd
00000010: d317 84bc

opp_actors.0.fc1.weight f4 [64, 28]
0.04310854 0.12952732 -0.15961525 -0.122743376 -0.049506754 0.08442379 0.037050318 0.14475414
-0.009139359 0.03317659 -0.020142904 -0.013537475 -0.19629844 -0.1344145 -0.07790284 0.0072628465
0.08747641 0.106612794 -0.14473067 -0.09323892 0.028699333 0.1457054 -0.034549396 0.12980449
-0.061970282 0.033429723 0.19027045 -0.12759978 -0.092628434 -0.042460628 -0.074470125 0.15932071
-0.13712458 -0.09749457 -0.13501061 -0.18333578 -0.123623975 0.14005037 0.1108725 0.11793995
-0.015907828 -0.11350812 0.0319729 -0.17945032 -0.1400623 -0.10497894 0.08901693 0.09778324
-0.10473005 -0.023563331 0.12589788 0.16337247 0.029521864 0.029635454 0.15155248 -0.07456964
0.03966444 -0.16015787 -0.13239905 -0.103644714 0.07972 0.08024143 -0.113327555 0.044092253
0.0929558 -0.038180795 -0.016168246 0.045760352 0.09388379 0.1659772 -0.14563416 -0.06879013
0.06327055 0.13686806 0.14577645 0.1535593 0.008280551 -0.16548757 0.018618299 -0.12521072
-0.17922813 0.14896247 0.18176395 -0.17753436 0.013802647 -0.045688964 -0.039842233 -0.08947573
0.048626255 -0.120464064 0.047444254 0.08474332 0.12343649 0.06345548 -0.18811858 -0.120149024
0.11323403 0.025468037 -0.14742202 -0.10945074 0.16665688 0.12268051 -0.08248627 -0.048604034
-0.17789179 -0.014322547 -0.1444679 -0.14695463 0.00044209068 0.018397478 -0.08191757 0.0930582
-0.07959546 0.19532351 0.12961966 -0.14361906 -0.022220403 0.036260307 0.04824885 0.045278683
0.090810046 -0.0045915428 -0.08167685 0.113977015 -0.1743843 -0.11013029 -0.047307894 -0.103420615
-0.07040557 -0.15888283 -0.05508851 0.031763013 -0.16103041 -0.015761212 0.1507939 -0.028899092
-0.01959777 -0.026587887 0.06674836 0.16284819 0.22564092 0.14527875 0.17363861 -0.0052909665
-0.15778242 -0.057332236 0.16748494 -0.01796108 -0.10127803 -0.17400585 -0.15980676 -0.13267924
-0.054460246 0.0935361 0.102171555 -0.1955176 0.121505715 -0.15884486 -0.063574955 -0.094461985
-0.08381398 -0.043063432 -0.1663254 -0.17671618 -0.070221946 0.008044281 -0.052532434 0.13005391
-0.18608472 -0.023593811 0.15350202 -0.08535736 0.16008076 0.059332177 -0.17054908 0.12591317
-0.010083528 -0.07184712 0.13909915 -0.1545525 0.030902177 -0.03186122 0.13495459 0.06541221
0.08476789 0.07885153 -0.03919423 -0.047074437 -0.1534581 0.10007786 0.1346136 0.13677971
-0.12667334 0.01194916 -0.13293488 -0.12740034 -0.08623458 0.07042251 -0.11230777 -0.012142011
-0.004052158 0.13906555 -0.14038375 -0.13327023 -0.118727244 0.10678329 -0.0755082 0.18182032
0.051031154 0.0015584616 -0.0014067888 -0.047200996 0.016853258 -0.04979014 -0.025244849 0.013160834
-0.15556405 -0.100333996 0.15400872 -0.15547043 -0.03682228 0.18841931 0.097279504 0.038526278
-0.13633129 0.109269515 -0.13771273 -0.047722552 -0.061182834 -0.01734525 0.03014274 0.15032618
0.02080004 0.15029378 0.14179204 -0.12159247 0.07111916 -0.14211105 -0.080095425 0.048830554
0.06958018 0.133332 -0.0711419 -0.004171086 0.06657023 -0.18190408 0.14324927 -0.16374746
-0.023458665 -0.02963738 -0.093358405 0.05796763 0.13328582 -0.06523763 -0.11544754 -0.077397846
00000000: 9592 303d cfa2 043e 2e72 23be e160 fbbd
00000010: 98c7 4abd 61e6 ac3d 13c2 173d 6e3a 143e
00000020: 40bd 15bc 2de4 073d bb02 a5bc 49cc 5dbc
00000030: 7502 49be f4a3 09be 868b 9fbd 2cfd ed3b
00000040: d526 b33d cf57 da3d 4734 14be 0cf4 bebd
00000050: dd1a eb3c cc33 153e ab83 0dbd 78eb 043e
00000060: 8dd4 7dbd 9bed 083d 42d6 423e 84a9 02be
00000070: fab3 bdbd 32eb 2dbd cb83 98bd f824 233e
00000080: 636a 0cbe 3cab c7bd 3940 0abe 60bc 3bbe
00000090: 912e fdbd 5d69 0f3e 1f11 e33d 808a f13d
000000a0: 2251 82bc f276 e8bd 04f6 023d d3c1 37be
000000b0: 7e6c 0fbe 33ff d6bd 824e b63d 9442 c83d
000000c0: b57c d6bd e307 c1bc 60eb 003e 1d4b 273e
000000d0: d6d7 f13c 0dc6 f23c 9330 1b3e f8b7 98bd
000000e0: 2e77 223d 6d00 24be 9e93 07be ae43 d4bd
000000f0: 3d44 a33d 9e55 a43d 4718 e8bd 149a 343d
00000100: 9c5f be3d 7763 1cbd 4573 84bc 356f 3b3d
00000110: 2546 c03d edf5 293e 1f21 15be d7e1 8cbd
00000120: fd93 813d 2427 0c3e 6c46 153e a63e 1d3e
00000130: 26ab 073c 9375 29be 6785 983c 3d37 00be
00000140: 9487 37be 9e89 183e 5420 3a3e 91cb 35be
00000150: 7f24 623c 5a24 3bbd 9c31 23bd 0d3f b7bd
00000160: 532c 473d ddb5 f6bd e854 423d e88d ad3d
00000170: 45cc fc3d f2f4 813d 28a2 40be b110 f6bd
00000180: 3ee7 e73d 58a2 d03c ccf5 16be b627 e0bd
00000190: 1aa8 2a3e eb3f fb3d 90ee a8bd 0615 47bd
000001a0: 4429 36be 1ea9 6abc 65ef 13be 467b 16be
000001b0: 68c8 e739 4fb6 963c 66c4 a7bd 4c95 be3d
000001c0: f202 a3bd e302 483e 04bb 043e e010 13be
000001d0: 9007 b6bc b085 143d 96a0 453d 2476 393d
000001e0: 9efa b93d a774 96bb 3146 a7bd c86c e93d
000001f0: cc91 32be fd8b e1bd ecc5 41bd 30ce d3bd
00000200: cc30 90bd 2eb2 22be 7da4 61bd ef19 023d
00000210: 28e5 24be a81d 81bc b769 1a3e cabd ecbc
00000220: 818b a0bc d7ce d9bc 5db3 883d adc1 263e
00000230: 6a0e 673e f4c3 143e 52ce 313e d85f adbb
00000240: b791 21be 35d5 6abd 2c81 2b3e 1d23 93bc
00000250: db6a cfbd 972e 32be 62a4 23be 11dd 07be
00000260: b511 5fbd db8f bf3d 523f d13d c435 48be
00000270: fdd7 f83d 3aa8 22be 9633 82bd 4975 c1bd
00000280: aaa6 abbd 4863 30bd 3551 2abe 16f5 34be
00000290: 86d0 8fbd 29cc 033c 402c 57bd da2c 053e
000002a0: fe8c 3ebe cf47 c1bc a22f 1d3e d7cf aebd
000002b0: 36ec 233e 4c06 733d 6ba4 2ebe 62ef 003e
000002c0: 6235 25bc 9524 93bd 0270 0e3e 0343 1ebe
000002d0: 9026 fd3c e980 02bd 8931 0a3e d6f6 853d
000002e0: ca9a ad3d e97c a13d 218a 20bd 20d1 40bd
000002f0: 1f24 1dbe 9ff5 cc3d 26d8 093e fb0f 0c3e
00000300: a8b6 01be 69c6 433c 1520 08be 3c75 02be
00000310: c19b b0bd ad39 903d 9e01 e6bd 49ef 46bc
00000320: f7c7 84bb 3367 0e3e c2c0 0fbe fe77 08be
00000330: 4527 f3bd 33b1 da3d 0ba4 9abd 1b2f 3a3e
00000340: 0b06 513d 4b45 cc3a 0064 b8ba d555 41bd
00000350: d80f 8a3c bff0 4bbd 49ce cebc 8aa0 573c
00000360: 2f4c 1fbe e97b cdbd 76b4 1d3e a433 1fbe
00000370: f6d2 16bd fef0 403e 7a3a c73d bbcd 1d3d
00000380: 6e9a 0bbe b2c8 df3d 9104 0dbe b978 43bd
00000390: da9a 7abd a017 8ebc e8ed f63c 1bef 193e
000003a0: d864 aa3c 9de6 193e ef31 113e 7905 f9bd
000003b0: eca6 913d 8f85 11be 1209 a4bd 8c02 483d
000003c0: 0e80 8e3d 2f88 083e d8b2 91bd 9bad 88bb
000003d0: f955 883d 1045 3abe f0af 123e 6aad 27be
000003e0: 632c c0bc 17ca f2bc b132 bfbd 776f 6d3d
000003f0: 147c 083e 4e9b 85bd c36f ecbd c382 9ebd

opp_actors.0.fc1.bias f4 [64]
0.18822554 0.12299102 0.07174534 -0.067235135 0.13178535 0.1356149 0.047658775 0.015795508
0.050667178 -0.020296022 -0.0782754 0.095321365 -0.114070095 0.13639644 -0.12282763 0.0059824428
-0.07425542 0.19194184 -0.070773974 0.14722839 0.13398327 0.17901771 0.10013061 0.15897353
0.19112961 0.039822742 0.10245042 -0.14499074 -0.04858824 0.021042896 0.0443517 -0.071166866
-0.18828398 -0.028164705 0.05218414 0.20777021 -0.17975412 0.14273256 -0.17278644 -0.18294007
-0.104473285 0.045048837 0.043064136 -0.14693017 0.18768115 0.20999022 0.07318423 0.20325717
-0.09303617 -0.07768348 -0.032855116 0.02159821 -0.13442825 -0.12035012 0.06288366 0.024106959
0.21672487 -0.016342126 0.11691771 -0.09073845 0.08047425 -0.029233895 0.18662962 0.14775206
00000000: 32be 403e b7e2 fb3d 39ef 923d 93b2 89bd
00000010: bdf2 063e a2de 0a3e d935 433d 9565 813c
00000020: 6388 4f3d d843 a6bc da4e a0bd d937 c33d
00000030: 959d e9bd 82ab 0b3e 0d8d fbbd 5e08 c43b
00000040: 3a13 98bd 678c 443e f2f1 90bd 0ac3 163e
00000050: e932 093e 6b50 373e 4711 cd3d f5c9 223e
00000060: 7bb7 433e 2c1d 233d 87d1 d13d 7478 14be
00000070: 7604 47bd 2762 ac3c 21aa 353d efbf 91bd
00000080: 84cd 40be abb9 e6bc 09bf 553d b7c1 543e
00000090: 7711 38be 7c28 123e eeee 30be a454 3bbe
000000a0: 17f6 d5bd 2185 383d 0564 303d dd74 16be
000000b0: 7d2f 403e ad07 573e 9de1 953d a622 503e
000000c0: bf89 bebd 8418 9fbd 1693 06bd bbee b03c
000000d0: 8fa7 09be 207a f6bd 26c9 803d f57b c53c
000000e0: 20ed 5d3e ecdf 85bc 8d72 ef3d 15d5 b9bd
000000f0: afcf a43d ec7b efbc d61b 3f3e 514c 173e

opp_actors.0.fc2.weight f4 [64, 64]
0.12178605 0.062144168 0.0054363976 0.12079524 -0.050657336 0.14647003 0.11805363 0.12357971
-0.059358787 -0.039929993 0.038567424 0.06977944 0.0881344 0.06916629 0.093558975 0.0021472205
-0.060412724 0.06555393 0.07744599 -0.055866595 0.037211243 -0.06720573 -0.0016515028 -0.036241308
0.13054377 -0.13409038 -0.042337727 -0.1441843 0.014169571 -0.069076926 0.033850946 -0.09795693
-0.08876723 -0.035514858 0.019255878 0.1469276 0.10929106 0.022286043 -0.11403976 -0.041080583
-0.056128267 0.014649623 0.04905044 0.057560835 0.08309582 0.05852014 -0.006571935 0.028848853
0.013073131 -0.0897376 0.0054294537 -0.03493174 -0.1299116 0.10979754 -0.022233836 -0.09501877
0.121208556 -0.033882156 0.06941997 0.11967986 -5.4906004e-06 0.027540855 0.08180684 0.12700889
-0.038352847 -0.07033987 -0.009782106 0.097756386 0.010747731 0.08685142 -0.0009293556 0.03835252
0.0043465346 0.0033932477 -0.11895244 -0.109279275 0.010391265 0.061866716 0.08396907 0.00542365
0.052690208 0.052279636 -0.107906535 -0.10986668 -0.096918255 0.0021490902 -0.07903956 -0.04000163
-0.018701762 0.04877022 0.028982371 0.11595948 0.11274885 -0.07974459 -0.000393793 0.020641819
0.10912481 -0.03874013 -0.04912527 -0.07918203 0.09210764 -0.03541346 -0.04681565 0.08454619
0.115020454 -0.005267665 -0.08811326 0.10184814 -0.042750597 -0.057603106 -0.08787799 -0.060116887
-0.09789564 -0.07215178 -0.11386976 -0.025194094 0.050259396 -0.094890684 -0.0001745671 -0.046095222
0.06046228 0.10826518 -0.016570374 -0.062912464 -0.096045524 -0.073440224 0.03609039 0.028680414
0.060888994 -0.013325471 0.07347269 -0.11489293 0.024062676 0.10958971 -0.118335836 -0.058136746
0.08750346 -0.027268145 -0.07350866 0.06774122 -0.0015411059 0.00043144776 -0.022555476 0.104718715
0.08202395 0.01720469 -0.0037537867 0.068410456 0.07583862 -0.0617036 -0.027196845 0.052921955
-0.0675852 0.12806989 -0.095260024 0.07041584 -0.0783693 0.039288837 0.08885442 0.025729714
-0.007137191 0.06988214 -0.08361518 -0.08728181 -0.103182405 -0.08572521 0.0011625496 -0.05483992
0.03672932 -0.009976062 0.1052072 -0.056331154 -0.04474094 0.07562521 -0.048810173 0.110863715
-0.03755048 0.018838098 -0.039419472 0.06622079 0.061978213 -0.079457805 0.095278606 -0.0070776995
-0.03720543 -0.012785192 0.07936566 0.12634598 0.06785766 0.030918704 0.069559015 -0.06345217
-0.03774333 -0.027695624 -0.07192868 0.07551568 0.044001255 -0.004224 -0.011676044 0.010159078
0.112953395 0.14710504 -0.061976787 0.083993755 0.083165176 0.077798806 -0.015972644 0.07386471
0.019798432 0.15261756 -0.06509582 -0.018313283 -0.05404318 -0.024054488 0.06646229 0.09963662
-0.06321274 0.075691044 0.14448933 -0.06614479 0.0169735 -0.03094172 0.036598325 -0.057306454
-0.05259109 -0.05725203 -0.09969693 0.13740504 -0.020373309 0.03521163 -0.05961036 0.08513344
-0.07973113 -0.00046407353 -0.08573827 -0.09500009 0.14798217 -0.06502021 0.03432067 0.0022977965
0.052648526 0.024028137 -0.06775144 0.10762213 -0.13308996 0.04792127 -0.010771871 -0.005034035
0.11586467 0.15059075 0.0517128 -0.04889791 0.09460018 0.08048942 0.062182665 0.0073187044
00000000: f76a f93d e28a 7e3d cf23 b23b 7f63 f73d
00000010: 117e 4fbd 3dfc 153e 1ac6 f13d 5c17 fd3d
00000020: 3322 73bd a28d 23bd e0f8 1d3d 86e8 8e3d
00000030: cf7f b43d 0ea7 8d3d d99b bf3d 62b8 0c3b
00000040: 5573 77bd 2441 863d 019c 9e3d 5fd4 64bd
00000050: d16a 183d 28a3 89bd 3d77 d8ba c471 14bd
00000060: 44ad 053e fd4e 09be 536a 2dbd 0da5 13be
00000070: 7d27 683c 3478 8dbd 4aa7 0a3d a59d c8bd
00000080: 98cb b5bd 0778 11bd 81be 9d3c 3074 163e
00000090: fed3 df3d 3891 b63c ad8d e9bd 1d44 28bd
000000a0: c1e6 65bd f904 703c 1de9 483d e9c4 6b3d
000000b0: 242e aa3d d0b2 6f3d 6359 d7bb 6e54 ec3c
000000c0: b030 563c 59c8 b7bd 8fe9 b13b 9614 0fbd
000000d0: 8c07 05be 88dd e03d bc23 b6bc 3399 c2bd
000000e0: 313c f83d 04c8 0abd 0f2c 8e3d b71a f53d
000000f0: e63b b8b6 5c9d e13c 588a a73d 9e0e 023e
00000100: e017 1dbd 5a0e 90bd 2045 20bc 8034 c83d
00000110: 4017 303c 28df b13d 00a0 73ba 8817 1d3d
00000120: 606d 8e3b 4061 5e3b 569d f3bd d0cd dfbd
00000130: 2040 2a3c f467 7d3d faf7 ab3d e0b8 b13b
00000140: b0d1 573d 2c23 563d 1afe dcbd c801 e1bd
00000150: 147d c6bd c0d7 0c3b 7edf a1bd c0d8 23bd
00000160: 7034 99bc 48c3 473d 706c ed3c 2a7c ed3d
00000170: dee8 e63d 2251 a3bd 0076 ceb9 0819 a93c
00000180: d47c df3d f8ad 1ebd 9437 49bd 302a a2bd
00000190: eea2 bc3d b40d 11bd c4c1 3fbd 8e26 ad3d
000001a0: d88f eb3d 609c acbb ba74 b4bd c295 d03d
000001b0: 401b 2fbd 3cf1 6bbd 60f9 b3bd 203d 76bd
000001c0: 827d c8bd 50c4 93bd 8c34 e9bd d863 cebc
000001d0: ccdc 4d3d 0c56 c2bd 000c 37b9 58ce 3cbd
000001e0: 4ca7 773d 22ba dd3d 98be 87bc 40d8 80bd
000001f0: 84b3 c4bd d467 96bd 84d3 133d 30f3 ea3c
00000200: bd66 793d 1453 5abc da78 963d fc4c ebbd
00000210: 171f c53c 9270 e03d 0f5a f2bd cc20 6ebd
00000220: 0435 b33d 7261 dfbc b58b 96bd e9bb 8a3d
00000230: effe c9ba f033 e239 43c6 b8bc c476 d63d
00000240: 2cfc a73d daf0 8c3c 1702 76bb c81a 8c3d
00000250: 4751 9b3d eabc 7cbd ebcb debc b1c4 583d
00000260: 1c6a 8abd c124 033e b017 c3bd 2e36 903d
00000270: 1580 a0bd 55ed 203d 4ef9 b53d 1fc7 d23c
00000280: 19df e9bb 5e1e 8f3d 6f3e abbd cec0 b2bd
00000290: 4c51 d3bd b390 afbd b160 983a d39f 60bd
000002a0: 7c71 163d a372 23bc df76 d73d 7fbb 66bd
000002b0: 4742 37bd 64e1 9a3d 2ded 47bd 840c e33d
000002c0: 88ce 19bd 5b52 9a3c 5076 21bd c49e 873d
000002d0: dedc 7d3d c6ba a2bd 6e21 c33d 0cec e7bb
000002e0: b964 18bd fb78 51bc 778a a23d d760 013e
000002f0: f5f8 8a3d 3949 fd3c f574 8e3d 36f3 81bd
00000300: c098 1abd efe1 e2bc 584f 93bd f7a7 9a3d
00000310: a93a 343d 7b69 8abb e14c 3fbc 4372 263c
00000320: 1c54 e73d b4a2 163e 5fdb 7dbd eb04 ac3d
00000330: 8152 aa3d fb54 9f3d 10d9 82bc 6246 973d
00000340: 5230 a23c c747 1c3e f550 85bd bd05 96bc
00000350: 625c 5dbd eb0d c5bc 621d 883d 490e cc3d
00000360: ae75 81bd e803 9b3d 03f5 133e eb76 87bd
00000370: 020c 8b3c 7d79 fdbc 20e8 153d 2cba 6abd
00000380: c169 57bd 1b81 6abd e72d ccbd e8b3 0c3e
00000390: ede5 a6bc 123a 103d fe29 74bd 715a ae3d
000003a0: 134a a3bd e54e f3b9 8c97 afbd 688f c2bd
000003b0: a388 173e 5129 85bd d593 0c3d a196 163b
000003c0: fba5 573d a8d6 c43c 44c1 8abd fe68 dc3d
000003d0: bc48 08be 1849 443d 807c 30bc 8cf4 a4bb
000003e0: 754a ed3d 7634 1a3e cdd0 533d 2d49 48bd
000003f0: bdbd c13d a3d7 a43d 40b3 7e3d bed1 ef3b

opp_actors.0.fc2.bias f4 [64]
0.07165981 -0.068875685 -0.06108111 0.06373106 0.09766031 -0.014073053 0.08869206 -0.020234324
0.076540954 0.030597067 -0.021566251 0.086358264 -0.051412404 -0.07865173 -0.0029184532 0.052527025
0.14534318 0.14751136 0.12539548 -0.04043531 0.13007258 0.08583205 0.052595653 -0.069381215
-0.0029543547 0.082407385 0.023539964 -0.039829396 -0.048947223 0.11890194 0.031459108 0.0486659
0.06823109 0.09752899 -0.051175043 0.033459526 0.15136528 -0.024368925 -0.05680708 -0.07456936
0.09920075 0.09535029 0.07585873 -0.060425892 -0.056372713 -0.109524846 0.031084655 -0.022686204
0.14117181 -0.055309583 -0.02950816 0.035904717 -0.009687034 0.002315229 0.15237445 0.11200119
-0.12229477 0.0066762804 -0.002800891 0.17199144 -0.11427875 0.06607425 -0.1353021 -0.12288029
00000000: 61c2 923d b20e 8dbd 3030 7abd 6e85 823d
00000010: 2102 c83d aa92 66bc 2fa4 b53d 74c2 a5bc
00000020: 81c1 9c3d b3a6 fa3c b5ab b0bc 9adc b03d
00000030: d095 52bd 2914 a1bd 8543 3fbb 9426 573d
00000040: d8d4 143e 380d 173e ac67 003e 7f9f 25bd
00000050: bf31 053e b7c8 af3d 8a6e 573d bd17 8ebd
00000060: d99d 41bb 34c5 a83d e2d6 c03c 2624 23bd
00000070: e27c 48bd dc82 f33d 44db 003d e555 473d
00000080: bebc 8b3d 47bd c73d ec9c 51bd db0c 093d
00000090: 80ff 1a3e 57a1 c7bc 8aae 68bd d2b7 98bd
000000a0: c329 cb3d 0347 c33d d25b 9b3d 2481 77bd
000000b0: 13e7 66bd 904e e0bd 3fa5 fe3c 6bd8 b9bc
000000c0: 588f 103e 4d8c 62bd 19bb f1bc d310 133d
000000d0: 5eb6 1ebc 19bb 173b 0c08 1c3e e160 e53d
000000e0: ae75 fabd b3c4 da3b 278f 37bb 861e 303e
000000f0: fa0a eabd f051 873d a28c 0abe a9a8 fbbd

opp_actors.0.fc3.weight f4 [64, 64]
-0.054987464 -0.11955427 -0.007964134 0.1095028 -0.030098151 -0.08950067 -0.0014925001 -0.08816419
0.10116051 0.028299896 0.090005 0.06306139 0.051106848 0.04871128 0.11796727 -0.07102757
-0.06771878 0.106233925 0.0548196 0.12822971 0.037576824 0.06938936 0.08554813 0.082611755
0.07055786 -0.09029139 0.042632274 -0.084872365 0.025613409 0.07917983 -0.03831315 0.117593795
0.12786642 0.044336744 -0.08546308 0.015784007 0.10603792 0.026786854 0.14594866 0.009045273
-0.046642266 0.09079371 0.047897667 0.07402358 -0.0747922 -0.09501191 0.095544055 0.03455203
0.10000412 -0.10386989 -0.04219864 0.0047618826 -0.05230797 0.101314306 0.11088453 0.11924065
0.016398257 -0.10379394 -0.033338 0.03906683 -0.032084122 0.05672329 -0.031304076 0.103291094
0.12885402 0.12385404 0.037672073 -0.06466999 -0.018123671 -0.061659675 0.07812669 0.025634438
0.07846584 0.06803631 -0.06040487 0.039912287 -0.01231439 0.028392198 -0.06445708 0.010681507
0.11548667 0.08807555 -0.056403108 0.13672936 -0.02872856 0.1456695 -0.0031591265 0.11651108
0.1042116 0.027687546 0.1033851 0.10702128 -0.06442563 0.044184603 0.08721284 0.008552589
0.11191147 0.11735942 -0.08723575 0.09669034 -0.094929904 0.08117065 -0.0339138 -0.03890507
0.05297155 -0.08707532 0.004195997 -0.03833105 0.039350167 -0.005666074 -0.08759691 -0.04276783
0.0398699 0.06841698 -0.03154974 -0.06489011 0.08237501 -0.041573472 -0.025820537 -0.101550914
-0.032956343 -0.08650248 0.040866207 0.12408293 0.054961402 -0.103906065 0.10977305 -0.11170758
-0.08003355 0.07013048 0.052440483 0.03497695 -0.055515546 -0.1144032 -0.15983431 -0.04756043
-0.16301186 -0.1329286 0.08117328 -0.054341845 0.03413383 -0.09794734 -0.023442233 0.10462648
-0.0086773755 -0.012795497 -0.110920675 -0.13919444 0.042661216 -0.15329511 -0.04391355 -0.09764554
-0.049257196 -0.18329163 0.0026337733 -0.00067834696 -0.13621692 -0.07637683 -0.056075204 -0.0928066
-0.083502874 -0.009416917 -0.09655088 -0.011700939 -0.13810755 0.11255498 -0.1198602 0.053152844
-0.11931114 -0.11720293 -0.026876232 -0.07971844 -0.034761347 -0.061979234 -0.07593605 -0.09585342
0.088638134 0.0708687 -0.10068799 0.08053971 -0.097642556 -0.14152709 0.0061663645 -0.07891762
0.097278975 -0.042014178 -0.13201483 0.069371834 0.02681985 0.03122404 -0.0115125375 -0.09939325
0.016424203 0.0003376007 -0.08979366 0.046102826 -0.13664018 -0.08409316 -0.057463948 -0.15695551
-0.14576063 -0.07143246 -0.026560476 0.06504712 0.05100136 0.1049765 0.010769209 0.00896146
-0.047481783 -0.07981521 -0.13773346 -0.1497116 0.03078865 -0.12013407 -0.07750877 0.0570015
-0.10589921 0.00802617 -0.034151748 0.024987604 -0.09195834 0.06846208 -0.10760782 -0.14506231
0.055337545 -0.108884305 0.09948769 0.021874141 0.021982627 -0.021845877 -0.02072437 0.032055497
-0.086154774 0.06820979 0.069180496 -8.949355e-06 0.035897594 -0.03211954 -0.07650209 -0.10006622
-0.07235552 -0.12007563 -0.079017095 0.054513533 0.08684124 -0.15486751 -0.13095467 0.07573604
-0.04379776 -0.017039962 0.054130044 0.08273532 0.046091836 0.02425783 -0.0044063507 0.0031500757
00000000: 893a 61bd ded8 f4bd 007c 02bc 0143 e03d
00000010: 6690 f6bc 214c b7bd fe9f c3ba 6d8f b4bd
00000020: 3e2d cf3d 2fd5 e73c 8b54 b83d 5426 813d
00000030: 6a55 513d 7b85 473d d398 f13d e776 91bd
00000040: 25b0 8abd 2c91 d93d 848a 603d a64e 033e
00000050: 28ea 193d 021c 8e3d dc33 af3d 5a30 a93d
00000060: a480 903d b1ea b8bd 2e9f 2e3d 90d1 adbd
00000070: 36d3 d13c 0929 a23d 40ee 1cbd 04d5 f03d
00000080: 6aef 023e 729a 353d 4407 afbd 764d 813c
00000090: 692a d93d 1b70 db3c 9173 153e a032 143c
000000a0: f60b 3fbd 0df2 b93d 5830 443d ad99 973d
000000b0: a72c 99bd 9b95 c2bd 9aac c33d 6e86 0d3d
000000c0: f6ce cc3d bdb9 d4bd 7bd8 2cbd 9109 9c3b
000000d0: e240 56bd e07d cf3d 6e17 e33d 7134 f43d
000000e0: a355 863c eb91 d4bd 6d8d 08bd 8a04 203d
000000f0: a46a 03bd ae56 683d b438 00bd 488a d33d
00000100: 4ff2 033e 30a7 fd3d 084e 1a3d b371 84bd
00000110: 1878 94bc db8e 7cbd e300 a03d 50ff d13c
00000120: b3b2 a03d 9f56 8b3d 196b 77bd 117b 233d
00000130: 4cc2 49bc c196 e83c 1302 84bd 7d01 2f3c
00000140: 4684 ec3d f460 b43d f206 67bd c802 0c3e
00000150: 2858 ebbc 632a 153e 5909 4fbb 5c9d ee3d
00000160: e46c d53d fed0 e23c 91bb d33d f92d db3d
00000170: 96f1 83bd eafa 343d a59c b23d 2920 0c3c
00000180: d731 e53d 235a f03d a8a8 b2bd 9605 c63d
00000190: 9c6a c2bd cc3c a63d 32e9 0abd ec5a 1fbd
000001a0: b2f8 583d 8c54 b2bd 937e 893b 0501 1dbd
000001b0: a42d 213d 79aa b9bb 0266 b3bd 522d 2fbd
000001c0: 9f4e 233d 341e 8c3d 4d3a 01bd 1be5 84bd
000001d0: 3bb4 a83d f248 2abd 9785 d3bc edf9 cfbd
000001e0: 3bfd 06bd 3628 b1bd 5363 273d 311f fe3d
000001f0: 351f 613d b4cc d4bd b1d0 e03d f2c6 e4bd
00000200: a1e8 a3bd 92a0 8f3d d5cb 563d fe43 0f3d
00000210: 4564 63bd 3a4c eabd 9bab 23be bace 42bd
00000220: 95ec 26be 6f1e 08be 2d3e a63d 8e95 5ebd
00000230: eacf 0b3d 9d98 c8bd ed09 c0bc 6846 d63d
00000240: 8d2b 0ebc 34a4 51bc 612a e3bd fd88 0ebe
00000250: 87bd 2e3d 65f9 1cbe b2de 33bd 63fa c7bd
00000260: eac1 49bd cdb0 3bbe 629b 2c3b 18d3 31ba
00000270: 737c 0bbe 756b 9cbd 1daf 65bd 6311 bebd
00000280: 8e03 abbd 6a49 1abc 78bc c5bd 4cb5 3fbc
00000290: 116c 0dbe 3a83 e63d 4479 f5bd ccb6 593d
000002a0: 6659 f4bd 1708 f0bd 8b2b dcbc 6c43 a3bd
000002b0: ea61 0ebd f0dd 7dbd 5c84 9bbd cc4e c4bd
000002c0: e987 b53d 9c23 913d 8135 cebd 01f2 a43d
000002d0: d2f8 c7bd 7aec 10be 370f ca3b 909f a1bd
000002e0: 333a c73d 0f17 2cbd e52e 07be d212 8e3d
000002f0: 4db5 db3c 8fc9 ff3c 159f 3cbc b08e cbbd
00000300: 0d8c 863c 0000 b139 bde5 b7bd 51d6 3c3d
00000310: 67eb 0bbe 0939 acbd 515f 6bbd f2b8 20be
00000320: 4642 15be 2e4b 92bd 5b95 d9bc 6d37 853d
00000330: cde6 503d ebfd d63d 5671 303c 16d3 123c
00000340: 427c 42bd 2876 a3bd 000a 0dbe ff4d 19be
00000350: 7b38 fc3c da08 f6bd ebbc 9ebd 687a 693d
00000360: afe1 d8bd 3280 033c b4e2 0bbd ceb2 cc3c
00000370: a754 bcbd d935 8c3d 7d61 dcbd 378b 14be
00000380: 9fa9 623d bcfe debd 34c0 cb3d 6631 b33c
00000390: e914 b43c 20f6 b2bc 27c6 a9bc a04c 033d
000003a0: ea71 b0bd 93b1 8b3d 81ae 8d3d 3025 16b7
000003b0: 5b09 133d c78f 03bd 21ad 9cbd 85ef ccbd
000003c0: 222f 94bd 36ea f5bd b7d3 a1bd 9549 5f3d
000003d0: d2d9 b13d 9795 1ebe fb18 06be 7f1b 9b3d
000003e0: 4865 33bd 6497 8bbc 77b7 5d3d 2371 a93d
000003f0: cbca 3c3d 5bb8 c63c 2663 90bb 8071 4e3b

opp_actors.0.fc3.bias f4 [64]
-0.052358594 0.12203588 0.03084272 -0.13409913 0.0020825067 -0.11904473 -0.12615801 -0.07707817
0.12953497 -0.09048713 0.07002685 -0.1328555 0.020896114 0.15444094 -0.06397316 -0.06334986
-0.082634956 -0.118116066 0.024016265 -0.12329184 -0.09645332 0.1335831 0.12378251 -0.07961767
0.035347532 -0.055423833 0.1095076 -0.14822102 -0.1345893 0.08689429 0.0054777423 -0.051444873
0.041855242 0.06687994 -0.07217233 0.10917649 0.095594145 -0.04560131 -0.1377737 0.07094819
0.08561443 -0.14220776 -0.1365324 -0.011367388 -0.13192391 -0.08103353 0.12602234 0.0466787
0.09974235 0.059556864 0.13852863 0.07841141 0.062083025 0.09114074 -0.062287044 0.13282469
-0.004337624 0.13913684 -0.09077035 -0.11613359 0.11659085 -0.08919124 0.053806618 0.0949348
00000000: f775 56bd f3ed f93d dfa9 fc3c 4851 09be
00000010: aa7a 083b b9cd f3bd 912f 01be 29db 9dbd
00000020: d1a4 043e 5151 b9bd 3d6a 8f3d 460b 08be
00000030: 542e ab3c c425 1e3e 5c04 83bd 92bd 81bd
00000040: 843c a9bd d6e6 f1bd c2bd c43c 6f80 fcbd
00000050: 5189 c5bd 02ca 083e af81 fd3d 970e a3bd
00000060: 93c8 103d 1a04 63bd 8545 e03d 40c7 17be
00000070: c7d1 09be a2f5 b13d a27e b33b dcb7 52bd
00000080: 6770 2b3d 5af8 883d 16cf 93bd ec97 df3d
00000090: ddc6 c33d 70c8 3abd 8c14 0dbe 494d 913d
000000a0: 9e56 af3d e99e 11be 26cf 0bbe 483e 3abc
000000b0: 1017 07be e8f4 a5bd 000c 013e 2a32 3f3d
000000c0: b845 cc3d e6f1 733d 73da 0d3e 2996 a03d
000000d0: c54a 7e3d ffa7 ba3d b320 7fbd 3203 083e
000000e0: a122 8ebb e379 0e3e cee5 b9bd 73d7 edbd
000000f0: 2fc7 ee3d e6a9 b6bd 5464 5c3d 2d6d c23d
