model5/DOMAC/agent_3/86actor_params.pkl (torch, 144687 bytes, 18 tensors)

fc1.weight f4 [64, 156]
00000000: 1903 7d3c 78b1 08bd 3271 bc3b f08e 503c
00000010: a612 4cbc dfc4 44bd 1b5d 213d 7784 44bd
00000020: cb33 c63c 9ec7 a33c 2b8a 0dbd 4745 4f3d
00000030: 138d 64bc 04f6 573c 909e 123c f6ed a5bd
00000040: ff9b af3d c227 3f3d 1088 9dbd c51e b0bc
00000050: 13a5 313c 8886 61bd 1d40 21bd 5604 553d
00000060: 33ba b93c b60e 2fbd 0487 96bb a71c 223d
00000070: fc45 153d 5a1c 1c3d cb77 2dbd 5b91 293d
00000080: 691a 22bc 601b 73bd 839c 76bd f6e8 93bd
00000090: c804 0e3d 4e87 96bd 35d0 51bd d33b a23c
000000a0: ef4a 823d 6f43 f6bc 9d51 5bbd 8cf3 afbd
000000b0: bc69 afbb 0503 febc 2c24 a73c 3574 95bd
000000c0: a1e9 3fbd 6c05 bd3d cc19 aa3d b02f 813d
000000d0: f2ac d83c b8dc 1d3d 1b6b b53d b600 a4bd
000000e0: d3d4 a0bd fba9 c03d 4faf 473d 4cde 03bc
000000f0: e111 083d 1e7c 3bbd 185f 373d 8d8d 843d
00000100: 79e9 443d eb5e 3fbc 6f22 31bd ef6a 6c3d
00000110: 55b5 a93d 31ea 0abc 28cf 69bd 5aa9 b0bc
00000120: 0a43 c9bc e5cf 9fbd 9e06 e1bc 9f84 473d
00000130: 5ff1 26bd 6868 9e3d ab36 d53c 70f6 653d
00000140: 8cd0 073d 55e2 42bd 9df4 063d 266d 6bbc
00000150: b48f 28bd c677 683d deca fabc 2830 1a3d
00000160: feb2 afbb 7d9b f03c e816 153d 151b 293d
00000170: 29c2 183d 422c d3bc d22b 4c3d 3942 993b
00000180: 9e5d 3bbd eecd a5bd a338 cdbd 4b89 813d
00000190: 43e4 f03c d062 283d 0a80 d93c 8381 d8bc
000001a0: bbb7 b53d a1ee 983d 2893 bebd 5c48 673c
000001b0: 07d3 273d 2cff bdbc e250 44bc a4f0 7cbb
000001c0: 7701 97bd 2211 fdbc 9731 b73d d6d6 c6bd
000001d0: cdd8 313d 056e c2bd 779e f9bb bf9a f5bc
000001e0: 9cfb 853b 4f0a 05bd 259c 733d 40ad a93c
000001f0: 264f 92bd 365d e33c feff 483d 60b0 9a3d
00000200: 5961 7abc 6029 803c 4d20 a1bd e93a c23d
00000210: bc4a 4a3d 4f15 413c bdc4 8bbd 9e76 11bd
00000220: 7efa bbbd aa37 873d c533 4cbd 9493 a9bb
00000230: 6eea 503c 3f8b 443c 60fc 313d 62a5 303d
00000240: cba4 b03d 65b2 de3c a0ab 953c 53d1 02bd
00000250: ab11 10bd 92e4 53bd 12e9 ed3c e87c 483d
00000260: 41e7 953d 26d9 d53c fa51 f2bc 3c11 7fbd
00000270: 29a5 cf3d bdcd f6bb c1c0 8abc 26c0 75bd
00000280: 3581 54bd 7c9b ce3c a6dc 7f3d 893f 8dbd
00000290: 9e5f a3bd 8446 cebc 5767 b3bd aea0 ab3d
000002a0: 35ee 0fbc 9f72 6cbd 6cc5 a83c 4f12 483d
000002b0: 3b16 8b3c ec30 80bd b25b 353c ca59 85bd
000002c0: c0bc 1a3d a5d9 2d3c 8598 133d 054b b9bb
000002d0: 9615 8fbd 7d44 963c 946c c53d 5635 4f3c
000002e0: 3dd8 273c 836c 06bd 0ca6 80bd 3a71 383d
000002f0: 800e 4d3c 98fc 68bd 9325 ab3c 9e7e ccbd
00000300: 52fd dc3b d787 86bd a525 abba 8616 b0bd
00000310: 1105 3f3d 52d3 443d 5289 02bd 58be b6bd
00000320: c651 a8bc 4888 e1bd 865f 17bd 57d5 e4bc
00000330: f537 58bd f96e d23c 50cf 063d 4a32 633c
00000340: 8a58 bc3d ce57 dfbd 5104 b93d 86b5 96bb
00000350: 6d9e 3c3d 7246 e03d 8c0b ed3b 91a0 89bd
00000360: 088b 333c a4b2 a73d b148 593d 4baf cd3b
00000370: fe6c 5b3d 0003 8abd 0a7b c7bd 3ac3 b03d
00000380: e52b 453d b178 123d 9784 933b 9f7e ddbc
00000390: 6701 8ebd adf9 59bc b715 be3d ae2a b6bc
000003a0: 3ccb ea3d 540a 8a3d 041b da3c 14d2 25bd
000003b0: 656e 653b dbe2 a53d bf70 313b c22b 5e3d
000003c0: 1b2c edbd 137f 49bd d80f cabd 716c 1ebd
000003d0: d7b1 c73c d8a3 a1bd ecf2 f53d 8a98 cabd
000003e0: 6520 fbbc a88d 70bd 572f 993a 37cb eebc
000003f0: b47a b3bc 19d8 abbc 98a1 e53c 5718 aabd
0.015442633 -0.033372372 0.0057507986 0.012729391 -0.012455618 -0.048039313 0.039395433 -0.04797789
0.024194619 0.019992646 -0.034555595 0.050603177 -0.01394965 0.013181213 0.008948937 -0.08102028
0.08574676 0.046668775 -0.076919675 -0.021499047 0.010842579 -0.05505994 -0.039367784 0.05200609
0.022671795 -0.04273864 -0.004593732 0.039578106 0.036443695 0.038112976 -0.04235057 0.041398387
-0.009893992 -0.05935228 -0.060207855 -0.07222168 0.03467253 -0.07350026 -0.051223952 0.019803917
0.06361949 -0.030061452 -0.05354463 -0.08591375 -0.0053531807 -0.0310073 0.02040299 -0.07297555
-0.046853665 0.0922955 0.083057016 0.06307924 0.026449654 0.038540572 0.08858319 -0.08007948
-0.07853093 0.09407421 0.04875117 -0.008048605 0.033220176 -0.045772664 0.044768423 0.06472311
0.04807422 -0.011680345 -0.04324573 0.057719167 0.082865395 -0.008478687 -0.057082325 -0.021565128
-0.0245681 -0.078033246 -0.027468976 0.04871046 -0.040757533 0.07734758 0.026027044 0.056143224
0.03315787 -0.04757913 0.032948125 -0.014369285 -0.04115267 0.05675485 -0.030614313 0.03764358
-0.0053619137 0.029371018 0.0363988 0.041285593 0.03729454 -0.02577794 0.049846478 0.004677084
-0.045743577 -0.080959186 -0.10020568 0.06325015 0.029405719 0.04110986 0.026550312 -0.026428943
0.088729344 0.0746739 -0.093054116 0.014116373 0.040972736 -0.023192964 -0.011982175 -0.0038595581
-0.07373326 -0.030891959 0.089450054 -0.097089455 0.043419648 -0.09493641 -0.0076177674 -0.029981015
0.004088832 -0.032480534 0.059475083 0.020712495 -0.071440026 0.027754407 0.04907226 0.07553172
-0.015281999 0.01564473 -0.07867489 0.094838925 0.04938768 0.0117848655 -0.06824634 -0.035513513
-0.09178637 0.06602414 -0.04985406 -0.0051750634 0.012751205 0.0119960895 0.043453574 0.04312647
0.08625182 0.027184675 0.018270314 -0.03193791 -0.0351731 -0.051731654 0.0290418 0.048947245
0.07319499 0.026104521 -0.029580105 -0.062272295 0.10138924 -0.00753185 -0.016937615 -0.0599977
-0.051881034 0.025220625 0.062466286 -0.06896884 -0.07977222 -0.025180109 -0.08759945 0.083802566
-0.00878482 -0.0577265 0.02060195 0.048845585 0.016978374 -0.06259331 0.011069225 -0.065112665
0.037777662 0.0106109725 0.036034126 -0.005654695 -0.06986539 0.018343205 0.0963985 0.012646994
0.010244426 -0.03281833 -0.06281671 0.045029856 0.012515664 -0.056881517 0.02089194 -0.09985088
0.0067440653 -0.06568878 -0.0013057484 -0.08598046 0.04663569 0.048053093 -0.03186924 -0.08923024
-0.020546805 -0.11012322 -0.036956333 -0.02793376 -0.05278774 0.025687682 0.032912552 0.01386697
0.09196575 -0.10905419 0.090340264 -0.004599276 0.046049524 0.109509364 0.0072340425 -0.06720079
0.010958441 0.0818837 0.05304784 0.006277 0.05357074 -0.067388535 -0.09740265 0.086309865
0.048137564 0.03575963 0.00450189 -0.027037917 -0.06933861 -0.013304156 0.092814855 -0.022237148
0.11464545 0.06740251 0.02662421 -0.04048355 0.0035008427 0.0809991 0.0027075259 0.05424095
-0.11580678 -0.049193453 -0.09866303 -0.038677637 0.024376793 -0.07892579 0.12009224 -0.09892376
-0.030655095 -0.058728844 0.0011687082 -0.029149635 -0.021909095 -0.020977067 0.028031155 -0.08305424

fc1.bias f4 [64]
00000000: 0d62 d33c 390c 553d b4df fbbc 44db fb3c
00000010: 3078 b63c 58ad 933d 46d8 c63d 90c0 57bd
00000020: 3159 3abc 39cc b83d 54b5 7b3c 4d21 4dbd
00000030: fd4c ac3c c59f 803d 5add 8dbc c1ca 2fbd
00000040: 9a26 febc 7b01 acbc 88ba 583c b20b 913d
00000050: dced 063d 8b9f 0d3d 70fa 08bd ce34 2b3d
00000060: 1a9c a2bd 7bf6 d03c 6a96 af3d 040e c03c
00000070: e581 9a3d 2c4a 95bb 792e ab3d 2d8f cb3d
00000080: 5286 163d 182f 833d ef0e ab3c e39e b33d
00000090: 8a6f 32bc 641f 65bd 1b8b 323c d893 803d
000000a0: 9a89 26bd 5f61 65bd 7877 97bd 2800 46bd
000000b0: 01be 443d feed 0bbd b33c a5bd ce48 e4bc
000000c0: 0470 6ebb a9c4 393d ebe5 93bd 385f cc3c
000000d0: 8e50 d3bc 5a65 53bd f539 1c3c 93ea 8fbd
000000e0: dd9b 173d 9053 bd3b fbe7 a2bd 2dd4 813b
000000f0: de47 9a3c 43de 123d ba68 aa3c aa69 a6bb
0.02580359 0.05201361 -0.030746318 0.030744202 0.022274107 0.07210797 0.0970922 -0.052673876
-0.011373804 0.090233274 0.015363056 -0.050080586 0.021032805 0.062804736 -0.017317463 -0.04291797
-0.031024266 -0.0209968 0.013228066 0.07082309 0.032941684 0.03457598 -0.03344196 0.041798405
-0.0793993 0.025508156 0.08573611 0.023444183 0.07544307 -0.004555961 0.08358473 0.09939418
0.03674919 0.06405467 0.020881144 0.087705396 -0.010890851 -0.05593814 0.010897423 0.06278199
-0.04065857 -0.056001063 -0.07395834 -0.048339993 0.048032764 -0.034162514 -0.08068218 -0.027866747
-0.0036382684 0.045353565 -0.07221588 0.024947748 -0.025795247 -0.05161033 0.009535302 -0.07027163
0.037013877 0.0057777837 -0.07954403 0.003962061 0.018833097 0.035856497 0.02080189 -0.005078514

fc2.weight f4 [64, 64]
00000000: 6d72 123e 8176 cd3d 7610 483d 095b db3d
00000010: 4d60 883d f5a9 ee3d 9d68 d63d 8035 3fbb
00000020: e16f 4cbd 5d26 91bd 534c 1c3c c0ff c5bd
00000030: 8e89 42bd 00a0 ddbd e617 50bd 328e 173e
00000040: bf50 e7bc 732d 9bbd a248 7c3b 432e 14bb
00000050: 9765 ecbd 88a2 243e 766f 5cbd ac9c c3bd
00000060: c549 72bd 8e64 59bd fd32 1f3d 6ef3 983d
00000070: 2e5f 43bd 896f cbbd 7822 ed3d 9412 3c3d
00000080: 5577 c93c d2a8 963d 07a8 f5bd 1f24 0f3e
00000090: 244f c1bd dbcd 03bd 78b5 d13d cd3c 68bd
000000a0: 1e32 1f3d 6189 c63d e615 ddbd 2af4 81bd
000000b0: 56d9 8abd d386 7bbd ce78 7b3d ffcb e1bd
000000c0: d0d4 283e 0fd7 5fbd aa61 e33d 8d7d 84bd
000000d0: ca38 003d 6715 683c 7cd2 75bd ed7a bcbc
000000e0: 10bc 92bc 8e31 b53d 74c3 613d 2bed 68bc
000000f0: a9d8 71bd 7a17 bfbc 718b 8cbd afcc 6abd
00000100: b697 fabd 3844 edbd 9048 c4bd acf1 a7bd
00000110: 3a97 ca3d 98d6 61bb 064c d23c 9885 7d3d
00000120: 0785 843d 0b38 9d3d 82e4 d83d 6475 cbbd
00000130: 3c76 04bc 4268 933d e131 973d 7ae8 fdbd
00000140: 9b4f 193d 4915 6e3d ba28 d6bd 046e 9c3d
00000150: b112 d3bb 505b f8bd 8a49 d73d 9e39 8dbd
00000160: f150 b7bd bb7e 0c3d 2f79 b3bd d44f a2bb
00000170: c345 963c 46d8 a33b 104d 3bbd a9db 7abd
00000180: 4714 dfbd 949b f8bb af0b 173b 64da 01be
00000190: 9f0a 00be 2921 cc3d 3a8f 25bc 48c2 3cbc
000001a0: 5eec 2dbd b55d b7bd 0bec 8a3b 2bb6 31bd
000001b0: a2c0 f73d 64f1 b73d c42f 913d 2835 93bd
000001c0: 32ab 65bc 991e b73d 6164 db3d 58cf be3d
000001d0: 8c1e 91bd 3900 863d 222d 18bd 4298 b4bd
000001e0: 1a74 28b8 ccd1 ad3c 6850 ea3d dd86 c5bc
000001f0: d076 f9bc c167 11bd 53a4 7e3d 368b 9d3d
00000200: 7ce1 d5bd 239a a2bd 264d bcbd d9e4 113c
00000210: 51c5 973b 2ba8 dbbd 1a28 4a3d f089 f03c
00000220: 70f4 e73b 6665 443d 09f0 ba3d cc6a 8b3d
00000230: 49fc d13c 2538 323d 756c bcbd 7744 00be
00000240: d9ed e3bd f17b 4b3d 0ea7 95bd 1468 cc3c
00000250: 0302 c33d a94d b637 5c38 b1bd a2b8 593d
00000260: 49ef d5bc 3443 613d 8117 dfbd 652c 85bd
00000270: 9bb2 cabd e503 b53d b0c6 c43c 1971 adbd
00000280: 9dc9 00bd 2c40 2f3d 76c6 9e3d 81b8 00bd
00000290: c68e e6bd 67ab dfbd 18a8 a13d dd12 7c3a
000002a0: c112 9a3d a861 ce3d 538f 17bd c338 98bc
000002b0: b1f3 84bd 1aed 993c a1fe 8fbd b82c c43c
000002c0: acc0 2d3b a076 86bd b444 b53d e21a c2bd
000002d0: b4b5 c2bd 9ccb 18bd 10bb 9d3d 523e aabd
000002e0: 7b81 4d3d 743a 9dbc 08c4 2b3d 76e2 c33d
000002f0: 52c6 c2bc b024 9fbd bf2a 1abc 9d5f 03bd
00000300: 7ff2 53bd d4c2 043d c652 ba3d 01d6 793c
00000310: bc28 003e 6fb3 a23d a43d 2a3e 962d d3bd
00000320: c5e2 bd3d 1424 d23d bb0b f33d 0f47 353d
00000330: 3764 3cbd 30fd fcbc ee3a 14bd 987a 9cbc
00000340: d1ef d1bd 5541 3d3d a639 7dbd c293 6b3c
00000350: 33d5 09bb 0595 af3c 1868 103d 6c5c 39bd
00000360: 23c4 aa3d 85e0 ac3d c3d3 b83c e916 273e
00000370: 6491 893b 7622 49bd 6897 dc3c 0b40 5cbd
00000380: e697 68bd 3b6d e83b 03a6 293d c93a e93d
00000390: dcd9 c83d 8df1 b83d c0f0 09bc 0272 fc3d
000003a0: 52f2 da3d 4196 62bd d8ff e6bd 88d2 94bd
000003b0: 2caa 773d a45c 05bd 8a87 8cbd cfa2 afbd
000003c0: c0f1 4d3c 0469 0d3e 316b 9abd 1492 0c3e
000003d0: 4c7c 1cbd 8014 72bd 975c 763c 90b6 d23c
000003e0: 932c c83d 95b5 89bd 1c39 b23d b9bd cd3d
000003f0: 107b ad3c e69e 1e3e 3504 a0bc e2c7 b53d
0.14301462 0.100323685 0.048843823 0.10710723 0.06658993 0.116535105 0.10469172 -0.0029176176
-0.049911384 -0.07087395 0.0095396815 -0.09667921 -0.047494464 -0.10821533 -0.05080404 0.14800337
-0.028236745 -0.07577028 0.003849544 -0.0022610582 -0.11542814 0.16077626 -0.053817235 -0.09551367
-0.059152383 -0.053074412 0.038866986 0.074683055 -0.047698192 -0.09933383 0.1157884 0.045916155
0.024593035 0.07356419 -0.11994939 0.13978623 -0.09438923 -0.03217874 0.102396905 -0.05669861
0.038866155 0.09694172 -0.107951924 -0.06345399 -0.06779735 -0.061407875 0.061394505 -0.11025237
0.16487432 -0.054648455 0.11102612 -0.064692594 0.03130416 0.014165259 -0.060015187 -0.023007834
-0.01791194 0.088473424 0.05511804 -0.0142167015 -0.059044514 -0.023326624 -0.06862534 -0.057324108
-0.12235968 -0.11585277 -0.09584153 -0.08200392 0.098921254 -0.0034460183 0.025671016 0.061894983
0.064706855 0.07676705 0.105904594 -0.099345 -0.00808483 0.0719762 0.073825605 -0.12397857
0.037429433 0.058125768 -0.10456987 0.07638171 -0.006441437 -0.121267915 0.10512073 -0.06895755
-0.08950985 0.034300547 -0.08763348 -0.004953364 0.018343812 0.005000147 -0.04572779 -0.06124464
-0.108925395 -0.0075869057 0.0023047735 -0.12680966 -0.12504052 0.09967262 -0.010104949 -0.01152093
-0.042461745 -0.0895342 0.0042395643 -0.04338662 0.12097289 0.089815885 0.07089189 -0.07187873
-0.014017867 0.08941383 0.10712505 0.093168914 -0.070859045 0.06543011 -0.037152417 -0.088181034
-4.016245e-05 0.021218203 0.114411175 -0.02411216 -0.030452162 -0.035499338 0.06216843 0.07692568
-0.10443398 -0.079395555 -0.091944024 0.008904659 0.0046316762 -0.10725435 0.04935465 0.029362649
0.0070787 0.047948264 0.09127814 0.06807479 0.025632994 0.043510575 -0.09200374 -0.12526117
-0.1112935 0.049678747 -0.07307254 0.024951972 0.09521868 2.1732254e-05 -0.08653328 0.053154595
-0.026115077 0.05499573 -0.10893155 -0.06502608 -0.098973475 0.088386334 0.024020523 -0.08468837
-0.031442273 0.04278581 0.07752697 -0.031425957 -0.112577006 -0.10921364 0.078933895 0.0009615848
0.07523108 0.1007722 -0.03700192 -0.018581754 -0.06491793 0.018789817 -0.070309885 0.023947105
0.0026512546 -0.06565595 0.08850995 -0.09477784 -0.09507313 -0.037303552 0.07701695 -0.08312668
0.05017231 -0.019192912 0.041934997 0.09564678 -0.023776207 -0.077706695 -0.0094096055 -0.032073606
-0.051744934 0.032412365 0.09097819 0.015248776 0.12515539 0.079443805 0.16625077 -0.10311429
0.092717685 0.102607876 0.11867472 0.04425722 -0.04599401 -0.030882448 -0.036189012 -0.019101426
-0.102508195 0.046204884 -0.061822556 0.01437849 -0.0021031618 0.021433363 0.03525552 -0.045254156
0.08338191 0.08441261 0.022561913 0.16317333 0.00419824 -0.04910513 0.026927665 -0.053772014
-0.056785487 0.0070930994 0.041418087 0.113881655 0.098071784 0.09030447 -0.008419216 0.12326433
0.1069075 -0.055319075 -0.11279267 -0.07266718 0.060465023 -0.032559052 -0.068617895 -0.08575975
0.012569845 0.13809592 -0.075399764 0.137276 -0.038204476 -0.05910158 0.015036724 0.025721818
0.09774127 -0.06724087 0.08702299 0.10045952 0.021176845 0.15490302 -0.019533256 0.08876015

fc2.bias f4 [64]
00000000: e160 f83d 3007 92bc fcee e93d aad9 bbbb
00000010: bb8e 42bc 5b45 0bbc 0832 2dbc 5d4c 03be
00000020: c5a4 08bd 6415 34bd b092 fcbd 9fd1 033e
00000030: 7de6 0d3d 39bd aabd 6f78 9b3d a127 1b3d
00000040: 9cba d1bd 788c df3b 66b1 b13d 51e8 c33d
00000050: d496 963d d106 ddbd 02ff abbc c592 a53d
00000060: 2943 5cbd 0e56 2e3d 13bd e13d d768 10bd
00000070: 4f52 f4bc f66c 893d ca43 eabd f64e fa3d
00000080: 4b05 8bbd a2e0 7dbd c41d 653d 0f40 fcbc
00000090: aed6 8fbd caec 35bd 64f1 f3bd c19d fdbc
000000a0: e89f c63d ba84 643d 57ca 83ba f36a cbbd
000000b0: 20d5 cbbd 9aa2 d63d 0421 3cbd ddf0 b03d
000000c0: 2d26 dc3d adec 963c 2e51 cfbd 10b7 17bd
000000d0: c567 02bd 0bb4 473d 3b27 a73d 1359 c83c
000000e0: af7b ca3c aca3 30bd b4cf 90bd 7b6a e0bc
000000f0: 3c7e 8c3d 98cd 3abd 866c f63d dfaa 9dbd
0.12127853 -0.017825693 0.11422536 -0.0057327347 -0.01187485 -0.008500422 -0.01057101 -0.12822099
-0.03336026 -0.043965712 -0.12332666 0.12872933 0.03464364 -0.083368726 0.0759133 0.03787959
-0.10240671 0.006822165 0.08676414 0.09565795 0.07352987 -0.10792316 -0.02099562 0.08084635
-0.053774986 0.042562537 0.11022391 -0.035256233 -0.029824404 0.06710236 -0.11438711 0.12222092
-0.06788119 -0.061981805 0.05593659 -0.030792264 -0.07023369 -0.044415273 -0.11911276 -0.030959012
0.096984684 0.05579064 -0.0010054809 -0.09932508 -0.0995276 0.104802325 -0.045929924 0.08639691
0.10749469 0.018423403 -0.10122906 -0.037039816 -0.031837244 0.048755687 0.081617795 0.024456536
0.02471718 -0.04312484 -0.07070866 -0.027394524 0.06860015 -0.045606226 0.12032418 -0.07698607

fc3.weight f4 [5, 64]
00000000: 9c42 003e 4cdc e9bd bcf8 003e 3bbd 1c3e
00000010: fc98 ed3d 94a1 133e c52b 72bd 6217 bf3b
00000020: d1ea 963d 8805 2b3e 9a7b 9cbd e2ff 0a3e
00000030: de66 c33c 6933 41bd ab87 b5bd 3003 aa3b
00000040: a6a5 983d ade2 f33d cff3 023e 2dc5 c03c
00000050: 57dd d7bd fb8b 913c a1cc cd3c b11f 123e
00000060: 570d f13d 8ec2 b4bc 81ed 9ebd ca1f 653b
00000070: 569c 6abd 10e1 19bd fe25 ad3d 9893 193e
00000080: 28f5 ea3d 7da8 993a d6ee 94bd 6ab2 c93d
00000090: 9da8 01bd c249 d6bd f8fb b83d ddba 82bd
000000a0: b9a3 b03d 502a 213e 9007 cdbd d169 8e3c
000000b0: d26b b3bd dcef 6fbd 485f f6bc 4c09 c8bc
000000c0: e7c1 0c3e 31f7 34bd 6af3 a23d e58f 2a3d
000000d0: 2842 cf3d 979d 88bd b15d 133e 7a8b bfbd
000000e0: 5671 9ebc 90aa f03c 1683 afbd 0085 f43d
000000f0: 8996 89bd 6706 e13d 0444 ea3d 90ed eb3c
00000100: 0aa2 e53d 8c71 f5bd cdd6 bcbd 1e84 383d
00000110: b649 d6bc cc70 af3b 241b bb3d 5ef6 ec3c
00000120: 6a83 abbd f62d 06be e64d dd3d 76bf 04be
00000130: 9fb8 7abd d716 c2bd d174 1fbd f353 1fbd
00000140: 868a 8dbd 22ca c4bd 7609 d63d 0309 c43d
00000150: 2314 a03d c960 f2bd 7684 23bd 5fdd c23c
00000160: 060a fbbd c956 fb3d d574 013d 931f 643c
00000170: 323f 67bb 1768 bf3d e073 ab3b 5796 d63d
00000180: d8c3 0f3d fd2c 81bd 6537 9abd d68f f73d
00000190: 8733 133d 7d0c c1bd 2c01 39bd 9892 8f3d
000001a0: 6573 b63d 792b 5cbc 1f04 e2bd d068 0e3d
000001b0: be42 92bc ea76 883c 7042 393d e182 403d
000001c0: beb6 f33c 22c0 fc3c 4629 8ebd 6a04 6a3d
000001d0: 088d 5ebd a81f 023e 8fd7 ac3d c1e1 993d
000001e0: 0122 e13c 6093 2f3c 8cc4 eebd 6435 4bbc
000001f0: 60bc a33d 2abe 1bbd 7598 603d 1151 febd
00000200: 9836 33bd 5e7d 57bd 82ea a53d 7a5c 743a
00000210: df6f cbbc 9a54 933c 38c0 983d 076e ef3b
00000220: 47de 86bd 2127 253d 8026 833d bc33 acbd
00000230: c47f 6bbd 7b21 743d 19a9 f0bd f388 cdbd
00000240: 3e86 8a3d 2d40 08bc 08af 85bd 7e63 943c
00000250: 94a9 a73d 8bdb d23d 7a86 973d 1241 2a3d
00000260: a25a 0abe 75ba 0fbe 0b0c b13d 97a1 49bd
00000270: 6802 04bd 899c 1f3d 04d0 76bd 73b2 a2bd
00000280: d2aa 19be a63e d1bb d5d4 b83d a23b ca3d
00000290: acdd 2e3d 8ead a73d 3c8b 4dbd d7e8 55bd
000002a0: d0c9 923d b18e ecbd 9be6 b23b 1580 f9bd
000002b0: f8e6 81bd d80e 46bc 2ebe 863d 5f74 6d3d
000002c0: baa2 70bc 8ee5 0abd ac35 26bd 881f 453d
000002d0: 42fa 2abe 2610 d4bd da02 abbd b5de 4ebd
000002e0: b6c2 0f3b 5037 873c 20f8 e83c 541d fabd
000002f0: ad52 75bd 4c78 943d 24e7 0dbe 9ccc 77bd
00000300: 86c1 4fbd d596 c3bd 5496 06bd 2a4f b5bd
00000310: b043 e93d 55c8 78bd 9d1f f2bd 94d0 e1bd
00000320: 1092 ae3d 537f eb3d ba23 b3bd 9103 d7bd
00000330: d490 b0bd c268 0f3d b038 193d 1e39 963d
00000340: 78b6 46bd d65c 15bd d348 8d3d 7ed0 b5bd
00000350: 98ed 3fbd 32f2 e93d b76e e5bd 6168 c33d
00000360: 636e 6c3c e0c8 45bd 9708 863c f12e bdbd
00000370: f674 d43d 9c18 fbbb f448 963d b746 acbd
00000380: 9a38 03be e0b3 6bbd eef0 ae3d d7a4 0e3d
00000390: 7ee3 013e 06b8 b33d 58dd 7e3d ad24 cd3d
000003a0: 6b1a 993c bd92 2b3d 2cf8 c73d 7623 d7bd
000003b0: 0c37 b73d 2011 41bd c0a3 c43c 6b7a ffbd
000003c0: 0d82 fcbc ff11 a93d 2839 4fbd 6dd8 c1bc
000003d0: b670 3b3c a083 403d 029f 88bd 0987 f2bc
000003e0: 2e12 7d3d 54ad 673d e0bb a7bb 6126 c2bc
000003f0: 07b0 f1bd 4e65 cb3c 2d81 2fbc 15b4 00be
0.1252541 -0.114189714 0.12594885 0.1530656 0.11601445 0.14417106 -0.059123773 0.005831645
0.073690064 0.16701329 -0.076407626 0.13574174 0.023852762 -0.04716817 -0.08863767 0.0051883683
0.0745347 0.11908469 0.12788318 0.02353152 -0.10540264 0.017766943 0.025121989 0.14269902
0.117701225 -0.022065427 -0.07760144 0.0034961575 -0.057278 -0.037568152 0.08454512 0.14997709
0.11472541 0.0011723187 -0.07272117 0.09848483 -0.031654943 -0.10463287 0.09032434 -0.063832976
0.086249776 0.15738797 -0.10011208 0.017384442 -0.087607995 -0.058578357 -0.03007473 -0.024418496
0.13745843 -0.044181053 0.07956584 0.041641135 0.1012004 -0.06670683 0.14391209 -0.09352775
-0.019341152 0.029378206 -0.085699245 0.1193943 -0.067181654 0.10987549 0.11438754 0.028799802
0.11212547 -0.11984548 -0.092206575 0.04504787 -0.026158195 0.0053540226 0.09136036 0.02892607
-0.083746746 -0.1310347 0.108058736 -0.12963662 -0.061211225 -0.094770126 -0.038929764 -0.03889842
-0.06911187 -0.09608866 0.10451023 0.09572031 0.07816341 -0.118348666 -0.039921246 0.023787199
-0.12257771 0.12272412 0.03160556 0.0139235435 -0.003528547 0.093460254 0.0052323192 0.10477894
0.03509888 -0.06307409 -0.07530097 0.120879814 0.035937812 -0.0942621 -0.045167133 0.070103824
0.089087285 -0.013438099 -0.11035942 0.034767926 -0.01785409 0.016658265 0.045229375 0.046999816
0.029750224 0.030853335 -0.06941466 0.057133116 -0.054333717 0.12707388 0.08439552 0.07513762
0.027482035 0.010716289 -0.11658582 -0.012402866 0.07994914 -0.03802315 0.054832894 -0.12417806
-0.043753237 -0.052609794 0.081013694 0.00093216414 -0.024833618 0.017984677 0.07458538 0.0073068175
-0.06585365 0.04032052 0.06403828 -0.08408305 -0.057494894 0.059602242 -0.11751003 -0.100358866
0.06763886 -0.008316082 -0.06527525 0.018113848 0.08186641 0.10295781 0.07398696 0.041565962
-0.13511136 -0.14035971 0.08644875 -0.04922637 -0.032228857 0.038967643 -0.060256973 -0.07944193
-0.15006569 -0.006385642 0.090249695 0.09874655 0.04269187 0.081874 -0.050181612 -0.052224007
0.07167399 -0.11550654 0.005459619 -0.12182633 -0.06342882 -0.0120885 0.06579243 0.05797231
-0.014687235 -0.033910327 -0.04057853 0.048125774 -0.16697028 -0.103546426 -0.08350153 -0.05050536
0.0021936125 0.016505867 0.028438628 -0.12212625 -0.0598933 0.07249507 -0.13857704 -0.060497865
-0.050721668 -0.09550253 -0.032858208 -0.0885299 0.113898635 -0.060737927 -0.11822436 -0.11026111
0.08523953 0.114988945 -0.08747049 -0.10498727 -0.08621374 0.035012014 0.037407577 0.07335113
-0.04851386 -0.03646549 0.06898656 -0.08877657 -0.046857446 0.11423148 -0.11202758 0.09541393
0.014430615 -0.048287272 0.016361518 -0.09237469 0.10373871 -0.007662846 0.073381335 -0.08411925
-0.1281456 -0.05754459 0.085420474 0.034825172 0.12684438 0.08775334 0.06222281 0.10016761
0.018689355 0.041887987 0.09764132 -0.105048105 0.08946046 -0.047135472 0.024003863 -0.12474521
-0.030823732 0.082553856 -0.050591618 -0.02366277 0.011440447 0.047000527 -0.06670953 -0.029605405
0.061784916 0.056561783 -0.005118832 -0.023699941 -0.11801153 0.02482858 -0.01071195 -0.12568696

fc3.bias f4 [5]
00000000: 3706 dc3d af43 d1bc fa83 d83d 5b3b 7bbd
00000010: 415c 84bc
0.10743373 -0.02554497 0.105720475 -0.061335903 -0.016157271

opp_actors.0.fc1.weight f4 [64, 28]
00000000: 8834 323d 812d 053e 2e72 23be 2245 fbbd
00000010: 2256 47bd 61e6 ac3d 2bc2 173d 7d3a 143e
00000020: b0b5 06bc 2de4 073d 8c02 a5bc 31d8 65bc
00000030: a397 49be bba3 09be 868b 9fbd f7ff ed3b
00000040: d526 b33d 7612 dc3d d0fd 13be a5ed bebd
00000050: 0f12 eb3c d4c9 143e 968c 0dbd 3ef1 043e
00000060: 0dbf 7dbd 5b4d 063d 1e3e 423e 3488 02be
00000070: 71e8 bcbd 9ce0 2dbd cc83 98bd c72f 233e
00000080: 9f3b 0cbe 34ab c7bd 3340 0abe 53bc 3bbe
00000090: 8f2e fdbd 5d69 0f3e 1f11 e33d 8d8a f13d
000000a0: f2fa 8cbc ed76 e8bd 04f6 023d a7c1 37be
000000b0: 7b6c 0fbe 27fe d6bd 1f96 b63d 6e47 c83d
000000c0: cc7e d6bd ce76 c4bc 3de9 003e 844f 273e
000000d0: d9f9 f13c 63e8 ee3c 66c6 1a3e fe92 98bd
000000e0: 43ed 293d ab3f 21be 9e93 07be a343 d4bd
000000f0: 40b5 a63d 9e55 a43d 1418 e8bd ea9a 343d
00000100: b9b5 c13d 7763 1cbd c772 84bc 82b7 363d
00000110: e178 c03d 37f6 293e 1f21 15be 6fe1 8cbd
00000120: ff93 813d 8b4c 0d3e 678c 153e eb41 1d3e
00000130: 049a 073c 714b 2cbe da84 983c 3b37 00be
00000140: f186 37be d6ee 173e 399f 393e 6a48 35be
00000150: 6f53 653c f477 3abd 9331 23bd 0d3f b7bd
00000160: 1b33 473d ddb5 f6bd e854 423d 2f8e ad3d
00000170: a98a ff3d f2f4 813d 28a2 40be b110 f6bd
00000180: 3622 e73d e9a2 d03c ccf5 16be b627 e0bd
00000190: 1aa8 2a3e e0dc fd3d 90ee a8bd af14 47bd
000001a0: 4429 36be 6ca3 6abc 65ef 13be 467b 16be
000001b0: 45d9 e839 acb6 963c 66c4 a7bd 4dc7 be3d
000001c0: 0beb a1bd adc3 483e 04bb 043e 37fd 12be
000001d0: 2820 adbc bd85 143d bba0 453d cc76 393d
000001e0: 4e6d bc3d a774 96bb 2646 a7bd a920 e83d
000001f0: 1161 33be 458b e1bd ecc5 41bd 0dce d3bd
00000200: c830 90bd 5ca3 20be 7c84 60bd c129 023d
00000210: 7ce5 24be 99a9 85bc f766 1a3e a177 ecbc
00000220: ac4d a0bc 6fbc e0bc 4707 873d 43fb 263e
00000230: 9c86 673e 576d 153e 52ce 313e 11af abbb
00000240: 0cae 20be 33d5 6abd 2c81 2b3e 0b22 93bc
00000250: b96b cdbd 972e 32be 62a4 23be 7271 08be
00000260: 6abe 5fbd 3090 bf3d 523f d13d c435 48be
00000270: fed7 f83d 20a4 21be 9abb 81bd 6e6e c1bd
00000280: cfa8 abbd 9e50 32bd bf53 2abe 31ed 34be
00000290: 50c4 8fbd af9d f03b 92d4 59bd 855c 053e
000002a0: 2081 3ebe f499 c0bc a22f 1d3e d7cf aebd
000002b0: 8bd7 233e 4c06 733d 6ba4 2ebe 55ef 003e
000002c0: d636 25bc 9524 93bd 0270 0e3e 0343 1ebe
000002d0: fd81 fe3c fa80 02bd 8931 0a3e c3f6 853d
000002e0: ca9a ad3d d27b a13d 9e01 22bd 7ce3 40bd
000002f0: b623 1dbe abf1 cc3d c7d9 093e dd0f 0c3e
00000300: 34b6 01be 22c5 433c 1520 08be bd6b 02be
00000310: 43fa b0bd e955 8f3d 9e01 e6bd e6ee 46bc
00000320: c0c6 84bb 3367 0e3e c2c0 0fbe 0578 08be
00000330: b31f f6bd 33b1 da3d 0ba4 9abd 93b2 393e
00000340: 661c 503d ae56 cc3a 0064 b8ba 8e55 41bd
00000350: f30f 8a3c 8aee 4bbd 71ce cebc cdb3 573c
00000360: 904c 1fbe 18a3 d2bd 0eb2 1d3e a433 1fbe
00000370: e6d0 16bd f378 403e e87a c63d b2d3 1d3d
00000380: 5f35 0bbe e22f e03d 8e04 0dbe ca78 43bd
00000390: c09a 7abd 8a17 8ebc 40ee f63c 26ef 193e
000003a0: bb80 b33c 9de6 193e ef31 113e 8005 f9bd
000003b0: 7f47 913d 7785 11be 1209 a4bd c602 483d
000003c0: 0e80 8e3d d826 093e f4b2 91bd 2c97 88bb
000003d0: 7754 883d e444 3abe faad 123e 69ad 27be
000003e0: 942b c0bc d1c8 f2bc b132 bfbd cff3 6d3d
000003f0: 66cc 083e bc09 85bd c46f ecbd f282 9ebd
0.04350713 0.1300564 -0.15961525 -0.122690454 -0.048666127 0.08442379 0.037050407 0.14475437
-0.008222029 0.03317659 -0.020142816 -0.014028595 -0.19686751 -0.13441364 -0.07790284 0.0072631794
0.08747641 0.10745709 -0.1445229 -0.09322671 0.028695134 0.14530116 -0.0345579 0.12982652
-0.06194978 0.032788616 0.18969008 -0.1274727 -0.09224022 -0.042450532 -0.07447013 0.15936194
-0.13694619 -0.09749451 -0.13501053 -0.18333559 -0.12362396 0.14005037 0.1108725 0.117940046
-0.017209504 -0.11350808 0.0319729 -0.17944966 -0.14006226 -0.104976945 0.08915352 0.09779249
-0.10473403 -0.023982432 0.12588973 0.16338927 0.029538082 0.029163545 0.15114745 -0.074499115
0.041486036 -0.15746944 -0.13239905 -0.10364463 0.081400394 0.08024143 -0.113327175 0.04409305
0.09458489 -0.038180795 -0.016168011 0.0446086 0.09398056 0.1659783 -0.14563416 -0.068789355
0.06327056 0.1379873 0.1460434 0.15357177 0.008276466 -0.16825654 0.018618036 -0.12521069
-0.1792257 0.14837202 0.18127145 -0.17703405 0.013996943 -0.045524552 -0.0398422 -0.08947573
0.048632722 -0.120464064 0.047444254 0.08474385 0.12477619 0.06345548 -0.18811858 -0.120149024
0.11285822 0.025468307 -0.14742202 -0.10945074 0.16665688 0.12395644 -0.08248627 -0.04860371
-0.17789179 -0.014321189 -0.1444679 -0.14695463 0.00044412367 0.018397652 -0.08191757 0.09315357
-0.07906159 0.19605894 0.12961966 -0.14354406 -0.021133497 0.036260355 0.048248988 0.04527931
0.09200536 -0.0045915428 -0.08167677 0.113343544 -0.17517497 -0.11012892 -0.047307894 -0.103420354
-0.07040554 -0.15687317 -0.054813847 0.0317781 -0.16103166 -0.016316222 0.1507834 -0.028865637
-0.019568287 -0.027433602 0.06593185 0.16306786 0.22609943 0.14592491 0.17363861 -0.0052393754
-0.15691394 -0.05733223 0.16748494 -0.017960569 -0.10030312 -0.17400585 -0.15980676 -0.13324526
-0.054624952 0.093536735 0.102171555 -0.1955176 0.12150572 -0.15785265 -0.0633461 -0.09444891
-0.08381807 -0.043533914 -0.16633509 -0.17668606 -0.070198655 0.007343016 -0.05318124 0.13023575
-0.18603945 -0.02351091 0.15350202 -0.08535736 0.16000192 0.059332177 -0.17054908 0.12591298
-0.010083875 -0.07184712 0.13909915 -0.1545525 0.031067843 -0.031861283 0.13495459 0.06541207
0.08476789 0.07884945 -0.039552324 -0.047091946 -0.15345654 0.10007032 0.13461982 0.13677926
-0.12667161 0.011948856 -0.13293488 -0.12736411 -0.08641484 0.06998808 -0.11230777 -0.012141919
-0.004052013 0.13906555 -0.14038375 -0.13327034 -0.12017765 0.10678329 -0.0755082 0.18134527
0.050808333 0.0015589797 -0.0014067888 -0.047200732 0.016853308 -0.049788035 -0.025244923 0.013165426
-0.1555655 -0.10285014 0.15399954 -0.15547043 -0.036820315 0.18796138 0.09691411 0.038531967
-0.13594578 0.10946633 -0.13771269 -0.047722615 -0.061182737 -0.017345209 0.030142903 0.15032634
0.02191197 0.15029378 0.14179204 -0.12159252 0.07093715 -0.14211069 -0.080095425 0.04883077
0.06958018 0.13393724 -0.07114211 -0.0041684117 0.066567354 -0.18190342 0.1432418 -0.16374744
-0.02345828 -0.029636772 -0.093358405 0.058093842 0.13359222 -0.06495997 -0.11544755 -0.077398196

opp_actors.0.fc1.bias f4 [64]
00000000: fd00 413e f8cb fb3d f5e5 943d ec66 89bd
00000010: a151 073e c533 0b3e 2011 443d 44df 7a3c
00000020: 62e9 4f3d 410f a5bc 19ba 9dbd be1e c43d
00000030: a0dd e7bd b8f4 0b3e 1d24 fbbd e1ea cf3b
00000040: 122e 98bd 1ce0 443e 8527 90bd 20f4 163e
00000050: 6b68 093e 26a9 373e 3acb cd3d 6d3f 233e
00000060: 36ff 433e 679a 223d 25aa d23d b968 14be
00000070: 39e0 48bd b29c b33c c5e4 363d fb08 92bd
00000080: 2ad8 40be 1737 debc 7b0f 563d 0819 553e
00000090: dc12 38be 547a 123e e8ee 30be a454 3bbe
000000a0: d3f6 d5bd 4d6f 393d 5529 313d ecc9 16be
000000b0: 817f 403e 5889 573e 5e89 963d c47c 503e
000000c0: a73c bebd b885 9fbd 7f60 06bd 3334 b13c
000000d0: 63a9 09be 076c f5bd d5e7 803d 30ed c43c
000000e0: 573b 5e3e 1670 82bc 9e26 f03d 16d9 b9bd
000000f0: 6edf a43d 6a49 edbc 4c7b 3f3e b59a 173e
0.18848033 0.12294763 0.07270423 -0.06709084 0.13214733 0.13593967 0.047867894 0.01531202
0.05075968 -0.020148875 -0.07701511 0.09576176 -0.113215685 0.13667572 -0.122627474 0.0063451384
-0.07430662 0.19226116 -0.07038788 0.14741564 0.13418739 0.17935619 0.10048528 0.15942164
0.19140324 0.03969803 0.10286359 -0.14493074 -0.04904196 0.021925304 0.044651765 -0.07130619
-0.1883246 -0.027125878 0.052260857 0.2081033 -0.17975944 0.14304477 -0.17278636 -0.18294007
-0.104474686 0.04527216 0.043252308 -0.14725465 0.18798639 0.21048486 0.073504195 0.20360094
-0.09288912 -0.07789177 -0.03280687 0.021631336 -0.13443522 -0.11983495 0.062942185 0.024038881
0.21702324 -0.015922587 0.11726116 -0.09074609 0.08050428 -0.02896567 0.18699378 0.1480511

opp_actors.0.fc2.weight f4 [64, 64]
00000000: 0057 fa3d 5f13 7d3d 8770 bc3b e025 f83d
00000010: 3e09 4ebd be56 163e 75be f13d 9240 fc3d
00000020: 9b2b 73bd 0bb1 22bd f144 203d 11a8 8f3d
00000030: ce75 b53d 9d60 8e3d 2a2d bf3d 9bcc 223b
00000040: def9 76bd cd95 863d 792b 9f3d 5bfa 64bd
00000050: 49d7 183d 9d0f 89bd 27b7 a9ba 40c9 12bd
00000060: 3505 063e be68 09be e4fd 2bbd 2abb 13be
00000070: 6efe 6c3c 878e 8cbd 69c0 0c3d 4ffb c7bd
00000080: 0777 b5bd c513 0fbd b75d 9d3c 7794 163e
00000090: d7d4 df3d e1d4 b73c a68d e9bd 1a44 28bd
000000a0: 0de4 65bd 76a6 733c db5a 493d b69f 6b3d
000000b0: 80a9 aa3d 45f2 703d 504a cdbb ed97 ec3c
000000c0: 315e 523c d04b b8bd 5d81 b83b f2fb 0ebd
000000d0: 7104 05be 6266 e23d 78b2 b6bc c139 c2bd
000000e0: 1ff4 f83d 6084 09bd 6903 8f3d 541b f53d
000000f0: d9b9 8fb9 54ed e23c 5626 a83d 865c 023e
00000100: e017 1dbd 5a0e 90bd 2045 20bc 8034 c83d
00000110: 4017 303c 28df b13d 00a0 73ba 8817 1d3d
00000120: 606d 8e3b 4061 5e3b 569d f3bd d0cd dfbd
00000130: 2040 2a3c f467 7d3d faf7 ab3d e0b8 b13b
00000140: b0d1 573d 2c23 563d 1afe dcbd c801 e1bd
00000150: 147d c6bd c0d7 0c3b 7edf a1bd c0d8 23bd
00000160: 7034 99bc 48c3 473d 706c ed3c 2a7c ed3d
00000170: dee8 e63d 2251 a3bd 0076 ceb9 0819 a93c
00000180: d47c df3d f8ad 1ebd 9437 49bd 302a a2bd
00000190: eea2 bc3d b40d 11bd c4c1 3fbd 8e26 ad3d
000001a0: d88f eb3d 609c acbb ba74 b4bd c295 d03d
000001b0: 401b 2fbd 3cf1 6bbd 60f9 b3bd 203d 76bd
000001c0: 827d c8bd 50c4 93bd 8c34 e9bd d863 cebc
000001d0: ccdc 4d3d 0c56 c2bd 000c 37b9 58ce 3cbd
000001e0: 4ca7 773d 22ba dd3d 98be 87bc 40d8 80bd
000001f0: 84b3 c4bd d467 96bd 84d3 133d 30f3 ea3c
00000200: c60f 793d fe3e 59bc 4f2e 963d 6d6e ebbd
00000210: acb1 c43c 4764 e03d 9d52 f2bd 6980 6dbd
00000220: fb3b b33d 998e dfbc 8dba 96bd e6a9 8a3d
00000230: 43ed ceba ad22 df39 0bc6 b8bc 6e94 d63d
00000240: 48f8 a73d 88f8 8c3c 96c3 76bb a814 8c3d
00000250: 2e0d 9b3d f6d3 7cbd 0039 dfbc 6585 583d
00000260: c085 8abd e424 033e 353a c3bd 5e36 903d
00000270: f9ab a0bd 6424 203d 13dc b53d d7a3 d13c
00000280: 1edf e9bb de0f 8f3d d83e abbd 38ac b2bd
00000290: 5651 d3bd 45b6 afbd b060 983a d39f 60bd
000002a0: 6d71 163d a758 23bc 417c d73d 87bb 66bd
000002b0: 5b3c 37bd c4b9 9a3d 5653 48bd 3617 e33d
000002c0: 8ece 19bd bf73 9a3c bd71 21bd 7c95 873d
000002d0: 6cd8 7d3d b0f8 a2bd 1322 c33d 6054 e7bb
000002e0: ee8f 18bd 357e 51bc d074 a23d d760 013e
000002f0: 4723 8b3d 8beb fc3c 3660 8e3d 7a05 82bd
00000300: b0bb 18bd 2cf1 e5bc cfa0 92bd 1373 9b3d
00000310: 39a7 353d 34ec 7dbb 3786 3fbc 3ab1 1f3c
00000320: c751 e73d eadb 163e b857 7bbd e4c9 ac3d
00000330: e44e ab3d fd0f a03d a19f 84bc a6ff 973d
00000340: 4e2f a33c 0672 1c3e 6dbe 84bd 093f 96bc
00000350: b1eb 5cbd f3b7 c2bc c3dc 883d 22e4 cc3d
00000360: a4c2 80bd 10d1 9a3d 8a52 143e 43a3 87bd
00000370: 528a 8d3c 7f9d f9bc 6a0b 183d d181 69bd
00000380: 23b7 56bd e7f4 67bd 8c47 ccbd 8ad6 0c3e
00000390: d9e1 a6bc 69e2 103d ef29 74bd 715a ae3d
000003a0: c348 a3bd aac9 79b9 ac58 afbd bfa2 c2bd
000003b0: c7c7 173e c988 84bd a0e2 0d3d baf5 183b
000003c0: 85b4 563d d80c c33c 644d 8abd 4476 dc3d
000003d0: 7245 08be f27e 473d f29a 31bc bde2 9ebb
000003e0: 6703 ee3d 0e8c 1a3e 3d84 553d 8447 48bd
000003f0: 4447 c13d 6726 a53d d3f1 7f3d d2c4 f93b
0.12223625 0.06178605 0.005750719 0.12116599 -0.050301783 0.14681527 0.11803905 0.12317003
-0.059367757 -0.039719623 0.039128248 0.07014478 0.0886036 0.06952021 0.09334786 0.0024841193
-0.060296886 0.06571541 0.077719636 -0.05590282 0.037314687 -0.06692431 -0.001294826 -0.03583646
0.13087924 -0.13418862 -0.041990176 -0.14426866 0.014464958 -0.068631224 0.034363184 -0.0976473
-0.08860593 -0.034930963 0.019209726 0.14705072 0.10929268 0.022440376 -0.114039704 -0.04108057
-0.05612569 0.01487123 0.049158912 0.05752536 0.08333111 0.058824796 -0.0062649623 0.028881038
0.01283984 -0.08998835 0.0056306557 -0.034908243 -0.12989976 0.11054684 -0.022301897 -0.09483672
0.121559374 -0.03357351 0.06983072 0.11968103 -0.00027413553 0.027701057 0.08210437 0.12730607
-0.038352847 -0.07033987 -0.009782106 0.097756386 0.010747731 0.08685142 -0.0009293556 0.03835252
0.0043465346 0.0033932477 -0.11895244 -0.109279275 0.010391265 0.061866716 0.08396907 0.00542365
0.052690208 0.052279636 -0.107906535 -0.10986668 -0.096918255 0.0021490902 -0.07903956 -0.04000163
-0.018701762 0.04877022 0.028982371 0.11595948 0.11274885 -0.07974459 -0.000393793 0.020641819
0.10912481 -0.03874013 -0.04912527 -0.07918203 0.09210764 -0.03541346 -0.04681565 0.08454619
0.115020454 -0.005267665 -0.08811326 0.10184814 -0.042750597 -0.057603106 -0.08787799 -0.060116887
-0.09789564 -0.07215178 -0.11386976 -0.025194094 0.050259396 -0.094890684 -0.0001745671 -0.046095222
0.06046228 0.10826518 -0.016570374 -0.062912464 -0.096045524 -0.073440224 0.03609039 0.028680414
0.06080606 -0.013259647 0.073330514 -0.114956714 0.024010502 0.109566264 -0.118321635 -0.05798379
0.08751675 -0.027289676 -0.073598005 0.06770687 -0.0015787262 0.0004255971 -0.022555372 0.104775295
0.08201653 0.017208353 -0.00376532 0.06839877 0.07570873 -0.06172558 -0.02724886 0.05286159
-0.06763792 0.12807041 -0.095325865 0.0704162 -0.07845301 0.039097205 0.088798665 0.02559082
-0.0071371933 0.06985448 -0.08361596 -0.08724254 -0.10318248 -0.08579687 0.0011625495 -0.05483992
0.036729265 -0.009969867 0.105217464 -0.056331184 -0.044735294 0.07554963 -0.0489076 0.110884115
-0.0375505 0.01885402 -0.03941511 0.06620309 0.061973974 -0.079575896 0.095279835 -0.007059619
-0.037246637 -0.012786438 0.079324365 0.12634598 0.06793838 0.030874034 0.069519445 -0.06348701
-0.037288368 -0.028069101 -0.07159578 0.07590308 0.04434893 -0.0038745524 -0.011689714 0.009746844
0.11294895 0.14732328 -0.061362952 0.08436945 0.083646566 0.078155495 -0.016189398 0.07421808
0.019920018 0.15277871 -0.06481633 -0.018340604 -0.05393571 -0.023769354 0.06682732 0.100044504
-0.06287125 0.07559407 0.14484611 -0.066229366 0.01727787 -0.030470608 0.03712026 -0.05700857
-0.052420747 -0.05663004 -0.09974584 0.13753715 -0.020371364 0.03537217 -0.059610303 0.08513344
-0.079728626 -0.00023821616 -0.08561835 -0.095036976 0.14822303 -0.06471402 0.034639955 0.0023339824
0.05241825 0.023809835 -0.06753042 0.10764745 -0.13307741 0.04870505 -0.0108401645 -0.0048488067
0.11621743 0.15092489 0.052128065 -0.048896328 0.09437421 0.08063965 0.06248648 0.0076223398

opp_actors.0.fc2.bias f4 [64]
00000000: 9340 933d b20e 8dbd 0548 7abd 6804 833d
00000010: b676 c83d 0893 66bc f61e b63d 7df7 a3bc
00000020: 2a47 9d3d 3158 fc3c dba2 b0bc 683f b13d
00000030: 36a8 52bd 2914 a1bd c3ff 2fbb 052b 573d
00000040: e4f4 143e c63a 173e 3d95 003e aece 24bd
00000050: 2972 053e 9275 b03d d00a 583d ca17 8ebd
00000060: 05f7 33bb e62a a93d 0657 c23c 2624 23bd
00000070: cf9f 47bd a4f9 f33d 6c08 013d e10e 483d
00000080: 5630 8c3d 7c34 c83d f537 49bd c9ca 093d
00000090: 2c2f 1b3e 016e c7bc 18b9 5fbd d2b7 98bd
000000a0: 9194 cb3d f59c c33d d25b 9b3d a56e 77bd
000000b0: 13e7 66bd ee4f e0bd 250c 003d 81b7 b9bc
000000c0: 40ae 103e 518c 62bd ac12 f0bc 8a12 133d
000000d0: 6df0 19bc a21a 403b 0348 1c3e f4bd e53d
000000e0: 9175 fabd 8bc5 da3b fa79 32bb 2f57 303e
000000f0: fa0a eabd 4f45 873d a28c 0abe a9a8 fbbd
0.07190051 -0.068875685 -0.06110384 0.06397325 0.09788267 -0.014073141 0.08892624 -0.020015473
0.07679589 0.030803772 -0.02156203 0.08654672 -0.05142995 -0.07865173 -0.0026855327 0.05253126
0.14546543 0.14768514 0.1255693 -0.040236168 0.1303183 0.08616175 0.052744687 -0.06938131
-0.0027460468 0.08260135 0.023723137 -0.039829396 -0.04873639 0.119128495 0.031502172 0.048842315
0.06845157 0.097756356 -0.04912563 0.033640657 0.15154713 -0.024344446 -0.05461988 -0.07456936
0.09940446 0.095514216 0.07585873 -0.060408253 -0.056372713 -0.109527454 0.031261582 -0.02267051
0.14128971 -0.055309597 -0.029305778 0.035906352 -0.009395701 0.002931275 0.15261845 0.11217871
-0.12229455 0.006676381 -0.0027233348 0.17220758 -0.11427875 0.066050164 -0.1353021 -0.12288029

opp_actors.0.fc3.weight f4 [64, 64]
00000000: 71c6 60bd ded8 f4bd 639b 02bc 038b e03d
00000010: c2ea f5bc 144c b7bd 43a6 b0ba 72ee b3bd
00000020: d89c cf3d 93b8 e93c b035 b83d 8d61 813d
00000030: 3954 513d c185 473d bb63 f23d 4677 91bd
00000040: ed8a 8abd 65c1 d93d fbf3 603d de91 033e
00000050: 0959 1a3d 53b7 8e3d d471 af3d 5b30 a93d
00000060: acfe 903d 8c61 b8bd 81c4 2f3d 90d1 adbd
00000070: 91d5 d33c 765a a23d 78f8 1cbd 1120 f13d
00000080: 7149 033e 3b15 363d 6a9d aabd c3b2 823c
00000090: b968 d93d 005a db3c e4cc 183e a032 143c
000000a0: 2480 3ebd 3a1f ba3d 4f30 443d 9899 973d
000000b0: a72c 99bd a094 c2bd bd13 c43d e67e 0d3d
000000c0: 5b02 cd3d bdb9 d4bd 149c 2bbd 140d 9c3b
000000d0: f53c 55bd f00a d13d 5d52 e33d d474 f43d
000000e0: a155 863c eb91 d4bd 691a 08bd cc7d 203d
000000f0: a46a 03bd 2860 683d b438 00bd 488a d33d
00000100: ed15 043e 30a7 fd3d 5145 1a3d b81e 84bd
00000110: 8ea9 93bc 968e 7cbd 7250 a03d c9e9 d33c
00000120: 0225 a13d bfbd 8b3d 139c 77bd 1703 243d
00000130: 9dc8 49bc 4797 e83c 144c 83bd f3fb 2e3c
00000140: 9ab1 ec3d 7098 b43d 618d 66bd 1d3e 0c3e
00000150: 053b eabc 2670 153e 748d 46bb 5d9d ee3d
00000160: f4cd d53d 467c e43c ec46 d43d f92d db3d
00000170: 2d88 83bd 9c7e 353d 7a94 b23d 7397 0e3c
00000180: 9ab7 e53d 87a2 f03d 20b4 aebd b359 c63d
00000190: a424 c2bd 3835 a63d 5037 fabc ec5a 1fbd
000001a0: 2a9e 593d 671d b2bd eb7d 893b 4801 1dbd
000001b0: a42d 213d d39d b9bb 6bfe b2bd 0234 2fbd
000001c0: 9dc5 233d 341e 8c3d 0949 00bd bfe4 84bd
000001d0: 5530 a93d 2034 26bd 6967 d2bc e8b1 cfbd
000001e0: 3bfd 06bd 3628 b1bd d0f3 273d a960 fe3d
000001f0: 351f 613d d9c4 d4bd b1d0 e03d f2c6 e4bd
00000200: c359 a4bd 92a0 8f3d d4df 563d e03d 0e3d
00000210: 981d 64bd 6a4c eabd 86e8 23be e8fc 43bd
00000220: 6138 27be 5564 08be 0874 a63d a369 5fbd
00000230: 3ad3 0b3d d598 c8bd d779 c3bc 5f47 d63d
00000240: 888f 10bc 9b6b 54bc 2a8b e3bd 93d6 0ebe
00000250: abd4 2d3d fe47 1dbe 3fb7 34bd 62fa c7bd
00000260: 2fc0 4abd 28f6 3bbe 46bf 153b 18d3 31ba
00000270: 8dc3 0bbe 7fd5 9cbd c393 65bd bc88 bebd
00000280: 0aa2 abbd f3e6 1dbc 73af c9bd 9868 43bc
00000290: 86a1 0dbe 4391 e63d f887 fcbd ccb6 593d
000002a0: c5d1 f4bd fe62 f0bd 482b dcbc 2543 a3bd
000002b0: ea61 0ebd 4be0 7dbd 2319 9cbd bd46 c4bd
000002c0: 8526 b53d 9c23 913d cbcd cebd 6cf1 a43d
000002d0: 4699 c8bd 36e5 11be 8547 c33b 110f a2bd
000002e0: 333a c73d 0f17 2cbd d868 07be 44ae 8d3d
000002f0: 4db5 db3c f597 ff3c 1c9f 3cbc b08e cbbd
00000300: 15f4 843c 0000 b139 9ddd b7bd 0aec 3b3d
00000310: 6f13 0cbe 3339 acbd 7548 6cbd e305 21be
00000320: c18a 15be d3d2 92bd df8d d8bc a8d4 843d
00000330: 6fe9 503d b8fd d63d 7fe7 293c ccda 123c
00000340: 2b06 43bd 5cc9 a3bd e536 0dbe 0098 19be
00000350: 159a fa3c 89a1 f6bd c921 9fbd 797a 693d
00000360: 3064 d9bd 9710 fe3b 9545 0dbd ceb2 cc3c
00000370: 13e3 bcbd 19d7 8b3d 9b56 dcbd d2c3 14be
00000380: c266 613d 7866 dfbd ae13 c83d 325d b13c
00000390: e983 b23c f1c7 b2bc 242a c4bc a04c 033d
000003a0: 3de3 b0bd ad5f 8b3d 8cae 8d3d 17e9 0fb7
000003b0: 5b09 133d 0792 03bd b839 9dbd 14e8 ccbd
000003c0: b687 94bd 36ea f5bd 2f6f a2bd 9448 5f3d
000003d0: 923d b13d 1d6f 1fbe f84b 06be 00b3 9a3d
000003e0: 4865 33bd 6897 8bbc cae5 5c3d 6c10 a93d
000003f0: cbca 3c3d d390 c63c 3763 90bb 8071 4e3b
-0.05487675 -0.11955427 -0.007971617 0.109640144 -0.030019168 -0.089500576 -0.0013477284 -0.08785714
0.101373374 0.028530395 0.08994615 0.063174345 0.05110571 0.048711542 0.11835428 -0.07102828
-0.06764779 0.1063259 0.054920178 0.12848613 0.037682567 0.0696856 0.08566633 0.08261176
0.07079825 -0.090029806 0.04291201 -0.084872365 0.025858672 0.0792741 -0.038322896 0.11773694
0.12820984 0.04445384 -0.083308056 0.01595438 0.106156774 0.026776314 0.1492191 0.009045273
-0.046508923 0.09087987 0.047897633 0.074023426 -0.0747922 -0.09501004 0.09574077 0.034544848
0.10010215 -0.10386989 -0.041896895 0.004762301 -0.052060086 0.10207164 0.11099694 0.11936346
0.016398253 -0.10379394 -0.03322831 0.03918247 -0.032084122 0.056732327 -0.031304076 0.103291094
0.12898989 0.12385404 0.03766376 -0.06451172 -0.018025186 -0.061659418 0.07827844 0.025868313
0.07868387 0.068233006 -0.06045158 0.04004201 -0.012315896 0.028392447 -0.06410995 0.010680187
0.11557312 0.08818138 -0.056287173 0.1369557 -0.028592596 0.14593562 -0.0030296715 0.116511084
0.10439673 0.02789129 0.1036509 0.10702128 -0.06422458 0.044310197 0.08719726 0.0087031005
0.1121666 0.1174975 -0.0853045 0.096850775 -0.09479645 0.081156194 -0.030543953 -0.03890507
0.053129353 -0.08697014 0.004195919 -0.0383313 0.039350167 -0.005664566 -0.087399326 -0.042774208
0.03998338 0.06841698 -0.03131965 -0.06488942 0.08261172 -0.040577054 -0.025684075 -0.10141355
-0.032956343 -0.08650248 0.041004002 0.1242078 0.054961402 -0.10389108 0.10977305 -0.11170758
-0.08024933 0.07013048 0.052459553 0.034726977 -0.055692285 -0.11440356 -0.1600667 -0.047848612
-0.163301 -0.13319524 0.081276 -0.054544102 0.03413699 -0.097947754 -0.023861809 0.10462832
-0.008823283 -0.012965108 -0.11110528 -0.13949041 0.042439144 -0.15359494 -0.04412007 -0.097645536
-0.049499687 -0.1835562 0.0022849604 -0.00067834696 -0.13648815 -0.07657909 -0.05604912 -0.09303424
-0.08380516 -0.009637582 -0.098479174 -0.011926793 -0.13831148 0.11258175 -0.123306215 0.053152844
-0.11954073 -0.11737631 -0.026876107 -0.07971791 -0.034761347 -0.06198148 -0.07621982 -0.09583805
0.08845238 0.0708687 -0.10097846 0.0805386 -0.097948596 -0.14247593 0.0059594535 -0.0791303
0.097278975 -0.042014178 -0.13223588 0.06918004 0.02681985 0.031200388 -0.011512544 -0.09939325
0.016229669 0.0003376007 -0.08977816 0.0458794 -0.13679288 -0.084093474 -0.057686288 -0.15724902
-0.14603712 -0.07169118 -0.026434837 0.064858735 0.05100387 0.10497612 0.010370134 0.008963298
-0.047613304 -0.07997391 -0.13790472 -0.1499939 0.03059105 -0.12042529 -0.07770116 0.057001565
-0.106148124 0.0077534425 -0.034490187 0.024987604 -0.092229985 0.06828136 -0.10758706 -0.14527825
0.055029638 -0.10908216 0.097693786 0.021650884 0.021791415 -0.021823855 -0.023945875 0.032055497
-0.08637092 0.06805358 0.06918058 -8.577735e-06 0.035897594 -0.032121684 -0.076770246 -0.10005203
-0.07252447 -0.12007563 -0.07931363 0.054512575 0.08654322 -0.1556973 -0.13114917 0.07553673
-0.04379776 -0.01703997 0.05393008 0.08255085 0.046091836 0.02423898 -0.0044063586 0.0031500757

opp_actors.0.fc3.bias f4 [64]
00000000: 3653 56bd 4905 fa3d df02 fc3c 1763 09be
00000010: aa89 0b3b 53f4 f3bd 7043 01be 0dec 9dbd
00000020: a9ac 043e fb73 b9bd 6261 8f3d e01a 08be
00000030: c6cb ab3c 6847 1e3e fd43 83bd 26e9 81bd
00000040: 3a7c a9bd e016 f2bd 89ca c33c c5af fcbd
00000050: 67b8 c5bd f2e3 083e b8a7 fd3d a34e a3bd
00000060: 4f5e 113d 5544 63bd 2e64 e03d b2e5 17be
00000070: f4df 09be ca23 b23d f646 b63b c713 53bd
00000080: 2af6 2a3d ec27 893d 44ca 93bd 4fe0 df3d
00000090: 3fe4 c33d a719 3bbd 6e2e 0dbe a066 913d
000000a0: 2f64 af3d b4aa 11be 8fdc 0bbe f02e 39bc
000000b0: 9927 07be 2815 a6bd a429 013e c777 3f3d
000000c0: e96b cc3d 257d 743d feea 0d3e b2c1 a03d
000000d0: cfa9 7e3d dacd ba3d 0f7f 7fbd 8218 083e
000000e0: b3e1 90bb 359b 0e3e fdff b9bd 0b0e eebd
000000f0: 1007 ef3d ebc7 b6bd 3bb2 5c3d 774a c23d
-0.05232545 0.12208039 0.030763088 -0.13416706 0.002129177 -0.119118355 -0.12623382 -0.07711039
0.1295649 -0.09055325 0.07000996 -0.13291502 0.02097119 0.15456927 -0.06409452 -0.06343298
-0.082756475 -0.11820769 0.023900287 -0.12338213 -0.096543126 0.13368204 0.123855054 -0.07973983
0.03549033 -0.05548509 0.10956608 -0.14833716 -0.13464338 0.086982325 0.0055626584 -0.051532533
0.041738667 0.066970676 -0.072163135 0.10931455 0.09565019 -0.04567876 -0.13787243 0.07099652
0.085640304 -0.14225274 -0.13658355 -0.011302695 -0.13198699 -0.08109504 0.12613541 0.046745088
0.0998152 0.05968966 0.13859174 0.078494444 0.06217366 0.09121294 -0.062377032 0.13290599
-0.0044214367 0.13926394 -0.09082029 -0.11623772 0.11671269 -0.0892485 0.05388091 0.09486859
