model5/DOMAC/agent_3/8actor_params.pkl (torch, 144687 bytes, 18 tensors)

fc1.weight f4 [64, 156]
000000 57 f5 b7 3b a2 79 07 bd 18 98 59 b6 47 7c b4 3c
       0.0056139636 -0.033074982 -3.242405e-06 0.022031916
000010 8b 90 bb bb cc 5c 4a bd af c1 02 3d c4 c1 10 bd
       -0.005724018 -0.049404904 0.031922992 -0.03534104
000020 0f 69 38 3d 63 8c 2f 3d 3d 03 22 bd da 9b 23 3d
       0.045022067 0.042858493 -0.03955387 0.039943554
000030 9e 22 92 3c 3d 12 f4 3c 90 9e 12 3c 52 dc 59 bd
       0.017838772 0.029793853 0.008948937 -0.05318863
000040 c8 de ab 3d ef 7d 82 3d f9 cd 55 bd 07 4a 36 bb
       0.083921015 0.06371676 -0.052198384 -0.002781512
000050 c9 fe 09 3d f7 e9 80 bd f0 cc 3c bd c9 c6 70 3d
       0.033690248 -0.06294625 -0.04609388 0.058783326
000060 9c 7d 28 3d ec 37 e7 bc 4c 16 ba bc 1b c4 ef 3c
       0.041135415 -0.028224908 -0.02271571 0.029268315
000070 7b 2e cf 3c f7 47 ed 3c ff 9d 9b bc 96 16 4a 3d
       0.025290718 0.02896498 -0.018996237 0.049337946
000080 b2 ec 92 bc f0 e9 4c bd 5f bc 4e bd 34 a9 7d bd
       -0.01793513 -0.050027788 -0.050472613 -0.061928943
000090 74 fe 09 3d 3e a8 7b bd 44 34 41 bd 36 d3 e4 3c
       0.03368993 -0.061439745 -0.047168985 0.027932744
0000a0 f9 2c 49 3d 19 85 30 bd b5 0e 24 bd 62 d4 91 bd
       0.049115155 -0.04309568 -0.04005309 -0.07120587
0000b0 db 3f ca 3b d0 f6 93 bc 79 08 fb 3c ae b5 80 bd
       0.006172163 -0.018062025 0.030643689 -0.06284653
0000c0 83 db 13 bd f8 6a ab 3d 3a 0e 98 3d 82 9f 89 3d
       -0.036098015 0.08370012 0.074245885 0.06719877
0000d0 47 02 59 3c 74 49 4a 3d e3 1c a8 3d 5b 3e 95 bd
       0.013245172 0.049386457 0.08208635 -0.07287284
0000e0 f3 66 8f bd 41 b9 a8 3d b2 44 24 3d a1 9b 38 bb
       -0.07002058 0.082384594 0.040104575 -0.0028168934
0000f0 5b 05 3f 3d 70 b5 6d bd 26 83 40 3d dd 96 56 3d
       0.046635967 -0.05803436 0.047000073 0.05238997
000100 1b 36 1f 3d 13 91 6b 3a bd 8a f5 bc f7 68 3e 3d
       0.03886996 0.00089861563 -0.029973382 0.04648682
000110 51 a1 98 3d d2 12 02 bb c4 6d 40 bd 1a ac fb bc
       0.07452644 -0.0019847644 -0.04697968 -0.030721713
000120 2f b7 81 bc 2d 21 93 bd e2 ef 14 bd 9e a0 0e 3d
       -0.015834419 -0.07184062 -0.036361583 0.034821145
000130 0d 34 58 bd 04 d8 83 3d 07 72 8e 3c 45 f3 3b 3d
       -0.052784014 0.06437686 0.017388357 0.045886297
000140 4a 7b b2 3c db 22 5b bd 8b 60 20 3d 93 d0 e9 bc
       0.021787304 -0.053500038 0.03915457 -0.028541839
000150 01 00 aa bc 4e e6 55 3d 1c 55 c0 bc e8 00 4b 3d
       -0.020751955 0.05222159 -0.023478083 0.04956141
000160 cf e7 83 bc 7b a3 1e 3d 34 26 b3 3c d6 d0 63 3d
       -0.016101746 0.038730126 0.021868803 0.055619083
000170 ab 0e c0 3c 0f 06 df bc 06 4d 24 3d d6 69 65 3c
       0.023444494 -0.027224569 0.040112518 0.014002284
000180 eb a0 2c bd c6 eb 96 bd b1 20 ba bd b1 6c 8b 3d
       -0.04214565 -0.07369189 -0.09088267 0.068078406
000190 0a 96 be 3c 2b b3 ba 3c c7 86 81 3c e5 05 2b bd
       0.023264904 0.022790512 0.015811337 -0.04175367
0001a0 32 8b 93 3d c9 d1 7c 3d a1 e9 92 bd 3b cd b3 3c
       0.07204284 0.061723504 -0.071734674 0.021948447
0001b0 49 7b 37 3d be 3f 95 bc 35 16 ac bb 57 7f 64 3b
       0.04479531 -0.018218871 -0.0052516707 0.003486594
0001c0 5c b6 9a bd af 22 24 bd 04 5f aa 3d 72 04 b4 bd
       -0.075543135 -0.04007214 0.08318904 -0.087899104
0001d0 ef 9a b8 3c 4b 5f b4 bd da b4 5a bc 98 ff b0 bc
       0.022534816 -0.08807238 -0.013348782 -0.021606252
0001e0 a6 01 95 bb 7f 40 e9 bc e6 1a 37 3d 2b a2 eb 3b
       -0.0045473156 -0.028473137 0.044703387 0.007190963
0001f0 a6 59 a1 bd 1d 6f 8e 3c 68 2f 72 3d 8f 87 9b 3d
       -0.07878427 0.017386967 0.05912724 0.07594215
000200 63 30 cf bc 0a f0 09 3d 14 cb 8d bd ee 51 ac 3d
       -0.025291627 0.033676185 -0.069235 0.08414064
000210 14 a8 22 3d 4a ef 8c 3c 35 56 8e bd 8a d3 f1 bc
       0.039711073 0.017203946 -0.069500364 -0.029519815
000220 71 1a aa bd 59 c6 49 3d 28 b4 65 bd bf 57 92 bc
       -0.083058245 0.049261425 -0.056080014 -0.017864106
000230 54 f8 a5 3b 11 34 a7 3c c3 bf 06 3d 60 70 12 3d
       0.0050650034 0.02041057 0.032897722 0.0357517
000240 5f 0a 99 3d 41 38 64 3c d5 a3 72 3b 20 3e c0 bc
       0.07472681 0.013929428 0.003702392 -0.023467124
000250 e5 c3 02 bd bf eb 5e bd 78 39 1d 3d 4c f5 78 3d
       -0.0319251 -0.054424044 0.038384885 0.06078081
000260 d1 c8 7a 3d 0a e1 fb 3c 7b e7 76 bc 52 80 71 bd
       0.06122667 0.030746955 -0.015069838 -0.058960266
000270 6f 0b b5 3d b0 8a 58 bc fd ed c7 bc c3 ac 64 bd
       0.088400714 -0.013216659 -0.024405474 -0.05582882
000280 6c 78 38 bd 6b 8e c6 3c 6f f7 66 3d 74 41 83 bd
       -0.04503672 0.024237832 0.056388315 -0.064089686
000290 cd a0 88 bd 14 18 e3 bb c4 b8 82 bd 03 6f 96 3d
       -0.06671295 -0.0069303606 -0.063828975 0.073453926
0002a0 5f 6c a3 3b ae 97 56 bd 6c c5 a8 3c 75 3b 83 3d
       0.004987284 -0.052390747 0.02060195 0.06407825
0002b0 e9 d6 a3 3c 3e 84 4e bd 4f 29 9f 3c ad 55 57 bd
       0.019999938 -0.050419085 0.019428877 -0.05257194
0002c0 b6 0d 5b 3d 23 87 0e 3b 49 1a d8 3c b0 4e dc bb
       0.053479873 0.0021748028 0.026379721 -0.0067232475
0002d0 35 6a 74 bd c4 9a f3 3c d3 54 a0 3d 33 77 06 bb
       -0.0596716 0.029736884 0.07828679 -0.0020517826
0002e0 25 b7 4e bc 01 c1 50 bd 1a 7c d3 bc b9 66 81 3d
       -0.012616907 -0.050965313 -0.025816012 0.06318421
0002f0 eb fa 11 bc 92 75 1b bd 58 cf 26 3d 6b 88 a3 bd
       -0.008909921 -0.03795392 0.040725082 -0.07985004
000300 12 19 94 3a e5 79 1c bd a0 30 0c 3c fe e9 87 bd
       0.0011298975 -0.038202185 0.008556515 -0.06636427
000310 c4 35 97 3c b8 11 bb 3c 37 f3 0a bb 5e 67 7a bd
       0.018458255 0.022835597 -0.0021202096 -0.061133735
000320 8d d3 67 3b 1e c3 a9 bd 16 8e 5d bc e9 1d b8 bb
       0.0035373897 -0.08289169 -0.013522645 -0.0056188
000330 11 ac 00 bd ed 81 e9 3b 9d 41 6a 3c a9 69 f8 3c
       -0.031414095 0.007126084 0.01429787 0.03032382
000340 28 09 83 3d 2d e7 b1 bd 88 3d 9c 3d 00 6e 59 3c
       0.06398231 -0.086866714 0.07628924 0.013270855
000350 29 ab 83 3d ec 36 b0 3d 11 35 60 bc 80 ac 54 bd
       0.064291306 0.086042255 -0.013684527 -0.05192232
000360 01 b2 1a 3d 15 12 68 3d 04 0d 61 3d 03 78 a0 bc
       0.037767414 0.05665787 0.054944053 -0.019588476
000370 a3 ef 0c 3d 3a e5 30 bd 0e 1b 95 bd 60 64 84 3d
       0.034408223 -0.043187357 -0.07280551 0.064644575
000380 bc 05 ff 3c 46 62 4d 3d f0 57 d2 3c 04 9f 3d bd
       0.031130664 0.05014255 0.025676697 -0.046294227
000390 d8 8e 52 bd f4 7f 07 3c f3 86 97 3d 99 31 4e bd
       -0.051405758 0.0082702525 0.073987864 -0.05034027
0003a0 eb 2d ba 3d 94 47 25 3d 06 2b 08 3c b5 1c 80 bd
       0.090907894 0.040351465 0.008311039 -0.062554754
0003b0 19 76 9d bc 09 90 8e 3d 40 05 d4 3c 74 96 e4 3c
       -0.019221352 0.06961066 0.02588141 0.027903773
0003c0 8a 54 ae bd e5 7c 7d bd 7b b0 ab bd 27 8d 6e bc
       -0.08512218 -0.061886687 -0.0838327 -0.0145600205
0003d0 98 a0 43 3b f1 39 73 bd 1f dd bc 3d c3 46 94 bd
       0.002985036 -0.05938143 0.09221863 -0.07240059
0003e0 71 dd 70 bd b6 f0 70 bd e7 bc c4 bc 55 4b f3 bb
       -0.058804933 -0.05882331 -0.024015857 -0.0074247518
0003f0 ad eb 2b bc c8 fc 04 bc 0f 41 42 3d dd 03 97 bd
       -0.010493201 -0.008116908 0.047425326 -0.07373784

fc1.bias f4 [64]
000000 71 43 a1 3c 7c 4f 27 3d 81 08 1e bd 06 b6 8b 3c
       0.019685479 0.040847287 -0.03858233 0.017054569
000010 b4 d1 cf 3c 37 e4 5e 3d b2 3f b6 3d 90 c0 57 bd
       0.025368549 0.05441686 0.08898868 -0.052673876
000020 66 f7 3a bc 8d 93 86 3d 5f ca a8 3c e5 ba 52 bd
       -0.011411523 0.06571112 0.02060431 -0.051447768
000030 46 04 aa 3c 01 99 80 3d 4d a8 b1 bb 95 f8 9e bd
       0.02075399 0.06279183 -0.0054216743 -0.07762257
000040 ab ef e2 bc ba 2b ad bc 0b 41 74 3c f0 0c 8a 3d
       -0.027702173 -0.021139015 0.014908086 0.06740749
000050 b2 1e 07 3d 4e 7b 33 3c 8f ba 08 bd d5 a9 34 3d
       0.032988258 0.010954691 -0.03338104 0.044107277
000060 48 83 a2 bd b9 7f 42 bb 7c 38 8a 3d e7 cc 0f ba
       -0.07935196 -0.002967818 0.06749055 -0.000548555
000070 8d c2 25 3d 4a 1c 95 bb f3 a1 9b 3d 25 f9 b6 3d
       0.04046874 -0.0045504915 0.07599249 0.08934239
000080 5d e0 f5 3c 87 d7 66 3d 21 0b ba 3c a3 ac 91 3d
       0.030014211 0.056357887 0.022710385 0.07113006
000090 d6 71 32 bc d2 35 6f bd 48 93 32 3c 86 05 4a 3d
       -0.010891398 -0.058400936 0.010899372 0.049321674
0000a0 d4 86 26 bd 30 e1 56 bd 32 76 97 bd e8 29 40 bd
       -0.040655926 -0.05246085 -0.07395591 -0.046914965
0000b0 2b c7 44 3d 8f e7 0b bd a4 32 a4 bd 85 c7 cb bc
       0.048041504 -0.03415638 -0.080174714 -0.024875412
0000c0 ca 43 70 bc 7b ac 1f 3d 2e 28 8b bd 23 90 83 3c
       -0.0146646 0.03898285 -0.06794773 0.01605994
0000d0 d5 97 68 bc 20 0e 38 bd 30 7c 30 3c 69 ea 8f bd
       -0.014196356 -0.044935346 0.010771796 -0.07027132
0000e0 26 0d 13 3d 53 6f 08 bc 1e e7 a2 bd 01 46 9b bc
       0.03590121 -0.008327323 -0.07954238 -0.018954279
0000f0 ba 70 e2 3c ff 63 15 3c 03 a1 aa 3c 4f cd a2 bb
       0.027641643 0.009118079 0.02082873 -0.0049683223

fc2.weight f4 [64, 64]
000000 21 b9 03 3e f0 cd 9b 3d d9 f9 e5 3c ac ab b3 3d
       0.1286359 0.07607639 0.028073238 0.08772978
000010 18 3b 89 3d 14 2d d7 3d d7 99 b9 3d 80 35 3f bb
       0.06700724 0.10506645 0.09062546 -0.0029176176
000020 bb 57 4c bd 58 93 aa bd 82 16 ca 3b e5 28 c6 bd
       -0.049888354 -0.08328885 0.006167234 -0.09675769
000030 6b 04 42 bd 12 a1 dd bd 02 02 5c bd 7c de fe 3d
       -0.047367495 -0.10821737 -0.053712852 0.12444779
000040 fc 35 e4 bc 0c 47 9b bd 43 7b 8d b9 7e 3d 1f bc
       -0.027857773 -0.075819105 -0.00026985453 -0.009719251
000050 8b 64 ec bd 27 2c 09 3e 3a 19 5c bd cd 51 cd bd
       -0.115426145 0.13395749 -0.053734995 -0.10025368
000060 f6 3b 72 bd cd a8 92 bd 49 23 fb 3c bb 3b 48 3d
       -0.059139214 -0.071611024 0.030656474 0.04888509
000070 1b 34 8c bd 43 70 cb bd 12 4d ea 3d 75 59 13 3d
       -0.06845876 -0.099335216 0.11440481 0.035973985
000080 60 8b b8 3c b6 b4 83 3d 06 77 f1 bd 48 1f ff 3d
       0.022527397 0.06430952 -0.1179028 0.12457138
000090 9b 50 c1 bd db be 65 bd d1 b3 d1 3d 29 08 67 bd
       -0.094392024 -0.056090217 0.102393754 -0.056404267
0000a0 93 2f 1f 3d 8b 4e ae 3d 09 17 dd bd 18 c5 81 bd
       0.03886373 0.08511075 -0.10795409 -0.06336421
0000b0 3b db 8a bd c5 93 7b bd 98 6c 7d 3d db c1 e2 bd
       -0.06780096 -0.06142022 0.06187114 -0.11072131
0000c0 75 81 0c 3e 5b c0 80 bd db ce e4 3d 6c 44 a1 bd
       0.13721259 -0.06286689 0.11172267 -0.078743786
0000d0 0c a5 dd 3c 27 c8 5e 3c 30 ff 73 bd ce 7b bc bc
       0.02705624 0.013597525 -0.059569538 -0.023008253
0000e0 17 0b f6 bc 40 5e 89 3d 3b c2 61 3d f2 1a 30 bd
       -0.030034585 0.0670743 0.055116873 -0.042994447
0000f0 5b 0f 90 bd 00 ff 29 bd 98 6d 8d bd f4 6b 6a bd
       -0.07034179 -0.041502953 -0.06905669 -0.05723186
000100 a8 96 fa bd 23 43 ed bd 4e 47 c4 bd 6a f0 a7 bd
       -0.12235767 -0.11585071 -0.09583913 -0.08200152
000110 12 98 ca 3d 64 b5 61 bb d7 51 d2 3c 98 85 7d 3d
       0.09892286 -0.0034440393 0.02567379 0.061894983
000120 81 85 84 3d 1f 39 9d 3d c3 e5 d8 3d 87 74 cb bd
       0.06470776 0.076769106 0.105906986 -0.09934335
000130 65 72 04 bc 42 69 93 3d 02 33 97 3d e3 e7 fd bd
       -0.008083914 0.07197811 0.07382776 -0.123977445
000140 3b 51 19 3d 4e 17 6e 3d 4d 27 d6 bd 2b 6f 9c 3d
       0.037430983 0.058127694 -0.10456715 0.07638391
000150 e9 01 d3 bb 1d 5a f8 bd 8f 4a d7 3d 88 38 8d bd
       -0.0064394367 -0.12126563 0.10512268 -0.06895548
000160 6b 50 b7 bd de 80 0c 3d 04 78 b3 bd 04 3a a2 bb
       -0.089508854 0.034302585 -0.087631255 -0.0049507637
000170 a3 49 96 3c 30 e7 a3 3b b1 4a 3b bd 3b d9 7a bd
       0.01834566 0.005001925 -0.04572553 -0.061242323
000180 24 13 df bd 37 89 f8 bb a0 1b 17 3b d6 d9 01 be
       -0.10892323 -0.0075847167 0.0023057237 -0.12680754
000190 25 0a 00 be 85 22 cc 3d 23 8c 25 bc 5f ba 3c bc
       -0.1250387 0.099675216 -0.010104212 -0.011519044
0001a0 fa ea 2d bd 6c 5c b7 bd 3b f7 8a 3b 05 b4 31 bd
       -0.04246042 -0.08953175 0.004240898 -0.04338457
0001b0 9c c1 f7 3d fe f0 b7 3d d3 2f 91 3d 82 33 93 bd
       0.12097475 0.089815125 0.070892 -0.07187559
0001c0 24 9f 65 bc cc 1f b7 3d 53 65 db 3d aa d0 be 3d
       -0.014014993 0.08941612 0.107126854 0.09317143
0001d0 78 1d 91 bd b0 01 86 3d 6e 2b 18 bd 42 98 b4 bd
       -0.07085699 0.065432906 -0.037150793 -0.088181034
0001e0 b7 f5 1f b8 7f d8 ad 3c 7f 50 ea 3d e5 82 c5 bc
       -3.8137394e-05 0.021221397 0.11441135 -0.024110267
0001f0 cd 70 f9 bc 9c 65 11 bd 1f a6 7e 3d 3d 8c 9d 3d
       -0.030449295 -0.035497293 0.062170144 0.07692764
000200 49 df d5 bd dd 98 a2 bd 03 4b bc bd a8 ed 11 3c
       -0.10442979 -0.079393126 -0.09193995 0.008906759
000210 e2 ef 97 3b e9 a4 db bd 29 28 4a 3d f0 89 f0 3c
       0.0046367506 -0.107248135 0.049354706 0.029362649
000220 12 0a e8 3b ec 6a 44 3d 70 f2 ba 3d bc 6c 8b 3d
       0.0070812786 0.04795353 0.091282725 0.06807849
000230 f9 01 d2 3c 69 3d 32 3d 5a 69 bc bd e0 43 00 be
       0.025635706 0.043515597 -0.09199782 -0.12525892
000240 fc ec e3 bd d1 7f 4b 3d e3 a5 95 bd ce 72 cc 3c
       -0.111291856 0.049682442 -0.07307031 0.024957087
000250 48 05 c3 3d 76 0d a6 37 42 36 b1 bd 41 be 59 3d
       0.09522492 1.979501e-05 -0.08652927 0.053159956
000260 eb eb d5 bc e6 3b 61 3d 5f 14 df bd 5b 2b 85 bd
       -0.026113471 0.054988764 -0.10892557 -0.0650241
000270 76 af ca bd 5a 05 b5 3d 94 d1 c4 3c ca 6e ad bd
       -0.09896748 0.08838911 0.024025716 -0.08468397
000280 28 c4 00 bd 7b 45 2f 3d 16 c8 9e 3d 2f b5 00 bd
       -0.03143707 0.04279087 0.07753007 -0.03142279
000290 53 8d e6 bd 05 b0 df bd af a9 a1 3d c2 83 7d 3a
       -0.11257424 -0.10922245 0.07893693 0.00096708175
0002a0 f2 13 9a 3d 27 60 ce 3d 4b 8d 17 bd 64 2f 98 bc
       0.075233355 0.10076933 -0.03699998 -0.018577285
0002b0 47 f1 84 bd 81 f0 99 3c e9 fd 8f bd 96 35 c4 3c
       -0.064913325 0.018791439 -0.070308514 0.023951333
0002c0 fc f0 2d 3b b2 73 86 bd 20 44 b5 3d b1 18 c2 bd
       0.0026541343 -0.06565036 0.088508844 -0.09477366
0002d0 75 b2 c2 bd c5 c7 18 bd ac b2 9d 3d 59 3e aa bd
       -0.09506694 -0.03729989 0.077000946 -0.08312673
0002e0 06 87 4d 3d c8 3c 9d bc f3 c4 2b 3d c6 cf c3 3d
       0.050177597 -0.019194022 0.041935872 0.09561114
0002f0 39 c1 c2 bc 3b 22 9f bd c8 27 1a bc 56 5c 03 bd
       -0.023773776 -0.07770201 -0.009408899 -0.03207048
000300 1e ec c9 bd 00 93 63 bc c0 cc 2d 3d ec eb 0e bd
       -0.09859489 -0.013890028 0.042431593 -0.03489296
000310 4c eb cd 3d 68 31 d9 3c 88 d1 fe 3d 96 2d d3 bd
       0.10054645 0.026512817 0.12442309 -0.10311429
000320 22 6f b5 3d e0 fb 55 3d 0e 27 c5 3d f0 71 bd bc
       0.088590875 0.05224216 0.0962659 -0.023125619
000330 7c 55 3f bd 90 25 ee bc e8 ef 5d bd 56 69 83 bd
       -0.046712384 -0.029070646 -0.05418387 -0.064165756
000340 fc 91 cf bd 7c 46 0e 3d 70 8b d4 bd 38 e3 06 bd
       -0.10135266 0.034735188 -0.10378158 -0.032931536
000350 60 15 75 bc e8 55 d9 bc b0 7f fb 3c f6 9c ac bd
       -0.0149587095 -0.026530221 0.030700535 -0.084283754
000360 0a 41 ab 3d a8 6e 9e 3c 78 d7 fa bc 0a b6 e7 3d
       0.083620146 0.019339874 -0.030620322 0.11314018
000370 c8 85 48 bd 6c cb 4c bd 48 7f fc bc 0a 2c d0 bd
       -0.04895571 -0.049998686 -0.030822411 -0.1016465
000380 d8 55 ed bd 2c c2 2c bd f0 36 eb 3c 40 4f 84 3d
       -0.11588639 -0.042177364 0.02871272 0.06460428
000390 dc d9 c8 3d bc 60 40 3d c0 f0 09 bc 3a 97 a1 3d
       0.098071784 0.046967253 -0.008419216 0.07890172
0003a0 52 f2 da 3d 90 41 b9 bd d8 ff e6 bd 68 34 9e bd
       0.1069075 -0.09045708 -0.11279267 -0.077248394
0003b0 5c 8c 7b 3d a4 5c 05 bd 80 66 8e bd 16 61 da bd
       0.061413154 -0.032559052 -0.06953144 -0.10663049
0003c0 30 08 08 bd 4a f6 b2 3d a8 07 b2 bd 18 10 bb 3d
       -0.033210933 0.08738382 -0.086928666 0.09133929
0003d0 74 d7 5f bd be e8 9c bd 80 2a 75 3c 90 b6 d2 3c
       -0.05464883 -0.076615795 0.014963746 0.025721818
0003e0 18 47 58 3d a8 9a f5 bd 1c 39 b2 3d cc bc 59 3d
       0.052802175 -0.11992389 0.08702299 0.053158566
0003f0 00 00 04 39 7e 92 de 3d 2c 61 29 bd 16 f6 ab 3d
       0.00012588501 0.10867785 -0.041352436 0.083965465

fc2.bias f4 [64]
000000 6b f1 f1 3d ca 02 92 bc 4b f2 e9 3d ac db 42 bd
       0.11813625 -0.017823596 0.11423167 -0.047572777
000010 cb 87 c0 bc 02 d9 91 bc 5e bc 72 3a 46 89 f5 bd
       -0.023502251 -0.017803673 0.0009259636 -0.119890735
000020 b4 9d 08 bd 00 63 89 bd b0 92 fc bd 12 bb d2 3d
       -0.033353522 -0.06708336 -0.12332666 0.10289587
000030 bd af 78 3c 0e b2 aa bd d5 72 9b 3d 19 c8 10 3d
       0.015178618 -0.083347425 0.07590262 0.035347078
000040 9c ba d1 bd 23 30 e3 3b a4 08 b7 3d da 01 c8 3d
       -0.10240671 0.0069332286 0.08937195 0.09765978
000050 06 16 ad 3d 5b 06 bc bd d0 95 9d bc ab fc 9a 3d
       0.08451466 -0.091809 -0.019236475 0.07567724
000060 e4 7f b2 bd 5f 2d 2e 3d aa b0 ee 3d e9 91 f8 bc
       -0.087157995 0.042523738 0.1165479 -0.030343013
000070 ef d2 f4 bc a3 49 a7 3d ca 43 ea bd ec 00 f4 3d
       -0.029885737 0.08168342 -0.11438711 0.11914238
000080 71 fb ad bd c8 f9 85 bd 45 62 65 3d 88 c3 e5 bc
       -0.08495224 -0.065417826 0.05600192 -0.028047338
000090 0f 31 87 bd 9a eb 35 bd 64 f1 f3 bd 09 4c b2 bc
       -0.06601154 -0.04441414 -0.11911276 -0.021764772
0000a0 85 73 d5 3d f5 49 10 3d 6b 5f 85 ba 87 b0 cf bd
       0.10422424 0.03522678 -0.0010175531 -0.10141092
0000b0 d3 ef d4 bd dc d1 e4 3d 04 21 3c bd 51 42 c0 3d
       -0.10397305 0.1117284 -0.045929924 0.09387649
0000c0 c6 08 cf 3d 2e e1 96 3c 2e 51 cf bd 1e 01 ea bc
       0.10109095 0.01841792 -0.10122906 -0.028564986
0000d0 fe d8 84 bd c0 c2 51 3d b6 0d 9e 3d 77 da e4 3c
       -0.064867005 0.05121112 0.07717459 0.027936203
0000e0 a0 7d ca 3c ac a3 30 bd b4 cf 90 bd 9c 6b e0 bc
       0.024718106 -0.04312484 -0.07070866 -0.027395062
0000f0 b6 65 92 3d e4 d8 55 bd 64 09 ec 3d 60 35 9b bd
       0.07148306 -0.052208796 0.115252286 -0.0757854

fc3.weight f4 [5, 64]
000000 ab 22 cb 3d 31 dd e9 bd 99 f6 00 3e d0 c4 ad 3d
       0.09918722 -0.11419142 0.1259407 0.08484805
000010 da dc a5 3d 38 f2 e6 3d 63 63 99 bd 2c 97 87 3c
       0.08098765 0.11276668 -0.0748966 0.016551577
000020 05 e8 96 3d c7 22 01 3e 9a 7b 9c bd f9 4d db 3d
       0.07368473 0.12610923 -0.076407626 0.107082315
000030 bc 59 06 b9 3e a6 6c bd 76 86 b5 bd 00 20 8d bc
       -0.00012812664 -0.05777573 -0.08863537 -0.017227173
000040 a6 a5 98 3d fa 29 f4 3d fb 51 04 3e 15 2f 3b 3c
       0.0745347 0.11922069 0.12921898 0.011424799
000050 93 72 d4 bd 8b 25 cc 3c 78 f3 74 3c 98 2f f2 3d
       -0.10373416 0.024920246 0.014950626 0.11825484
000060 d9 96 7d 3d cf 5b 26 bd 09 9b 98 bd b0 e0 20 bc
       0.061911438 -0.0406149 -0.074514456 -0.009819195
000070 1a f1 85 bd 34 94 0a bd fe 25 ad 3d 81 4e f6 3d
       -0.06540127 -0.033832744 0.08454512 0.12026692
000080 d8 5b ae 3d 78 98 e0 bc ab 0e 95 bd 80 05 c4 3d
       0.085136116 -0.027416453 -0.07278188 0.095713615
000090 63 f9 1a bd 58 4a d6 bd f8 fb b8 3d 26 c1 7c bd
       -0.03783549 -0.10463399 0.09032434 -0.06170764
0000a0 d7 6f c4 3d 86 76 ed 3d 3e da cc bd 29 05 9d bc
       0.09591644 0.11594872 -0.10002564 -0.0191675
0000b0 4b a6 b2 bd 86 8f a0 bd 48 5f f6 bc 5b fc 3d bc
       -0.08723124 -0.07839875 -0.03007473 -0.011595811
0000c0 e4 a1 e5 3d 35 1e 35 bd 6a f3 a2 3d ab e8 57 3d
       0.11212519 -0.04421826 0.07956584 0.052712124
0000d0 a5 97 6b 3d d5 2f 73 bd 1d 9f eb 3d ec 86 c8 bd
       0.057517666 -0.059371788 0.11504958 -0.09791359
0000e0 1a 74 9e bc 90 aa f0 3c 16 83 af bd fc 84 f4 3d
       -0.01934247 0.029378206 -0.085699245 0.11939427
0000f0 3e f3 91 bd 21 a8 7f 3d 16 bb b5 3d c5 cb fe 3c
       -0.07126473 0.0624162 0.088735744 0.031103024
000100 a1 63 04 3e 6e 72 f5 bd b2 da bc bd a4 9c 78 3d
       0.1292863 -0.11984716 -0.092214 0.06069626
000110 e1 f3 a7 bb 45 11 e8 3c 50 a5 de 3d 48 b9 0b 3d
       -0.005125508 0.028328547 0.108713746 0.034112245
000120 08 86 ab bd 84 ee d6 bd e6 4d dd 3d 7a 64 e4 bd
       -0.08375174 -0.10494712 0.108058736 -0.11151977
000130 41 96 0c bd 24 bf 99 bd 81 80 1f bd b8 86 f6 bc
       -0.03432298 -0.0750716 -0.03894091 -0.030093536
000140 86 8a 8d bd 9b d2 c4 bd 45 66 d6 3d a2 4d d9 3d
       -0.06911187 -0.09610482 0.10468725 0.106105104
000150 54 84 b2 3d 2e 81 d2 bd b0 38 9a bc 9a 78 00 3d
       0.08716646 -0.10278545 -0.018825859 0.031365015
000160 9f 64 d0 bd 2b 75 06 3e 6f 1e 08 3d cd dd df 3c
       -0.10175442 0.13130634 0.03323215 0.027327443
000170 f1 60 63 38 ff 70 c4 3d e0 73 ab 3b 76 b8 ea 3d
       5.42113e-05 0.09591865 0.0052323192 0.114609644
000180 71 e3 7b 3d 9a dc 3b bd e5 33 9a bd 4c af f3 3d
       0.061496202 -0.04586468 -0.07529429 0.118986696
000190 46 54 4f 3d 11 0d c1 bd 2c 01 39 bd 52 ba 88 3d
       0.05061748 -0.0942632 -0.045167133 0.06676163
0001a0 80 45 b8 3d 99 88 5e bb 25 0a e2 bd b5 16 6c 3d
       0.08997631 -0.003395593 -0.11037091 0.057638843
0001b0 d8 68 45 bc 90 30 fd 3c 70 42 39 3d ac bf 45 3d
       -0.0120489225 0.030906945 0.045229375 0.048278496
0001c0 85 e2 12 3d 75 d3 fc 3c 46 29 8e bd 0a 57 83 3d
       0.035860557 0.03086255 -0.06941466 0.06413086
0001d0 67 fc f7 bc 03 08 03 3e 46 7e cc 3d 1e 37 b1 3d
       -0.030271722 0.12796025 0.09985022 0.08653091
0001e0 57 1f e1 3c 60 93 2f 3c 8c c4 ee bd 94 35 4b bc
       0.027480764 0.010716289 -0.11658582 -0.012402911
0001f0 86 4f b1 3d c4 17 09 bc cd 3a 7c 3d 74 96 f8 bd
       0.08657746 -0.008367483 0.061579514 -0.12138072
000200 c4 e3 02 bc 93 7b 57 bd 3c ee a5 3d 34 8b 4f 3d
       -0.007988874 -0.052608084 0.0810208 0.050669864
000210 d2 70 92 3c 0a 4c 7e 3d 67 f7 ea 3d 25 49 26 3b
       0.017876063 0.062084235 0.114729695 0.0025373187
000220 b7 db 86 bd 8c 74 71 3d 80 26 83 3d e6 7d 40 bd
       -0.06584876 0.05894904 0.06403828 -0.046995066
000230 9a 88 5e bb eb 1f de 3d 37 a5 f0 bd 78 1f c5 bd
       -0.0033955933 0.108459316 -0.11750262 -0.09625143
000240 3e 86 8a 3d 9d 68 08 bc 93 d0 85 bd 34 0f 36 3d
       0.06763886 -0.008325723 -0.06533923 0.044448093
000250 c6 77 d7 3d f2 4c 08 3e 80 d5 f1 3d 2a 4a 39 3d
       0.10520892 0.13310602 0.118083 0.045236744
000260 a7 51 b1 bd 66 bd f6 bd be c7 b7 3d c8 be d0 bc
       -0.08658152 -0.12047844 0.08973645 -0.025481597
000270 a0 df 03 bd 4d f9 38 3d 04 d0 76 bd 0c 77 68 bd
       -0.032195687 0.045159627 -0.060256973 -0.056754157
000280 38 c4 c1 bd 32 66 6c 3c 1c f0 b8 3d c4 02 c7 3d
       -0.09461254 0.014428662 0.09030172 0.097173244
000290 18 cd b5 3d 1d ae a7 3d 3c 8b 4d bd fe 2b 71 bd
       0.08877009 0.08187506 -0.050181612 -0.058879845
0002a0 8a 2f 93 3d d2 4d bf bd 35 ce b2 3b e9 ac a9 bd
       0.07186802 -0.09341015 0.0054567107 -0.08284933
0002b0 fa eb 48 bd 13 b5 b1 3c 2e be 86 3d 2c a0 74 3d
       -0.04905317 0.021692788 0.06579243 0.059723064
0002c0 85 0e 08 bb 53 eb 0a bd ac 35 26 bd c0 c0 61 3d
       -0.0020760607 -0.03391583 -0.04057853 0.05511546
0002d0 5a 3a f7 bd 10 b1 d0 bd 4d bd 50 bd bc 13 a1 bc
       -0.120716766 -0.10190022 -0.05096178 -0.01966273
0002e0 68 dd 0f 3b 50 37 87 3c 20 f8 e8 3c 58 1d fa bd
       0.0021952037 0.016505867 0.028438628 -0.12212628
0002f0 ab b0 2e bd 0d c7 be 3d ac 64 fd bd ca a5 7f bd
       -0.042648952 0.0931531 -0.12372717 -0.06241397
000300 08 d1 5a bd f1 95 c3 bd 27 8e 06 bd 16 58 af bd
       -0.053422004 -0.095500834 -0.03285041 -0.08561723
000310 53 a3 e5 3d 96 9b 82 bd 90 04 fb bd 20 e6 fb bd
       0.11212792 -0.06377332 -0.122567296 -0.12299752
000320 cf 94 ae 3d 7c 28 b4 3d ba 23 b3 bd 52 42 db bd
       0.08524477 0.08796784 -0.08747049 -0.10706009
000330 f1 4f bf bd 8f 60 f2 3c 45 3e 19 3d c8 8b 98 3d
       -0.093414195 0.029587058 0.0374129 0.07448536
000340 78 b6 46 bd d3 66 15 bd 4a a2 8d 3d 88 b6 bc bd
       -0.04851386 -0.036475014 0.0691572 -0.092145026
000350 02 02 51 bd b4 80 d5 3d 19 b9 f7 bd 05 df c5 3d
       -0.051027305 0.10424939 -0.120958515 0.09661678
000360 1d 17 9c b9 01 6d 45 bd f2 e4 81 3c e9 d6 bf bd
       -0.0002977186 -0.048199657 0.01585624 -0.09367163
000370 e2 74 d4 3d 49 a7 0f bc f4 48 96 3d 29 ab ac bd
       0.10373856 -0.008767911 0.073381335 -0.08431084
000380 05 04 06 be b0 99 2e bd 0f db ae 3d 54 1d 04 3d
       -0.13087471 -0.042627037 0.08537876 0.032254532
000390 a9 3c f1 3d 98 b8 b3 3d 58 dd 7e 3d b1 96 d9 3d
       0.11779148 0.08775443 0.06222281 0.10624445
0003a0 60 4b 97 3c 64 55 43 3d 64 f7 c7 3d 0a 10 c0 bd
       0.018468559 0.047688857 0.09763983 -0.09378059
0003b0 79 39 ba 3d ed e6 4e bd c0 a3 c4 3c c4 d4 ff bd
       0.09092993 -0.050513197 0.024003863 -0.12491754
0003c0 ed 18 f7 bc f9 0f a9 3d 28 39 4f bd d2 bf bf bc
       -0.030163253 0.08255 -0.050591618 -0.023406897
0003d0 a2 34 1c 3c e8 86 42 3d 71 04 8a bd 7b 9f 0f bd
       0.009534033 0.047491938 -0.067391284 -0.0350642
0003e0 43 13 7d 3d 54 ad 67 3d e0 bb a7 bb 0d 26 c2 bc
       0.061785948 0.056561783 -0.005118832 -0.023699785
0003f0 51 88 f6 bd bd f3 04 bb d6 c8 26 bc 8a f2 00 be
       -0.12037719 -0.002028688 -0.010179719 -0.12592521

fc3.bias f4 [5]
000000 f3 f8 c6 3d ec c9 bd bc 6b af ea 3d 7d 8f 7f bd
       0.09715452 -0.023167573 0.114592396 -0.0623927
000010 c9 b8 db bc
       -0.02682151

opp_actors.0.fc1.weight f4 [64, 28]
000000 8a bd 12 3c 81 13 e2 3d 65 ae 1d be de f4 06 be
       0.008956322 0.11038876 -0.15398557 -0.13179347
000010 5d 79 94 bd d6 a9 6c 3d eb 19 7e 3b 67 43 1f 3e
       -0.07249711 0.057779156 0.0038772773 0.15553056
000020 ed 21 7e bc 52 c3 66 3d 89 af 41 bd 07 66 f4 bc
       -0.015511018 0.056338616 -0.047286544 -0.029833807
000030 96 f2 35 be 9c 6b 02 be 86 8b 9f bd b5 ee 77 3c
       -0.1776832 -0.12736362 -0.07790284 0.015132596
000040 38 51 a9 3d 35 fd f8 3d 76 0e fc bd 02 76 a2 bd
       0.08267444 0.121576704 -0.12307446 -0.079326645
000050 d6 e7 97 3d 1a 75 22 3e 7a 80 09 bd 37 e2 15 3e
       0.07417266 0.15864983 -0.03356979 0.14637075
000060 2a 51 e3 bc d4 48 fb 3c 93 a4 36 3e 2d 6a 28 be
       -0.027748663 0.030674376 0.17836218 -0.16446753
000070 6a 9e e8 bd 98 8d 2c bd 84 44 9a bd 5c b1 24 3e
       -0.1135834 -0.04212722 -0.075325996 0.16083282
000080 92 31 02 be ca cf af bd 4c e8 05 be ef e0 35 be
       -0.12714222 -0.085845545 -0.13076895 -0.17761587
000090 1e f0 e7 bd 3c 1c 2b 3e e0 8b bd 3d ac 13 c9 3d
       -0.113250956 0.1670999 0.09255195 0.09818205
0000a0 07 6c 2e 3c 66 ea ce bd 04 f6 02 3d 15 3d 34 be
       0.010645873 -0.10103302 0.0319729 -0.17601426
0000b0 2d 8a 07 be ea 04 c2 bd 95 dd f3 3d 6e c1 ef 3d
       -0.13236304 -0.094735935 0.11907498 0.11706816
0000c0 dd c3 a6 bd fc 99 33 bc df d1 01 3e 5e 83 3c 3e
       -0.08142827 -0.010962006 0.12677716 0.18409488
0000d0 2d 07 8b 3d 01 16 0d 3d 05 1e 08 3e 0b 8b d3 bd
       0.06788478 0.034444813 0.13292702 -0.10329255
0000e0 34 d6 df 3c 9e c0 1d be f0 05 08 be 1a d0 cb bd
       0.02732382 -0.15405509 -0.13283515 -0.099518016
0000f0 c1 da ac 3d 36 27 95 3d 91 b8 de bd 76 95 5d 3d
       0.084401615 0.072828695 -0.10875047 0.054097615
000100 e2 81 c8 3d 46 cf d8 bc 20 45 eb 3b 94 18 1f 3d
       0.09790398 -0.026466023 0.007179871 0.0388418
000110 4b cd e6 3d 1d 84 34 3e 1f 21 15 be 09 04 92 bd
       0.11269625 0.17628522 -0.14563416 -0.07129676
000120 ce 95 8f 3d 55 51 1b 3e 13 71 26 3e 9d e1 2a 3e
       0.07010995 0.15167744 0.16254072 0.16687627
000130 9a 85 06 3d 21 e4 29 be 31 b7 b1 3c cb 8a f4 bd
       0.032842256 -0.1659093 0.021693798 -0.11940535
000140 61 41 33 be bb 3d 27 3e 07 7a 1b 3e 98 23 48 be
       -0.17505409 0.16332142 0.15183268 -0.19544828
000150 c9 57 d3 3c 59 a4 24 bd 67 d2 14 bd 77 df b8 bd
       0.025798695 -0.040195797 -0.036333468 -0.090269975
000160 00 3b 85 3d 49 c2 ed bd 9b f9 7d 3d 89 1f b6 3d
       0.06505394 -0.116093226 0.06200562 0.088927336
000170 b1 6d 03 3e cf f9 85 3d 87 45 40 be f7 ac 00 be
       0.12834813 0.06541788 -0.18776523 -0.12565981
000180 4e 8c b7 3d ca 26 0d 3d cc f5 16 be 47 77 e1 bd
       0.08962308 0.03446082 -0.14742202 -0.110090785
000190 68 87 30 3e 17 12 f7 3d f8 34 ae bd af c8 4e bd
       0.17239153 0.12063997 -0.08506197 -0.050484356
0001a0 6f 80 39 be 02 25 1e bc 6b bf 13 be aa 85 16 be
       -0.181154 -0.009652378 -0.14428489 -0.14699426
0001b0 42 e1 58 bc 2e 4c ab 3c 66 61 a4 bd 21 58 d2 3d
       -0.013237299 0.020910349 -0.0802639 0.102707155
0001c0 c8 c5 f0 bd ee 3b 2e 3e 09 4c 00 3e df 1c 27 be
       -0.11756474 0.17015049 0.12529005 -0.16319607
0001d0 16 15 31 bd f0 48 45 3c de 65 c1 3c 7c df 35 3d
       -0.043233 0.012041315 0.023608144 0.044402584
0001e0 fb f5 93 3d 54 07 7f 3c 4f f9 ca bd a7 11 bb 3d
       0.072246514 0.015565712 -0.09910833 0.09134226
0001f0 10 74 38 be 83 7c e1 bd ec c5 41 bd 7e db c6 bd
       -0.18013024 -0.11010077 -0.047307894 -0.097098336
000200 b2 dd 8a bd 57 b9 1c be 2a fc 2d bd 7c ba 38 3d
       -0.06780566 -0.15305077 -0.04247681 0.04509972
000210 67 30 00 be 24 5a 14 bc 34 33 0f 3e a7 11 a6 bc
       -0.12518464 -0.009054694 0.13984376 -0.02027209
000220 d9 20 c3 3b 85 2f 76 bc 8a 8f 39 3d b9 5f f4 3d
       0.0059548435 -0.015025978 0.045302905 0.1193232
000230 c5 02 3f 3e 40 04 00 3e f2 8a 34 3e d8 75 f2 bb
       0.186534 0.12501621 0.17631128 -0.007399302
000240 62 6c 2f be 34 0f a5 bd ba 41 0e 3e ab e2 b0 ba
       -0.17131189 -0.080595404 0.1389226 -0.0013495287
000250 dd 39 c8 bd 03 5e 15 be 7d c3 33 be 54 64 21 be
       -0.097766615 -0.14586644 -0.17555042 -0.15760928
000260 e9 6d 0a bd 6a 0c d8 3d 52 3f d1 3d 19 c7 36 be
       -0.033796225 0.10549243 0.102171555 -0.17849387
000270 f3 e9 f3 3d f7 2a 10 be e1 05 19 bd 8c 15 94 bd
       0.11909857 -0.1407889 -0.037359122 -0.07230672
000280 e4 2b 0a bd 12 c2 19 bd dc 8d 30 be 3b 74 24 be
       -0.033733264 -0.037538595 -0.17241615 -0.16059963
000290 06 41 f1 bc b0 81 43 3c e9 3c a8 bd d3 dd a3 3d
       -0.02944995 0.011932775 -0.08214743 0.08001294
0002a0 69 3a 36 be 72 07 ab bc 4c 67 25 3e 6d 35 a5 bd
       -0.17795719 -0.020877574 0.16152686 -0.08066831
0002b0 76 c5 27 3e b6 67 7e 3d 6b a4 2e be 4e 4d e9 3d
       0.16383919 0.062110625 -0.17054908 0.11391698
0002c0 df f3 b9 bc aa d5 ab bd bf 26 16 3e de 99 1d be
       -0.022699295 -0.083903626 0.14663218 -0.15390727
0002d0 1a cb 80 3c 3e 7e 30 bd 89 31 0a 3e 66 55 5b 3d
       0.015721846 -0.043089144 0.13495459 0.05354824
0002e0 90 43 b2 3d 68 b1 79 3d d5 ae 49 bd 12 14 27 bd
       0.08704293 0.060960203 -0.049239 -0.040790625
0002f0 9f 87 1f be 75 09 c5 3d 41 4f 15 3e c4 89 fe 3d
       -0.15579079 0.096209444 0.14581014 0.124286205
000300 7b e5 07 be 51 02 ca 3a 63 0b 07 be f5 e3 e7 bd
       -0.13271134 0.0015412067 -0.13187937 -0.11322776
000310 78 ca d9 bd 1c 43 88 3d df 27 e8 bd e9 21 9b bb
       -0.10634321 0.06653425 -0.1133573 -0.004734267
000320 80 d3 1b 3c a4 b5 00 3e 5f 1e 11 be ec ca 04 be
       0.009510875 0.1256929 -0.14171742 -0.12968034
000330 1e 03 e2 bd 49 57 07 3e 5a 13 8e bd f0 57 26 3e
       -0.11035751 0.1321689 -0.06937285 0.16244483
000340 b4 d2 87 3d 5f 27 b0 3c 00 64 b8 ba 78 89 0b bd
       0.06631985 0.021503149 -0.0014067888 -0.034066647
000350 93 46 c3 3c f6 db 1e bd ac b7 4e bb 35 1e cc 3c
       0.023837363 -0.03878399 -0.0031542582 0.024916748
000360 04 ac 16 be 3f a7 cf bd 60 60 1b 3e b6 3d 1e be
       -0.14714056 -0.101393215 0.15173483 -0.15453228
000370 4d df 7c bc 8a bb 47 3e 9b e1 94 3d 9e b8 23 3c
       -0.015434098 0.19505134 0.07269593 0.009992747
000380 0a c6 1d be 19 a9 d1 3d 1b 05 0a be f8 db 40 bd
       -0.15407577 0.10237331 -0.1347851 -0.04708478
000390 ef e2 71 bd 42 e7 a4 bc 82 64 3e 3c c7 a7 25 3e
       -0.05905431 -0.020129804 0.011620643 0.16177283
0003a0 03 99 ea 3c 63 90 33 3e 39 9b 00 3e 45 51 ec bd
       0.028637415 0.17535548 0.12559213 -0.115389384
0003b0 ed 5e b9 3d f3 50 09 be 12 09 a4 bd a5 70 82 3d
       0.09051309 -0.13409786 -0.080095425 0.063691415
0003c0 68 cd 8f 3d 02 93 1a 3e 82 3e 62 bd fc 68 ef 3b
       0.070216 0.15095142 -0.055235393 0.0073062163
0003d0 e4 fa d5 3d dd 35 39 be 10 fe 11 3e 54 ed 1b be
       0.10448244 -0.18086953 0.14257073 -0.15227252
0003e0 91 f5 b9 3b f0 61 b4 bc d2 4d c0 bd cf a8 12 3d
       0.0056750257 -0.022019356 -0.09389843 0.03580552
0003f0 93 87 17 3e 1c c8 7c bd 69 66 e8 bd 86 0f 9e bd
       0.14797811 -0.061714277 -0.11347658 -0.077178046

opp_actors.0.fc1.bias f4 [64]
000000 d9 a8 24 3e 84 f7 da 3d 68 62 8a 3d 33 d7 6e bd
       0.16080035 0.10691741 0.06757051 -0.0583107
000010 81 06 c9 3d 19 6c ca 3d 17 39 63 3d 7c 81 e7 ba
       0.09815694 0.09883899 0.055474367 -0.0017662491
000020 92 12 1e 3d c6 ad e8 bb ad 52 08 be 11 78 5a 3d
       0.03859193 -0.0071007935 -0.13312788 0.05333716
000030 c7 7f 0b be 57 9e d4 3d db 6e db bd 50 05 44 bd
       -0.13622962 0.103817634 -0.107145034 -0.04785663
000040 40 2f be bd 38 c3 23 3e 06 16 f8 bd ac c6 d2 3d
       -0.09286356 0.15992439 -0.12113576 0.102918
000050 3d a2 cf 3d f3 f8 12 3e 16 e0 5e 3d be 51 f4 3d
       0.10138366 0.14352779 0.054412924 0.119296536
000060 89 68 1f 3e e3 2d 44 3d 86 c9 8c 3d 2a 1f 0f be
       0.15567221 0.047895323 0.06874375 -0.13976732
000070 33 93 67 bd ec ef fe 3b 26 73 04 3d 58 51 94 bd
       -0.056536864 0.0077800658 0.032336377 -0.072420776
000080 2d e1 3b be 9e c4 53 bd ed 54 77 3d f7 85 33 3e
       -0.18347616 -0.05170118 0.060383726 0.17531572
000090 fc 90 33 be 19 a2 c7 3d 9e 7e 3b be c6 00 3d be
       -0.17535776 0.097477145 -0.1831002 -0.18457326
0000a0 67 57 f2 bd 66 23 63 bc e2 2f 7a 3d 7e 2b 17 be
       -0.11833077 -0.01386342 0.06108082 -0.14762685
0000b0 75 1a 20 3e 40 81 32 3e 6e 86 c3 3c b4 96 26 3e
       0.15635093 0.17432117 0.023867812 0.16268426
0000c0 60 e6 99 bd 9e 5b 8b bd 0c 4f 10 bd 4d c9 6e 3c
       -0.07514644 -0.06804584 -0.035231635 0.014574361
0000d0 09 d1 00 be 5b e4 1a be 6b 84 83 3d 8d 8b 4b 3d
       -0.1257974 -0.15126173 0.06421741 0.049693633
0000e0 04 7e 45 3e 43 b6 97 bd 51 b5 a1 3d 57 04 b1 bd
       0.19286352 -0.074078105 0.078959115 -0.08643406
0000f0 d4 db bf 3d 94 3f 98 bc b0 66 1b 3e 1d 46 e3 3d
       0.09368101 -0.018585004 0.15175891 0.110973574

opp_actors.0.fc2.weight f4 [64, 64]
000000 ac 7f d6 3d 9c f2 84 3d c7 8d 66 3b ce 0f da 3d
       0.1047357 0.064915866 0.003517972 0.10647546
000010 7b b9 95 bd b2 9e f3 3d c6 22 f4 3d 0e 0f f2 3d
       -0.07310768 0.11895503 0.11920695 0.11819278
000020 54 07 6d bd 86 b8 84 bd a8 7f 6f 3b 7e a6 27 3d
       -0.057868317 -0.064805076 0.0036544595 0.040930264
000030 e7 d7 7d 3d 70 22 50 3d c7 78 d8 3d 58 bb 01 bd
       0.06197348 0.050814092 0.105699115 -0.031672806
000040 b1 75 3c bd 4a 28 33 3d f8 9e 14 3d 9f dd 8e bd
       -0.046010677 0.043739595 0.036284417 -0.069758646
000050 b8 6d 76 3c d4 11 c0 bd 05 97 10 bd dc 06 49 bd
       0.015040807 -0.093784004 -0.035300273 -0.049078807
000060 58 02 e1 3d 98 ce ea bd ab 56 92 bd f2 1f 02 be
       0.10986775 -0.11465186 -0.07145437 -0.12707499
000070 43 b3 cb 3c 90 d8 c3 bd 63 2c 18 3d 2d d4 b7 bd
       0.024865752 -0.095627904 0.037151705 -0.08976016
000080 7e 43 ae bd 3d 5e 87 bd 68 f4 ab 3c 7c 20 f6 3d
       -0.08508967 -0.066097714 0.020990565 0.12017915
000090 30 59 e8 3d 14 a9 f4 bb ff 28 fe bd b6 a2 31 bd
       0.11345136 -0.0074664447 -0.12410163 -0.043368064
0000a0 65 c1 45 bd df 9d be bc a2 37 47 3d de 2f 78 3d
       -0.04828014 -0.023268638 0.04863704 0.060592525
0000b0 5a bf 69 3d 72 24 16 3d 18 8b 40 bd 60 10 e5 3a
       0.057067253 0.03665585 -0.04700765 0.0017476194
0000c0 55 3c 51 3c 18 41 90 bd 53 08 56 bc 8c ee 95 bc
       0.012770732 -0.07043666 -0.013063508 -0.018302225
0000d0 56 4d ed bd 26 68 a7 3d fb 1d 45 bc 37 49 dc bd
       -0.11587016 0.081741616 -0.012031074 -0.10756152
0000e0 6b e3 cc 3d e0 b0 8a bd 44 d4 35 3d 92 da 00 3e
       0.10004314 -0.067720175 0.044391885 0.12583378
0000f0 f8 15 cd 3b a2 e5 06 3d d7 e3 55 3d 8e ac c5 3d
       0.0062587224 0.03293384 0.052219238 0.09652053
000100 e0 17 1d bd 5a 0e 90 bd 20 45 20 bc 80 34 c8 3d
       -0.038352847 -0.07033987 -0.009782106 0.097756386
000110 40 17 30 3c 28 df b1 3d 00 a0 73 ba 88 17 1d 3d
       0.010747731 0.08685142 -0.0009293556 0.03835252
000120 60 6d 8e 3b 40 61 5e 3b 56 9d f3 bd d0 cd df bd
       0.0043465346 0.0033932477 -0.11895244 -0.109279275
000130 20 40 2a 3c f4 67 7d 3d fa f7 ab 3d e0 b8 b1 3b
       0.010391265 0.061866716 0.08396907 0.00542365
000140 b0 d1 57 3d 2c 23 56 3d 1a fe dc bd c8 01 e1 bd
       0.052690208 0.052279636 -0.107906535 -0.10986668
000150 14 7d c6 bd c0 d7 0c 3b 7e df a1 bd c0 d8 23 bd
       -0.096918255 0.0021490902 -0.07903956 -0.04000163
000160 70 34 99 bc 48 c3 47 3d 70 6c ed 3c 2a 7c ed 3d
       -0.018701762 0.04877022 0.028982371 0.11595948
000170 de e8 e6 3d 22 51 a3 bd 00 76 ce b9 08 19 a9 3c
       0.11274885 -0.07974459 -0.000393793 0.020641819
000180 d4 7c df 3d f8 ad 1e bd 94 37 49 bd 30 2a a2 bd
       0.10912481 -0.03874013 -0.04912527 -0.07918203
000190 ee a2 bc 3d b4 0d 11 bd c4 c1 3f bd 8e 26 ad 3d
       0.09210764 -0.03541346 -0.04681565 0.08454619
0001a0 d8 8f eb 3d 60 9c ac bb ba 74 b4 bd c2 95 d0 3d
       0.115020454 -0.005267665 -0.08811326 0.10184814
0001b0 40 1b 2f bd 3c f1 6b bd 60 f9 b3 bd 20 3d 76 bd
       -0.042750597 -0.057603106 -0.08787799 -0.060116887
0001c0 82 7d c8 bd 50 c4 93 bd 8c 34 e9 bd d8 63 ce bc
       -0.09789564 -0.07215178 -0.11386976 -0.025194094
0001d0 cc dc 4d 3d 0c 56 c2 bd 00 0c 37 b9 58 ce 3c bd
       0.050259396 -0.094890684 -0.0001745671 -0.046095222
0001e0 4c a7 77 3d 22 ba dd 3d 98 be 87 bc 40 d8 80 bd
       0.06046228 0.10826518 -0.016570374 -0.062912464
0001f0 84 b3 c4 bd d4 67 96 bd 84 d3 13 3d 30 f3 ea 3c
       -0.096045524 -0.073440224 0.03609039 0.028680414
000200 a4 3b 85 3d 1a 62 b0 bc 42 aa 7b 3d a9 71 e6 bd
       0.06505516 -0.021531153 0.061441667 -0.11252148
000210 b5 c0 03 3d 22 98 f5 3d d8 b1 00 be 6c 8e 87 bd
       0.0321662 0.11991908 -0.12567842 -0.06618962
000220 7d d9 9e 3d 18 8a a9 bc 3d 3d 8b bd d7 96 97 3d
       0.07756326 -0.020695731 -0.0679879 0.07401817
000230 10 5b 04 3c a9 0a 62 3b 4f 10 24 bd 47 47 bf 3d
       0.008078352 0.0034491217 -0.040054616 0.09339767
000240 c1 a1 8e 3d 4f 82 a6 3c 2e c6 95 3c 57 9b 78 3d
       0.06964446 0.020325808 0.018282976 0.06069502
000250 51 a7 99 3d 21 ca 58 bd f1 e8 7a bc 2f 78 59 3d
       0.07502616 -0.05292714 -0.015314327 0.05309313
000260 c1 88 7f bd 4b ed e7 3d b2 6a b3 bd 71 57 62 3d
       -0.062386278 0.11324557 -0.08760585 0.055259172
000270 8d cd b9 bd 16 5d 20 3d 99 f0 af 3d 4f 1e 6f 3c
       -0.09072409 0.039151274 0.08590812 0.0145946285
000280 c5 fa 53 bc 35 ba 9d 3d 5f e1 be bd d0 0d b5 bd
       -0.012938206 0.07701532 -0.0932033 -0.08840525
000290 97 f5 d7 bd 46 95 a2 bd 73 5f db 3a 8a f4 67 bd
       -0.105448894 -0.07938628 0.001673682 -0.056629695
0002a0 bb ad e4 3c 3d e0 9a 3a 05 39 ce 3d 29 d7 63 bd
       0.027914872 0.0011816096 0.10069469 -0.055625115
0002b0 20 41 16 bd 00 90 a5 3d 87 f5 0c bd 06 30 ef 3d
       -0.0366832 0.080841064 -0.03441384 0.116790816
0002c0 90 a6 4b bd bf 14 aa ba cc 41 03 bd 74 c0 6d 3d
       -0.049719393 -0.0012976154 -0.03204517 0.058044866
0002d0 4a 48 3e 3d d2 20 88 bd 60 94 a1 3d f8 61 18 bc
       0.04645566 -0.06646885 0.078896284 -0.009300701
0002e0 64 dd 0a bd ca b5 9a bb 56 b9 af 3d 59 f1 f7 3d
       -0.03390254 -0.004721378 0.08580272 0.1210658
0002f0 04 6c 6d 3d 95 39 af 3c c5 47 a2 3d 28 9f 5e bd
       0.05796434 0.021389762 0.07923845 -0.054351002
000300 54 42 64 bd 21 05 df bc 95 ae 91 bd 42 88 80 3d
       -0.055727318 -0.027224125 -0.07113377 0.06275989
000310 41 12 ac 3c e6 55 05 bd 94 91 be bb d6 c4 c7 3b
       0.021004798 -0.032552622 -0.005815694 0.0060964627
000320 df 3e ed 3d 07 99 fa 3d ad 55 be bd 61 26 67 3d
       0.11584257 0.12236219 -0.09293685 0.056433085
000330 ff c2 6b 3d 53 09 6b 3d 94 e7 1f bc f8 9c 26 3d
       0.05755901 0.05738194 -0.009759802 0.04067704
000340 16 ad 0b 3d 7c 83 06 3e 1c 64 de bd 8a 47 18 bd
       0.034100614 0.13136095 -0.10858938 -0.0371776
000350 80 0e 97 bd cd fa 4e bd 5c f6 0f 3d 50 3f ae 3d
       -0.073758125 -0.05053215 0.035147056 0.0850817
000360 d5 1e ae bd fd 90 b8 3d a3 43 ec 3d 05 7d 5c bd
       -0.085019745 0.09012029 0.11536338 -0.053830165
000370 cc 96 db 3c 05 26 5c bd ca 5b 0d 3d 5f df 4f bd
       0.026805304 -0.053747196 0.034511365 -0.050750133
000380 e5 32 36 bd 82 56 97 bd 05 fc c1 bd a8 af e4 3d
       -0.04448213 -0.07389547 -0.09471897 0.11166316
000390 01 2f 65 bc 64 74 de 3b bd 8a 73 bd 05 a7 b3 3d
       -0.013988257 0.006788777 -0.059458483 0.08772091
0003a0 54 80 92 bd f5 26 1c bd 08 4f b2 bd 66 55 ca bd
       -0.07153383 -0.03812309 -0.0870648 -0.0987957
0003b0 32 4a f8 3d 1b 62 b2 bd d8 28 ca bb 0a dd d1 bc
       0.12123527 -0.087101184 -0.0061694197 -0.025618095
0003c0 74 fe 5d 3d 87 40 22 3d 88 fe b0 bd 45 32 f0 3d
       0.054197744 0.03961232 -0.08642298 0.11728338
0003d0 5c 54 ef bd f2 fd a9 3c 2c 9e c1 ba 23 5d 95 bc
       -0.11686012 0.020750973 -0.001477187 -0.018232888
0003e0 01 13 c2 3d ab 62 ea 3d 11 83 d5 3c 88 17 2b bd
       0.09476281 0.11444601 0.026063474 -0.041770488
0003f0 6a 88 cf 3d 71 1c b0 3d 8b 4e 09 3d a9 d0 bf bc
       0.10133441 0.08599175 0.03352217 -0.023414927

opp_actors.0.fc2.bias f4 [64]
000000 c1 cc 50 3d b2 0e 8d bd 2d 69 67 bd 7c e8 2f 3d
       0.05097652 -0.068875685 -0.056496788 0.042946324
000010 29 a8 b3 3d 20 27 70 bc fa 63 74 3d e0 9b 6d bd
       0.087723084 -0.014657766 0.059665658 -0.058009982
000020 5f 11 3f 3d 90 93 89 b9 9f 73 fa bc e2 cb 85 3d
       0.046647426 -0.0002624062 -0.03057271 0.06533028
000030 2c 21 2b bd 87 84 86 bd 76 e7 c9 bc 6e d7 59 3d
       -0.041779682 -0.06568246 -0.024646502 0.053183965
000040 b8 ec 05 3e d4 40 f5 3d bd 57 c9 3d f6 f6 87 bd
       0.13078582 0.119752556 0.09831188 -0.06638901
000050 0a 71 e5 3d a4 4d 4d 3d 8b 9c 06 3d 46 e5 8c bd
       0.11203201 0.050122872 0.032864135 -0.06879668
000060 40 84 48 bd ba f7 41 3d 66 77 67 bb c8 c8 18 bd
       -0.04895425 0.04735539 -0.003531897 -0.037300855
000070 d8 52 a3 bd e2 7a d0 3d db dd 18 3d 1b 6a df 3c
       -0.079747856 0.10179688 0.037320953 0.027272275
000080 73 f5 ba 3c e9 bf 9b 3d c9 9e 99 bd cf a5 ac 3b
       0.022822117 0.07604963 -0.07500989 0.0052687894
000090 9a c2 f7 3d 02 8a af bc db ed da bd d2 b7 98 bd
       0.12097664 -0.021428112 -0.106898986 -0.07456936
0000a0 dc d4 90 3d 31 e3 98 3d 58 c3 9f 3d 55 26 32 bd
       0.0707185 0.07465208 0.07800931 -0.043493588
0000b0 55 ce 6a bd 13 6f e2 bd c0 d9 90 3c 6a ec 99 bc
       -0.05732568 -0.11056342 0.017681956 -0.018789489
0000c0 51 94 03 3e b7 53 5d bd aa 7f 9c bd 56 6e 24 3d
       0.12849547 -0.054034915 -0.076415375 0.040144287
0000d0 a3 23 44 bd 34 e0 9e bc 26 a5 ef 3d b7 17 b1 3d
       -0.04788555 -0.019394018 0.117014214 0.08647101
0000e0 2f c6 fe bd c7 ee 18 3c 0b bd 67 bb 99 08 08 3e
       -0.12440144 0.009334273 -0.003536048 0.1328453
0000f0 25 47 e5 bd 6e 5e 8c 3d 42 ff fe bd ac a8 fb bd
       -0.1119521 0.068539485 -0.1245103 -0.12288031

opp_actors.0.fc3.weight f4 [64, 64]
000000 8d 13 64 bd de d8 f4 bd 5e 51 00 3a f7 6f e0 3d
       -0.055682708 -0.11955427 0.0004894937 0.109588556
000010 84 d1 d4 bc 9a d1 b5 bd d1 2f 10 bb 89 4a c1 bd
       -0.025978811 -0.08877869 -0.0022001157 -0.094380446
000020 ec b4 bf 3d 57 50 d9 3c b4 2c ec 3d 11 db 7b 3d
       0.0936068 0.026527567 0.11531964 0.061488215
000030 7b e3 59 3d 91 f7 53 3d 3c 62 fa 3d bc cf 90 bd
       0.053195458 0.05174977 0.12225768 -0.07070872
000040 30 fd 8a bd 4f 59 d6 3d 96 d1 5c 3d a0 84 fc 3d
       -0.06786573 0.10466253 0.053910814 0.12329984
000050 47 c2 19 3d 0a 91 5d 3d a6 39 af 3d 31 af ac 3d
       0.037538793 0.0540934 0.085559174 0.084318526
000060 0d 07 92 3d b5 dd b7 bd 73 c6 32 3d 9a 7e ac bd
       0.07130251 -0.08977834 0.043646287 -0.08422585
000070 78 51 c0 3c 36 b7 9d 3d fb 05 0b bd ce 77 ef 3d
       0.023476347 0.0770096 -0.03394125 0.11692773
000080 f3 0e f2 3d 3d d8 36 3d d8 16 b1 bd 15 a9 3b 3c
       0.118192576 0.044639815 -0.08646935 0.0114538865
000090 1c 4a d8 3d 52 dd fd 3c 97 9e e0 3d a0 32 14 3c
       0.1056101 0.030989323 0.109677486 0.009045273
0000a0 70 bf 4a bd e4 87 b8 3d af a8 48 3d fe f8 9d 3d
       -0.049498975 0.09010294 0.048988994 0.07713507
0000b0 bd ef 98 bd e5 15 bf bd 4f 8b bd 3d 95 c3 50 3d
       -0.074676014 -0.09330348 0.09255087 0.05096777
0000c0 17 18 cd 3d 65 5e d5 bd e4 b7 50 bd 5c 35 93 3b
       0.100143604 -0.10418395 -0.05095662 0.004492445
0000d0 99 be 69 bd b6 e6 ae 3d 4e b5 dc 3d e7 8c ef 3d
       -0.057066534 0.08540098 0.107767686 0.11696797
0000e0 14 24 9b 3c 0a 4d d7 bd e5 be 14 bd 47 b6 19 3d
       0.018938102 -0.10512741 -0.036314864 0.03752735
0000f0 06 96 01 bd 15 f9 78 3d 51 ca e5 bc 48 8a d3 3d
       -0.031637214 0.060784418 -0.028050574 0.103291094
000100 43 9e f2 3d 30 a7 fd 3d 0c cd 4a 3d 00 8d 97 bd
       0.11846592 0.12385404 0.049511954 -0.073999405
000110 01 04 b2 bc a1 7a 77 bd 9f 69 87 3d 52 c2 74 39
       -0.021730425 -0.060419682 0.066119425 0.00023342043
000120 4c 3a 76 3d 36 ab 46 3d 1f e9 11 bd 3f ef e2 3c
       0.06011419 0.048503123 -0.035622712 0.027701972
000130 fe 61 24 bc 14 be 01 3d 7a bd 99 bd a3 91 2a 3c
       -0.010033129 0.031675413 -0.07506843 0.010410699
000140 52 9a d8 3d 76 7c 9a 3d 8d ae 89 bd 92 2a ed 3d
       0.10576309 0.0754327 -0.06722746 0.11580385
000150 2c 0c 1b bd 51 91 fd 3d d8 f6 71 bc 87 8c fa 3d
       -0.037853405 0.123812325 -0.014768325 0.12233835
000160 de 1e a1 3d 88 9a 32 3b 03 07 bd 3d 99 ea db 3d
       0.078672156 0.0027252752 0.09229853 0.10738105
000170 51 4f b1 bd 15 b8 06 3d 66 12 c1 3d b7 0c 22 bb
       -0.086577065 0.032890398 0.09427337 -0.0024726817
000180 e9 04 b1 3d 0f 5c de 3d 9c f5 c3 bd 77 96 a2 3d
       0.08643515 0.108574025 -0.09568331 0.07938855
000190 88 a4 d7 bd b3 91 b2 3d dc 4a 8b bd ec 5a 1f bd
       -0.10529429 0.08719196 -0.06801388 -0.03890507
0001a0 95 6e 26 3d cf 10 c7 bd 06 f9 96 3b d4 8c 14 bd
       0.040632803 -0.09720003 0.0046073226 -0.036267117
0001b0 7e 13 22 3d cd 7f d7 bb 1b 25 d2 bd eb 7f c7 bc
       0.03956937 -0.0065765143 -0.102609836 -0.024352988
0001c0 f3 ac f5 3c 78 42 8c 3d b9 a0 81 bd 6a 7a 88 bd
       0.029989695 0.068486154 -0.063294835 -0.06663974
0001d0 0b 29 84 3d 65 8b 88 bd 17 c6 20 bd 66 51 ea bd
       0.06453141 -0.066672124 -0.039251413 -0.11441307
0001e0 4c 66 e8 bc 53 aa b9 bd d9 dd f1 3c 74 ba e4 3d
       -0.028369091 -0.0906569 0.02952473 0.111683756
0001f0 68 98 60 3d 2d 60 c6 bd 77 27 eb 3d f2 c6 e4 bd
       0.054832846 -0.09686313 0.11482137 -0.11170758
000200 9b 8f 6d bd 92 a0 8f 3d 12 f0 4f 3d c4 1c 6e 3d
       -0.05799828 0.07013048 0.05076606 0.0581329
000210 be 88 22 bd 28 ce ea bd 17 3a 08 be 9d ca 2f bb
       -0.03968119 -0.114651024 -0.1330341 -0.0026823648
000220 75 6a 07 be bb 39 c2 bd 15 69 9f 3d 1d 3e f2 bc
       -0.13224204 -0.094836675 0.07783715 -0.029570634
000230 91 a9 08 3d e9 25 df bd 04 b1 1b 3c 49 27 d7 3d
       0.033364836 -0.10895903 0.009502653 0.1050554
000240 e5 c0 49 3c 5f f7 3c 3c 9e 60 b3 bd 0e 2e d2 bd
       0.012314056 0.011533587 -0.08758663 -0.102626905
000250 6d 76 80 3d 1f 63 fb bd c2 84 97 bc 8b ba d0 bd
       0.06272588 -0.12274765 -0.018495921 -0.1019183
000260 ff f7 f1 ba 60 32 0c be e5 75 02 3d a8 75 7f ba
       -0.0018460749 -0.13691092 0.031850714 -0.000974501
000270 b4 ac c2 bd 22 86 67 bd 2f 84 70 bd 34 f9 88 bd
       -0.09505597 -0.056524403 -0.05871981 -0.06688157
000280 83 47 29 bd 3c 3b 45 3c 90 b9 9c bd b7 08 a4 3c
       -0.041327965 0.012038048 -0.07652581 0.020023687
000290 cf 42 e8 bd 78 3d df 3d 3c 58 9b bd cc b6 59 3d
       -0.11340868 0.10900396 -0.07585189 0.053152844
0002a0 12 09 c3 bd bb 07 c4 bd 1f 35 d7 bc 26 fc a3 bd
       -0.095232144 -0.09571787 -0.026270447 -0.08007078
0002b0 c0 2c 0f bd be 0b 63 bd a0 03 3e bd bb 24 d9 bd
       -0.034954786 -0.05543112 -0.046390176 -0.10602709
0002c0 e3 dd e3 3d 63 ec 8f 3d 76 9a 54 bd 4a 78 a8 3d
       0.11126306 0.07027509 -0.051905118 0.08226068
0002d0 47 01 84 bd 18 7b e0 bd 23 d7 f7 3c 57 c5 5b bd
       -0.06445556 -0.10960978 0.030253952 -0.053654995
0002e0 8f 93 bd 3d fc 89 2a bd 66 df e3 bd aa 7a c2 3d
       0.0925666 -0.0416355 -0.11126594 0.094960526
0002f0 04 ff db 3c af 9b fa 3c 11 d3 82 bc b0 8e cb bd
       0.026855 0.030591814 -0.015969785 -0.09939325
000300 df cf fe 3c 00 00 b1 39 5e 41 ba bd 23 e3 7c 3d
       0.03110498 0.0003376007 -0.09094499 0.061740052
000310 0a 93 01 be ad 32 ab bd 78 e6 1d bd ac 48 01 be
       -0.12653747 -0.08359275 -0.03854987 -0.12625378
000320 db 9c fa bd 75 71 42 bd 72 1a e1 bc ec b7 a8 3d
       -0.12236949 -0.047471482 -0.02747843 0.08238205
000330 48 6d 49 3d 1c 58 db 3d 28 97 02 3d 87 21 10 3c
       0.049176484 0.10710165 0.031882435 0.008797056
000340 6a 4c 09 bd 16 fa 7e bd db 8a f8 bd 4c 6f fe bd
       -0.03352014 -0.06225022 -0.121358596 -0.12423572
000350 9e ff 33 3d 9a 49 b7 bd 31 ca 78 bd ea 6f 66 3d
       0.043944947 -0.08949585 -0.0607397 0.056259073
000360 65 9a a6 bd e9 ac 12 3d 15 88 74 bc c1 b8 ca 3c
       -0.08134917 0.03580943 -0.014925023 0.0247463
000370 40 6d 87 bd 61 66 a7 3d c7 9d e2 bd 30 14 01 be
       -0.06612635 0.08173824 -0.1106525 -0.12605357
000380 e3 85 b9 3d e0 d8 c0 bd bb f0 ed 3d 1f 6e 3a 3d
       0.0905874 -0.094163656 0.11618181 0.045515176
000390 31 14 20 3d 54 92 c6 bc d9 a0 bf 3c a0 4c 03 3d
       0.039081756 -0.024239697 0.023392128 0.032055497
0003a0 5e e9 8a bd 18 39 a9 3d 13 12 8d 3d 60 af 6b ba
       -0.067827925 0.08262843 0.06888213 -0.00089906715
0003b0 b2 e8 12 3d 33 c7 84 bc 01 2c 61 bd 4d d6 d4 bd
       0.035866447 -0.016208267 -0.054973606 -0.10392437
0003c0 72 a2 6b bd a2 a9 f5 bd 3a fe 3b bd 60 ae 67 3d
       -0.057527967 -0.119952455 -0.045896746 0.05656278
0003d0 3e a1 e7 3d d6 ec f9 bd 14 b9 e7 bd 91 d9 bf 3d
       0.113100514 -0.12203376 -0.11314598 0.093676694
0003e0 ad 07 39 bd a8 87 08 bc 40 05 8e 3d 6e 84 cf 3d
       -0.045173336 -0.008333124 0.06934595 0.10132681
0003f0 ed d3 3d 3d a5 7d c0 3c 70 62 ea bb 80 71 4e 3b
       0.046344686 0.023497412 -0.007152848 0.0031500757
