best_model7/dppo/agent_0/actor_params.pkl (torch, 27159 bytes, 6 tensors)

fc1.weight f4 [64, 28]
00000000: aec1 063e d7af 103d eccb 1c3d c74f 963d
00000010: deee 3dbd ff00 03be 9495 b93d 99a5 c3bd
00000020: 9b0f ea3d 8a0e d53d 6c4d 08be 5630 bf3d
00000030: e795 b33d c515 933d 100a ad3c 1ca4 cfbd
00000040: 5ad4 863e db83 183e bd55 44bd b72b 8bbd
00000050: 4762 993d 7cc7 50be 0e00 94bd 0659 183e
00000060: 7fc4 b13d 49f1 93bd 1ff0 31bd 2b7e 233e
00000070: 375b 3e3e f0bd 483e 657d e93c 208d 433e
00000080: 2fea babd 2e25 93bd 9c65 34bd 1c0c aebd
00000090: c796 933d ed17 c7bd 6ded 1ebe 19f4 f03d
000000a0: da55 0b3e 87dd d7bd f6ac 85bd 6256 e4bd
000000b0: cb92 013e e04d 233c 4fdf 303e a357 d6bd
000000c0: 21f6 40bd 0637 203e e681 4f3e b7ec 5d3e
000000d0: 7672 363d 3874 193e 33b0 523e 1bf7 5fbc
000000e0: c7a5 d33c b5d3 973e 290b d03d 8ddc 1b3d
000000f0: 1a93 183e ac43 12be 716e 283e 85a0 db3d
00000100: 93f1 883d ee54 9e3d 3610 aabd c804 ce3d
00000110: 5ba1 613e a850 993c ba17 aabd 2995 37bd
00000120: 57ea 9d3c b4b4 9ebd 1002 d1ba 1fee 983d
00000130: cd45 1cbe ec23 243e fc81 393d b7aa 063e
00000140: 7c03 4c3d 7570 00be 5254 1c3e 13ba a53c
00000150: 1216 fe3d 08dd 703e 7f27 ba3c 26e4 243e
00000160: a742 b0bd 1a3f 073e a1d8 8a3d 822b f53d
00000170: d6ad 533d 249b 88bd 84f8 1d3d 4aa5 9b3d
00000180: 538c d2bd 96ec febd bf53 40be 71c7 593e
00000190: 1385 7e3d 66b5 f73c 5ad5 853d 46d8 bfbd
000001a0: 806f 213e f81d 9b3d bb87 2bbd 1b58 9f3d
000001b0: 2d31 083e e593 593c 2d08 313d 5adb 143e
000001c0: 0efc 1bbb 2e05 a53c abc1 583e 5708 0bbe
000001d0: bdea 513d 1702 3cbe 03cb 0fbd 427b 70bb
000001e0: 4bc0 c4b9 aac0 84bd da34 9b3d 0151 913d
000001f0: 92af fcbd 94e4 0c3d 7512 2b3e 0f10 383e
00000200: 1892 21bd 7aac 143e 4744 c4bd 5d93 3c3e
00000210: 6c33 9b3d f9e1 7b3d 20c2 29be 1a2d c8bc
00000220: 8163 2abe 0aca ab3d dc20 b8bd 1224 153d
00000230: d51b ef3d 3327 3f3e fd00 903d 09d7 843d
00000240: f816 483e d955 ef3c aa53 0ebd 3169 a2bc
00000250: c4ad 84bc 2e02 3bbe 487e b43d e361 313e
00000260: 3305 2d3e 7d8c d03d 8c3e 5abd e154 25be
00000270: 0bb7 663e b6dc 82b9 82ad 303c bba8 ebbd
00000280: c744 4abd 4744 4d3c 2d99 033e 494f 6ebe
00000290: 73fd 30be f43d 08bd 2751 17be aff2 563e
000002a0: 738c cf3c 3825 14be dcfb 9f3d 0ed6 cc3d
000002b0: 84a9 0abb fbe6 08be 9f4e 063d 4c5c 11be
000002c0: 25bb cd3d 878c 0fbd 1b6f 693d 016e 04bd
000002d0: 5b41 1bbe 211d 923d d19e 243e 8e81 ed3a
000002e0: c0c1 b7bd 0686 1dbe f85c edbb 7553 433e
000002f0: 5d18 c8bc 39ec 60bd 4125 043e 66b2 1dbe
00000300: 5a95 cc37 0f06 1dbd 0e8c b4bc ff58 f3bd
00000310: cf68 093e 8e9b 0d3e 56a9 e93c 75fa 86bd
00000320: df51 d43d c3c0 40be 358b edbb 7f5b 303d
00000330: b32d 36bd d688 5c3c d5a1 99bc 5d3a da3d
00000340: b2b7 523e c8b1 2dbe c109 163e 3659 7e3d
00000350: 2c14 663e ec65 473e 0456 ecbc 57d3 d1bd
00000360: 84aa 0a3e a60e da3d cbec 3d3e a25e 6fbd
00000370: 6a52 6e3d a846 b7bd 2e10 e6bd 3068 3c3e
00000380: 2f1d 4f3e c262 893e e2f4 033e 00c1 e3bd
00000390: 92cd 9bbd d295 033d 22eb 2f3e 3dac 09be
000003a0: 3561 643e 21fe 1f3e dc72 babc b566 27be
000003b0: a27c 293b 6a4e 093e 3eac 843d 408c 213d
000003c0: ab77 97bd 5818 18be 9de9 e9bd c510 9f3c
000003d0: 7b19 a13c 6c61 fdbd cd31 613e 4015 16be
000003e0: 5611 35be c02f 35be 584d 91bd dfff e63d
000003f0: d8ba c53c f6a8 a83d dd26 ee3d 0657 e1bd
0.1315982 0.035323944 0.038280413 0.07339435 -0.04637038 -0.12793349 0.09061733 -0.095530696
0.11428758 0.10403164 -0.13310784 0.09335391 0.08768826 0.071818866 0.021122962 -0.10138723
0.26333886 0.14894049 -0.04793333 -0.06795447 0.07489448 -0.20388597 -0.07226573 0.1487771
0.08680057 -0.07223756 -0.043441888 0.15966098 0.18589483 0.19603705 0.028502176 0.19096804
-0.09126698 -0.07184826 -0.044042215 -0.084984034 0.07206493 -0.0972136 -0.15520258 0.11765308
0.13606969 -0.105403 -0.0652713 -0.11149289 0.12653653 0.009967297 0.17272685 -0.10465934
-0.047109727 0.1564599 0.20264396 0.21672331 0.044542752 0.1498574 0.20575027 -0.013669754
0.025835885 0.29653707 0.10158379 0.03805213 0.14899865 -0.14283627 0.1644838 0.10723976
0.066867016 0.07731043 -0.08303873 0.10059506 0.22034208 0.018715218 -0.08305307 -0.044819985
0.019276781 -0.0774931 -0.0015946049 0.07467293 -0.15261002 0.16029328 0.04528998 0.1315106
0.04980801 -0.12542899 0.1526654 0.020230329 0.12406553 0.23521817 0.022723911 0.16102657
-0.08606463 0.13207665 0.067796 0.11971189 0.051679455 -0.06670216 0.03856708 0.07599886
-0.10280671 -0.12447469 -0.18781947 0.21267487 0.06213863 0.030237865 0.06534834 -0.09367423
0.1576519 0.075740755 -0.04187749 0.07780477 0.13300009 0.01327989 0.043220688 0.14536801
-0.002380136 0.020144071 0.21167628 -0.135774 0.051249254 -0.18360172 -0.035105716 -0.003669456
-0.00037527303 -0.0648206 0.0757844 0.070955284 -0.12338175 0.034397677 0.1670626 0.17974876
-0.039445966 0.1451892 -0.09583335 0.1841559 0.07578167 0.0614948 -0.16577959 -0.024435569
-0.1663952 0.08388145 -0.089906424 0.036411352 0.116752304 0.18667297 0.070314385 0.06486327
0.19540012 0.02921574 -0.034747757 -0.01982555 -0.01619614 -0.1826255 0.08813149 0.17322497
0.16896515 0.10183046 -0.053282306 -0.1614566 0.22530763 -0.00024959975 0.010783555 -0.11506792
-0.049381997 0.012528486 0.128514 -0.23272432 -0.17284183 -0.033262208 -0.14777051 0.20991014
0.025335526 -0.14467323 0.0781171 0.10001765 -0.0021158168 -0.13369362 0.032789823 -0.14195365
0.100454606 -0.035046127 0.056990724 -0.03233147 -0.1516165 0.07134462 0.16076209 0.0018120275
-0.08972502 -0.15383157 -0.0072437488 0.19074805 -0.02442568 -0.05491278 0.12904836 -0.15400085
2.4388242e-05 -0.038335856 -0.02203944 -0.11882209 0.13418888 0.1382887 0.028523128 -0.0659074
0.10367178 -0.18823533 -0.007249261 0.043056007 -0.044477176 0.013460359 -0.018753925 0.10655663
0.20577887 -0.1696235 0.14652158 0.062096797 0.22468632 0.19472474 -0.02884961 -0.10245388
0.13541609 0.10647325 0.1854736 -0.05843986 0.058184065 -0.089490235 -0.11233555 0.1839912
0.20225976 0.2683316 0.12886384 -0.11120796 -0.07607569 0.0321253 0.1717954 -0.1344461
0.22302707 0.15624286 -0.022759847 -0.16347773 0.002586164 0.13408819 0.06478165 0.039440393
-0.07395872 -0.14853036 -0.11421511 0.019417176 0.01966547 -0.123720974 0.21991654 -0.14656544
-0.17682394 -0.17693996 -0.0709483 0.11279272 0.024136946 0.08235352 0.11628506 -0.110029265

fc1.bias f4 [64]
00000000: 0d1e a03e 7383 483e 9d48 843d 52db bc3d
00000010: 422b 853e d81b 2d3d 7013 24bc a0ae 8a3e
00000020: 3110 523e 516d 083e 324b 953c 4272 dcbd
00000030: e941 9e3e 8ea0 a13e a075 3ebd e108 2c3d
00000040: 5172 893e 2102 403e 1df0 cab8 dd16 873e
00000050: e028 3dbe 7378 47be c935 2b3d 01e6 023d
00000060: 4611 2a3e 1eae 5d3e c3b5 50ba 49f9 9fbd
00000070: 756f 05be 859d cc3d 08fe 17be cdc0 9a3e
00000080: a519 4ebc 26e2 193e 7d89 a33e 1483 8b3e
00000090: 40d9 693e e0d3 973e ebf6 163e 6a5e 04be
000000a0: 2e07 30be 31d3 cebd 37b0 7b3c 94b8 07be
000000b0: 47ed f33b d0b9 c53d bbd4 423e af29 5d3d
000000c0: bc25 843e 04cb 673e d981 7d3b 1cf5 2f3e
000000d0: ce49 9c3e 6a6f 773e bb2d 893e f5d7 d1bd
000000e0: bffc 933d 0e80 6d3e 7ac1 5f3e 302a ec3b
000000f0: bac1 903e 62cd d4bd 54f1 9c3e 12ab 723d
0.31272927 0.19581394 0.064591624 0.092215195 0.26009566 0.042262882 -0.0100144 0.27086353
0.20513989 0.13322951 0.018224332 -0.107639804 0.3090966 0.31567806 -0.046498895 0.042000655
0.2684503 0.18750812 -9.676835e-05 0.2638463 -0.18472624 -0.19479541 0.04179934 0.03195763
0.16608152 0.21648452 -0.0007961655 -0.07811219 -0.13030799 0.09990982 -0.14842999 0.3022522
-0.012579356 0.15027675 0.31940833 0.27248442 0.2283678 0.29653835 0.14742629 -0.12926641
-0.17190239 -0.10098875 0.015361837 -0.13254005 0.007444057 0.096545815 0.19026463 0.05399483
0.2581004 0.22636038 0.0038682132 0.17183346 0.30525059 0.24163595 0.26792702 -0.10246269
0.07225942 0.2319338 0.21851149 0.0072071776 0.28272802 -0.10390736 0.3065287 0.059245177

fc2.weight f4 [64, 64]
00000000: f901 a93d 287c 483d 3423 a43c 5ea4 a23d
00000010: f87d 0dbe 95ee 0abe 6bde 5bbb 10c3 aebd
00000020: 38db b63c 62fe 0e3d b255 9d3c efc5 dd3d
00000030: 33d9 e83c 7704 a3bd fb39 a53d b315 39bd
00000040: 838a 03be 2529 e6bd 270c c33d c399 04bd
00000050: 6198 ef3d 3641 d5bd d877 b03c bd07 a93c
00000060: f639 aabd 32c1 9ebd 1f4e 97bd dc93 b43d
00000070: 9a24 033e 7ec2 a73b 7d62 88bd 858e 563d
00000080: 039a b9bb fd1b dd3d aa6b 5ebd b56f a8bd
00000090: 4f0d 2a3d a504 c0bc 9035 49bc 4f7f f73d
000000a0: 80ed 97bd 9501 59bd c9e6 05bc e6bf 60bd
000000b0: 170e a93d 3434 da3d 51a8 e23c ca37 ee3b
000000c0: 616b cabd 2873 ddbd fbf8 86bd 6cea 10be
000000d0: 5507 7e3d e71b bf3d 734f 353b 2b2d 033d
000000e0: fa82 a53d 718f 7c3d ae47 64b9 a5af dbbd
000000f0: 70d0 2fbd 53fc b03d e986 e43d 6885 44bd
00000100: ec19 eebc 5ae0 cabd ec3c 9b3c 4b29 833d
00000110: e694 c4bd cf34 4a3d 78c1 32bd 3887 1b3c
00000120: 3da5 95bd 2b6e c6bd ca11 c23d 5991 acbd
00000130: 0fc2 e0bd 1626 21bd 69be d8bd 06eb d5bd
00000140: 2de6 a93d b904 133c f30c 0a3d 7d9b c4bd
00000150: ff3f 3abd b01f cc3d 6281 a2bc 4926 593c
00000160: ed3e ad3d 3f09 3f3d ef2c bcbd 5d52 1dbc
00000170: 1790 12bd 352d 8f3b e7aa ed3d 1dac 01be
00000180: 939d ca3d 702d ba3d 2e4e 773d 4830 153d
00000190: 6955 033d 8ad4 f23c 89e5 ecbc 82fa b0bd
000001a0: 6636 d43d 8d98 ffb6 08e4 563d c9b5 cfbd
000001b0: 63f0 90bd 8e23 c2bd d24a 2abd 2198 7f3d
000001c0: 8050 773d 8941 903d 85a2 523d a7d7 d03c
000001d0: f391 eabd 8226 e2bd 030b 08be 031e 373b
000001e0: fdd8 0ebd 1dba 2cbd 766d 223d 968d af3d
000001f0: 8621 10be d35f 6fbc 9650 843d aa4b c03d
00000200: 1954 0abe f1fe b5bd 9418 18bb 2f6f 04be
00000210: 7bc6 1b3d 6acc b33d 12c9 76bd 518b 093c
00000220: b98c d93c 83ca 98bd cf84 a3bd 10a9 b03c
00000230: c19f a3bd 53f0 92bd dfa6 893d 1810 fbbd
00000240: 6a51 e5bd 1682 583d 6351 14be 9958 fdbc
00000250: 8117 843d 3626 c6bd 48e3 a13d a26d d5bd
00000260: 4e9f d33c 956c 483d aff4 583d 37b5 a03d
00000270: fbaf 0d3d 5dae f8bd f81d b4bd f4a6 743d
00000280: 7584 cf3d 66d1 8d3d c1a8 133d 6a98 eb3c
00000290: 04ee 563d 8909 433d cacd 90bd 2c2d 723d
000002a0: abb6 92bd a59c b2bd 1561 d33d 513b 653b
000002b0: b326 a03d 025d 333d 6ccb e63b 37ac 91bd
000002c0: 12a3 febd 5695 c83d 6f2d adbd af67 543d
000002d0: cfdd dabd 01a8 a93c 8331 9abd d3ea 0abd
000002e0: 6659 c43c f086 d73c cdb8 803d 207b e5bd
000002f0: 2c96 68bd 83d6 efbd 1d50 34bc 8526 053d
00000300: bd27 263e 0992 323e 7ef8 513e 4803 853e
00000310: bd34 483c 2df9 313e 8580 2cbd 143a d33d
00000320: e319 833d b90e 983d 354b 3e3e 80e8 3a3d
00000330: 2d86 513e d6d2 7b3d b394 f23d bb55 f83d
00000340: 185b 783e e4b6 643e ed52 813d 098f 143e
00000350: 6b49 433d 4ab1 cb3d cc67 6d3e 2157 c1bd
00000360: e72f 933e 4faf a0bc ae3b c13d d827 033c
00000370: b985 c2bd 227d 4e3e 2b65 cb3d 571e 3a3e
00000380: cb46 66bd e0ff e03d c731 7b3e 0cac 103e
00000390: 9bf8 4b3e f2af 143e b940 2d3e 6d37 083e
000003a0: a83d 523d 9eee a53d a981 b23c 4ec4 0cbe
000003b0: c52b 513e a607 363e d314 5e3d cfce 7a3d
000003c0: ed10 f9bb 3b7b 3d3e 54f8 6f3e bc5c ef3d
000003d0: 6d26 443e e826 383e 90db 2a3d 1c88 d63d
000003e0: 6ba4 1f3d b0c9 513e e449 b73d addf 123e
000003f0: a8ec f73d 4c65 213e fbe1 613e 1351 d53d
0.082523294 0.04894653 0.020036317 0.07941507 -0.13817585 -0.13567574 -0.003354932 -0.08533299
0.022321329 0.034910567 0.019205902 0.108287685 0.028423881 -0.07959836 0.080676995 -0.04518671
-0.12845807 -0.112383164 0.09523802 -0.0323732 0.11698986 -0.104128286 0.021541521 0.020633573
-0.083118364 -0.07751693 -0.07387947 0.088172644 0.12806931 0.005119621 -0.0665941 0.05238201
-0.0056641116 0.10796354 -0.054301895 -0.082244314 0.0415166 -0.023439715 -0.012280837 0.12084829
-0.074183464 -0.052980024 -0.008172699 -0.05487051 0.082546405 0.10654488 0.02766815 0.007269834
-0.09883762 -0.1081298 -0.06590458 -0.14151925 0.06201871 0.09331494 0.0027665764 0.032025497
0.080816224 0.061660234 -0.00021770477 -0.10726861 -0.04292339 0.08641877 0.111585446 -0.04797879
-0.029065095 -0.09906073 0.018949948 0.064043604 -0.095987126 0.04936677 -0.043641537 0.009492688
-0.07306907 -0.096889816 0.09476049 -0.0842616 -0.10974514 -0.039342962 -0.10583193 -0.10445218
0.08295856 0.008973294 0.033703756 -0.095999695 -0.045471188 0.099669814 -0.019837085 0.013253757
0.08459268 0.046639677 -0.09188258 -0.0096021565 -0.035781946 0.004369403 0.11604863 -0.12663312
0.09893336 0.09090698 0.060377292 0.036422998 0.032063875 0.029642362 -0.028918045 -0.086415306
0.10361938 -7.6173515e-06 0.05246356 -0.10142095 -0.070771 -0.09479438 -0.04157526 0.06240094
0.060379505 0.0704375 0.051424522 0.025493456 -0.11453619 -0.11042501 -0.1328545 0.0027941472
-0.034874905 -0.04216968 0.03965517 0.08571927 -0.14075288 -0.014610249 0.06460683 0.09389432
-0.13508643 -0.08886517 -0.002320801 -0.12933038 0.038031083 0.08779223 -0.06025035 0.008395032
0.02655636 -0.07460501 -0.079843156 0.02156499 -0.07989455 -0.071747445 0.06721281 -0.12258929
-0.11197169 0.052858435 -0.14484172 -0.030926036 0.064497955 -0.09675257 0.079046786 -0.104213014
0.025832798 0.048931677 0.052967723 0.07847064 0.034591656 -0.12142632 -0.087947786 0.05972953
0.10132686 0.06924705 0.03604961 0.0287592 0.052473083 0.047616515 -0.07070501 0.05912511
-0.071637474 -0.08721284 0.10321251 0.0034977982 0.07819881 0.04378987 0.0070432927 -0.071129255
-0.12433447 0.097941086 -0.084559314 0.051856693 -0.10686838 0.020709993 -0.07528975 -0.033915352
0.02396841 0.02630946 0.06285248 -0.11205125 -0.05678384 -0.11710837 -0.011005429 0.03250744
0.16226096 0.1743852 0.20504948 0.25979066 0.012219605 0.1738021 -0.042114753 0.10313812
0.06401422 0.07424683 0.18583377 0.045631886 0.2046134 0.061480366 0.118447684 0.12125727
0.242535 0.22335392 0.06314645 0.14507689 0.04767744 0.099459246 0.23184127 -0.09440447
0.28747484 -0.019614844 0.09435211 0.008005105 -0.09498162 0.20164922 0.09931406 0.18175636
-0.056219857 0.10986304 0.24530707 0.1412813 0.19919054 0.14520243 0.16919221 0.13302393
0.05132833 0.08102153 0.021790342 -0.1374676 0.20426853 0.17776355 0.05421908 0.061232384
-0.0076008947 0.1850404 0.23434573 0.116876096 0.19155283 0.17983592 0.041713297 0.104751796
0.03897516 0.20487094 0.089496404 0.14343138 0.121056855 0.15761298 0.22058861 0.10415854

fc2.bias f4 [64]
00000000: d115 b7b9 61c7 353c 23e4 d6bc fa8d e6ba
00000010: 9f79 dd3c 0a52 1a3d 0612 693d fdd6 ef3d
00000020: 6593 72bd a33a 8d3c abd3 c33d 4468 93bd
00000030: 1b2c 3cbd 8068 f43d 1a55 52bb 68e3 993d
00000040: 4640 a0bd 02ec 9dbd c169 0b3e 08fa 083d
00000050: f63b 0f3e e986 603e 497f 0cbe f0c8 45bd
00000060: c996 373d bc23 08bb 7282 bcbd 6356 2ebc
00000070: 4aff 913d f892 98bd f07b 77bc 8127 513e
00000080: 7bb6 673e 181e b83c 3b08 00be 6bb4 473d
00000090: 0074 2b3e e5c1 64bd 4bd7 5fbd 323c f4bd
000000a0: 6dc9 7abc 27b4 e23d 7fdd d2bc 6693 d3bd
000000b0: 0b47 2c3e 0e55 9f3c 6f7f 3c3e c2cb 1fbc
000000c0: 3232 1dbd b522 eabd 0a0d c7bd 9f02 86bd
000000d0: 6173 433e 4141 c5bd 8ca2 79bd f6c7 233d
000000e0: c9be 10bd 6471 c2bd 281d c43c 0a4c bfbd
000000f0: 988f 8a3d 4f13 febc 6d98 38bd 3fde 863c
-0.00034920734 0.011094899 -0.026231831 -0.001758992 0.027035533 0.037675895 0.056901954 0.11710928
-0.059222598 0.017239874 0.09561857 -0.071976215 -0.0459405 0.11933994 -0.0032094182 0.075140774
-0.07824759 -0.077110305 0.1361456 0.033441573 0.13987717 0.21926464 -0.1372043 -0.048287332
0.044821534 -0.0020773252 -0.09204568 -0.010640713 0.07128771 -0.07449907 -0.015105233 0.20425226
0.22628205 0.022475287 -0.1250314 0.048756044 0.16743469 -0.055848975 -0.05464868 -0.11925544
-0.015306813 0.110695176 -0.025740383 -0.103308484 0.16823976 0.019449737 0.18407987 -0.0097531695
-0.038377948 -0.11432401 -0.09719284 -0.06543469 0.19086982 -0.09631587 -0.060946032 0.03998562
-0.035338197 -0.09494284 0.023939684 -0.09340675 0.067656696 -0.031015066 -0.04506724 0.016463397

fc3.weight f4 [5, 64]
00000000: d9bb 683d b7a9 7d3d 6de2 fc3c 254b 903d
00000010: ac24 2fbc cbd3 c8bc a059 e13c babf cc3d
00000020: c6c0 e03d ac2a eebc 3d77 593d 6493 6dbd
00000030: 2333 8a3d b5ad 39be 5b9a 00be 3c99 1abe
00000040: a4e1 e9bd a691 9d3d f334 1fbe a334 d1bd
00000050: 4ccd f7bd bcbc 8939 fc01 aa3d f2d5 343d
00000060: e302 93bc 4a2e d23d 5c51 e13d 7dc8 813c
00000070: b88e 52be 1897 eb3d a6b2 6f3d b1d6 993b
00000080: c558 04be 06a5 12be c7b8 a3bd 4273 85bd
00000090: 97f6 afbd 373d 263d fee7 c63d d176 a3bd
000000a0: 0640 08be e0de 85bc a88f 07be 3a21 cc3d
000000b0: a04c 66bd dfec b4bd 5679 633c d9d8 d53d
000000c0: 03cb 323d 0326 b9bd ca15 8ebd 41f7 643c
000000d0: b307 29be ec5e e7bd 2ccf f83d 0e57 31be
000000e0: 841d 753d 2d00 9dbd fbc3 5dbd 804b 80bd
000000f0: 8309 d83c 4e7a b63c e501 c53d 9172 66bd
00000100: 97a9 2f3d 98f2 2e3d 1001 9d3d f143 24bd
00000110: ce49 fa3c 8ea8 b63d d75d 873d fae7 493d
00000120: cd6e 80bd a635 08bd 6888 683d a005 033d
00000130: dc2b 1f3d 3238 7e3c 5da8 45be e365 23be
00000140: 40f2 14bd 540b 963d 2a92 4dbe 6b49 ecbd
00000150: 0bed 3dbd 8459 44be 73cc 09be b6cb dbbc
00000160: 38dc 01be 8630 babd c82b 313d 11e0 2dbe
00000170: fb3e 3fbe 3015 123d 48b2 de3c fe9d aebd
00000180: 322e f5bd 305b 27be 2536 87bd b6a0 03be
00000190: 8bf2 4fbe d069 d73d 74fc df3d d038 503c
000001a0: 314e 1fbc 0bbe d4bd 9368 c6bd 0ed8 a63d
000001b0: 119e acbd 4d9e 4abd 2cf7 afbd 1aac 183c
000001c0: 6b07 593d f97b a53d 0cb5 b2bd afa7 74bd
000001d0: a584 f0bd c2e6 a4bd d8e8 b73c c1fc 02be
000001e0: 4d6a c33c e004 2b3d 57a9 56be 8d8f de3d
000001f0: f786 363c 8aed aebd d109 1dbc b2c6 b73d
00000200: c385 69bd 357a efbb 3c4a 96bd 89dd c3bc
00000210: 0ed5 c2bd 8e1d c63d d88d 233c cdb6 063e
00000220: de8e 00be 9fa9 77bd d869 983d 3802 c23d
00000230: e3ff 40bd 93c0 f83b 1a0e 1cbd dfe9 3ebd
00000240: 4e69 b0bd d011 91bc 24dc 443d 838c 893d
00000250: 454c 3e3d 2f01 b2bb ac39 d2bd 59ee 043e
00000260: a8fc b7bd e651 cb3d 0ae4 fdbd d5b7 8b3d
00000270: 8ab7 c8bd 7a5f d9bd 1340 58bd 432c 9b3d
00000280: 7f37 6f3b 8b9c 7f3c 8776 76bd 91ed a5bd
00000290: eb5b 1bbe 105c fb3c f135 2d3d 8107 f43c
000002a0: 56c9 d2bd df9d ecbb 856d f03d 64e6 e93d
000002b0: 4a41 5cbe 5404 94bd 34b8 0ebe bace cabd
000002c0: 627b 513b 1dfd f73a f8c2 4ebd 4e54 1f3c
000002d0: 1e2f 90bb 4513 c93d 9a53 fc3d 31ef e63c
000002e0: 6147 3c3b cae1 9ebc fad3 10be 0d65 3a3d
000002f0: f9d5 fc3d eef0 ef3d 3bd8 3bbc 80fd 8d3d
00000300: 0149 d239 760b babd bea8 c13d fdd6 553e
00000310: 4954 803b ca7d c6bd 397a a63d 08da 9e3b
00000320: b200 c2bd d136 3bbc d0e1 49bd 10c5 6d3d
00000330: d977 c6bc a491 843e 8699 d23d ec04 653e
00000340: 8e6c f93d e0d8 153d e28e 7b3d bcf8 933d
00000350: 2a96 983e a5b2 593e 094b 1abd e4bd af3c
00000360: 1d03 003e 0a06 72bd b089 dd3c 21d1 713d
00000370: 392a fc3d 3005 fb3d e6f0 6c3d 22bb 863e
00000380: 46f1 903e 48c3 083e 9ef1 a63a 9cc7 9ebd
00000390: c496 853e 13d9 c1bc e10e 5d3d 5757 69bd
000003a0: 8aad d93c f3de 063e cdbd 743d a435 b43d
000003b0: f54e 043e f386 a9bd 4692 833e 647f eebd
000003c0: 6dfd a6bd 6250 003e cc07 79bd 0a47 84bd
000003d0: 27c4 013e 5444 9dbc 0c8e ccbd a624 5c3e
000003e0: 4152 503c 681a 6e3c 3db7 193e efdc 483d
000003f0: 2737 8c3d 062d 133d 2bde 5abd 6972 2dbd
0.05681977 0.06192943 0.030869687 0.07045583 -0.010689896 -0.024515053 0.027508557 0.099975064
0.109742686 -0.029073082 0.05309223 -0.05800189 0.06748035 -0.1813267 -0.12558882 -0.15097517
-0.11419991 0.07693796 -0.15547542 -0.10215118 -0.12099704 0.00026271294 0.0830116 0.044149347
-0.017945712 0.10262735 0.11001846 0.01584267 -0.20562255 0.11503428 0.05851998 0.0046947827
-0.12924488 -0.14320764 -0.07994228 -0.06516124 -0.08591955 0.040585723 0.09712218 -0.07981647
-0.13305673 -0.016341627 -0.13238394 0.09967275 -0.05622542 -0.08834242 0.013883909 0.10441751
0.04365064 -0.09040453 -0.0693775 0.013974966 -0.16506843 -0.11297402 0.1214889 -0.17318365
0.0598426 -0.07666049 -0.05414198 -0.062644005 0.026371723 0.022275116 0.09619502 -0.056261603
0.042886343 0.042711824 0.07666218 -0.040103856 0.030552771 0.08918868 0.066096954 0.049293496
-0.062711336 -0.033254288 0.056770712 0.031987786 0.038860187 0.015516328 -0.19302507 -0.15956835
-0.03636384 0.073263794 -0.20075288 -0.11537441 -0.04636864 -0.19174773 -0.13456897 -0.026830535
-0.12681663 -0.09091286 0.043254644 -0.16980006 -0.18676369 0.035664737 0.02718462 -0.08526228
-0.11971702 -0.16343379 -0.06602124 -0.12854275 -0.20307367 0.10518229 0.109368235 0.012708858
-0.009723232 -0.1038781 -0.09687915 0.08146678 -0.08428586 -0.049467374 -0.08592066 0.009318376
0.05298559 0.080802865 -0.08725938 -0.059730228 -0.1174405 -0.08051826 0.022449896 -0.1279173
0.0238544 0.041752696 -0.20963036 0.10867224 0.011140577 -0.08541401 -0.00958486 0.08973445
-0.05701233 -0.0073082694 -0.07338378 -0.023909347 -0.09513293 0.09673606 0.009982549 0.1315567
-0.125545 -0.060464498 0.07442063 0.094730794 -0.047119033 0.007591316 -0.038099386 -0.046609756
-0.08613835 -0.017708689 0.048061505 0.067162536 0.046459455 -0.00543227 -0.10264906 0.12981547
-0.08983737 0.0992773 -0.123970106 0.068221726 -0.09800632 -0.10613914 -0.05279548 0.07576802
0.0036501584 0.015601288 -0.06017163 -0.08101953 -0.15171783 0.030683547 0.04228777 0.029788734
-0.10292308 -0.007220968 0.11739639 0.11420897 -0.21509281 -0.07227388 -0.13937455 -0.09902711
0.003196441 0.0018920038 -0.050478905 0.00972469 -0.004400148 0.098181285 0.12320633 0.028190227
0.0028729069 -0.019394774 -0.14143363 0.045506526 0.123454995 0.117158756 -0.011465128 0.06933117
0.00040108713 -0.09084217 0.09456013 0.20882793 0.0039162976 -0.09691961 0.08128781 0.0048477687
-0.09472789 -0.0114266435 -0.049287617 0.05804926 -0.02422707 0.25892365 0.102831885 0.22365159
0.12178908 0.03658378 0.06141556 0.07225177 0.29802066 0.21259554 -0.037669215 0.021452852
0.12501188 -0.05908779 0.027043194 0.05903733 0.12312741 0.12256849 0.057846926 0.26314646
0.28309077 0.13355744 0.0012736802 -0.07752916 0.26091588 -0.02366308 0.053969268 -0.05696806
0.026572008 0.13170986 0.05975132 0.08799294 0.12920745 -0.08277693 0.25697535 -0.116453916
-0.08153806 0.12530664 -0.06079845 -0.06458862 0.12672482 -0.01919762 -0.09988031 0.21498355
0.012714923 0.014532663 0.15011306 0.049038824 0.06846457 0.03593161 -0.053434532 -0.04234544

fc3.bias f4 [5]
00000000: 4f60 d2bd 5fda 64bd fb27 4a3d 5e73 d03c
00000010: f142 843c
-0.10272276 -0.055872317 0.049354535 0.025445636 0.016145201
