model5/DOMAC/agent_0/146actor_params.pkl (torch, 144687 bytes, 18 tensors)

fc1.weight f4 [64, 156]
00000000: 61fb 7c3c 0c5c e7bc bf68 1a3c 9920 053d
00000010: 6cc6 1c3c edb2 1cbd 412b 2a3d 30bc dfbc
00000020: 3857 633d e9d6 533d 0e26 febc aa69 583d
00000030: bca3 c43c a93e f53c 909e 123c 94cb 58bd
00000040: ffdc b63d 2b09 813d 8aa1 43bd e55e 013a
00000050: 163b 193d 1495 3cbd d85d 39bd 48c5 853d
00000060: d424 6a3d 2feb 5abc 4c00 87bc 3db5 1d3d
00000070: e31d 853d e3fc 6c3d e398 9bbd 8fd8 c03c
00000080: d04c fe3b 54a3 9bbd cfb0 9abd a535 bebd
00000090: 64d7 5c3d 1a63 dfbd bdc8 40bd 053a f9bb
000000a0: 48a0 b73d 1956 15bc c89c aabd 3aed f1bd
000000b0: 8d23 f9bc 156c 68bd 10d5 04bc caf2 bdbd
000000c0: 1967 89bd ed82 d93d b21d c83d 4cfe 0e3d
000000d0: a9e4 933d 5d51 9c3c 1b42 e93d e75b c9bd
000000e0: 5327 c1bd 116b ec3d d7e2 a43d d085 02bd
000000f0: 8b62 c73b 38fb f9bc b516 383d 4ff9 b43d
00000100: 5142 843d 7f28 00bd 6b79 83bd 58bf a23d
00000110: 2d67 d73d ee07 b7bc 9267 9abd fc9b 6cbd
00000120: fdd3 26bd 0544 ebbd 19f7 77bc 389a 9d3d
00000130: 82c1 74bc 031c cb3d 4411 523d 8ae9 8c3d
00000140: 4e59 643d 322e bbbc fb3e a53d dedd da3b
00000150: 4234 90bd 2634 8b3d 209b 42bd 0b4d 663c
00000160: 306a 893c 08ce e03b 84fe 763d cbc4 8f3c
00000170: aa05 853d 796a 86bc 7da6 973d 1511 87bc
00000180: de17 94bc c316 c9bd 2ccf e4bd 3d90 483d
00000190: a7e7 1c3d fc12 973d e15a 353d b302 7c3c
000001a0: aff2 e83d 5bb4 bd3d fcec 07be 7d56 eebb
000001b0: 57d0 0f3d 5023 2fbd 7f52 21bd c485 3ebc
000001c0: f72b a0bd 748f 72bc 4095 cc3d a014 f6bd
000001d0: 1b0a 983d 305f e3bd a297 363c 4d91 4fbd
000001e0: ed84 253c d860 f2bc c623 aa3d 14c8 243d
000001f0: 1df0 c4bd b63c 753d ee3e 023d 91e3 663d
00000200: baf7 373b 28ab d0bb 7f4d cbbd 8629 ea3d
00000210: 3d69 8a3d 49b8 b1bb cce0 8abd 7384 acbd
00000220: bbc4 d5bd 4656 c03d b2ae 02bd 6ef1 b63c
00000230: 7a24 033d c882 8fbc 5196 863d 70e0 773d
00000240: a18b d83d 588f 3e3d 0893 393d 8cd7 74bd
00000250: 7dfa 59bc 562a 1abd 8d4f 6a3c 1d16 c63c
00000260: f0c5 bd3d e65c 193d 3743 3cbd e8ef bebd
00000270: af73 c63d a141 0ebc 006a 60bc be38 25bd
00000280: 06ec b3bc 7736 0f3d 23bb 813d fa15 3cbd
00000290: 9ca2 5abd 025c 163c 1b5a 50bd 3419 a43d
000002a0: 4882 623c bc52 69bd 6cc5 a83c 0364 843d
000002b0: af86 cd3c 5218 52bd 01b1 d13c 2355 66bd
000002c0: 56ab 653d 0872 a03c 344d e83c e7a6 8c3b
000002d0: 7080 3cbd d902 283d d1bf a63d 861e f93b
000002e0: 5c16 f43c c6a5 a0bc f42c a6bd 10d5 0d3d
000002f0: 0b55 9e3c d64e 87bd 36e0 553c 5e9f e7bd
00000300: 1e6e bb3c b5bc b5bd 91ad ef3b 0e7a d8bd
00000310: f055 7b3d 2e6e 733d 35a1 46bd 1aef dbbd
00000320: 432e 13bd 09c7 ffbd 8da1 5fbd b005 1ebd
00000330: 3cfd 80bd 173b 023d 96b1 233d 13f4 9fbb
00000340: bce5 f83d f8cd f5bd 6dac df3d d41d 70bc
00000350: ec8d 183d ae09 f83d ffc5 f03c 9f0a adbd
00000360: a84b 8ebb 4887 b03d 2a69 593d fda3 9b3c
00000370: ccca 803d 0d56 9fbd 993f debd 6514 cd3d
00000380: 273f 843d a90e e33c 0ace b6bb a81d 9abd
00000390: 5626 a1bd bc50 1abd e61a c73d c3db acbb
000003a0: 709f 063e 825e a03d b97b 383d b96c 17bd
000003b0: 132c 863c 3c7f d13d 4126 9d3d 763c 863d
000003c0: 7c18 0abe e67e 35bd d06c e1bd 7ac5 56bd
000003d0: 623b 183d 71da bfbd 07e8 073e b438 e4bd
000003e0: e5a3 76bc 684b 41bd 958d 603c b6c2 25bd
000003f0: 4848 853c 5941 0ebd b293 c83c 7c45 c1bd
0.015440793 -0.028242134 0.0094243875 0.03250179 0.009568792 -0.038256574 0.041545156 -0.027311414
0.0555031 0.051718626 -0.031024005 0.052835144 0.024003856 0.029937105 0.008948937 -0.052928522
0.089288704 0.06300577 -0.047761478 0.00049351 0.037409864 -0.04604061 -0.045255512 0.06531769
0.05716403 -0.013361736 -0.016479634 0.03850292 0.06499841 0.05785836 -0.0759752 0.023540763
0.0077606216 -0.07599512 -0.07553255 -0.09287576 0.05391635 -0.10907574 -0.04706644 -0.0076057934
0.08966118 -0.009114766 -0.08330685 -0.118128255 -0.03041246 -0.0567437 -0.008107439 -0.09274824
-0.067091174 0.10620675 0.09771289 0.034910485 0.07221348 0.019081766 0.11389562 -0.09831982
-0.094313286 0.11543859 0.08051079 -0.031865895 0.0060847453 -0.030515298 0.04494353 0.08836614
0.06457961 -0.03128862 -0.06419643 0.07946652 0.10517726 -0.022342648 -0.07539286 -0.057765946
-0.04072951 -0.11487583 -0.015134596 0.076954305 -0.014938714 0.09917452 0.051285997 0.068804815
0.05574923 -0.022849176 0.08068653 0.0066792807 -0.070412174 0.06797056 -0.04751122 0.014056454
0.016774267 0.0068604983 0.06030132 0.017549893 0.06495221 -0.016408192 0.07404802 -0.016487638
-0.018077787 -0.098187946 -0.111723274 0.04896568 0.03830686 0.07376668 0.044276122 0.015381503
0.11374413 0.09262916 -0.13273996 -0.007273494 0.035110798 -0.042758286 -0.039385315 -0.011628572
-0.07820886 -0.01480471 0.09989405 -0.12015653 0.074238025 -0.1110214 0.0111445505 -0.05067568
0.010102493 -0.029587194 0.083076045 0.040229872 -0.096161105 0.05987235 0.031798296 0.056369368
0.002807124 -0.0063680597 -0.099268906 0.11433701 0.06758354 -0.00542358 -0.06781158 -0.084237
-0.10437914 0.09391455 -0.031904884 0.02233192 0.03201721 -0.017518416 0.06571639 0.060516775
0.10573507 0.046523422 0.045306236 -0.059775874 -0.01330435 -0.03763803 0.014301193 0.024180466
0.09266269 0.03744211 -0.04596254 -0.09323102 0.09690034 -0.008682639 -0.013697147 -0.040337317
-0.02196313 0.03496405 0.063345216 -0.045919396 -0.053377733 0.00917721 -0.05086718 0.080126196
0.013825007 -0.056963667 0.02060195 0.06464388 0.025088636 -0.051292725 0.025597097 -0.056233536
0.0560716 0.019585624 0.028357126 0.0042923572 -0.046020925 0.04101834 0.08142055 0.0076025156
0.029795818 -0.019610297 -0.08114043 0.03462702 0.019327661 -0.06606834 0.013053944 -0.11309694
0.022879656 -0.08873884 0.007314392 -0.10570155 0.061361253 0.059431247 -0.048493583 -0.107389644
-0.03593279 -0.12489135 -0.054597426 -0.038579643 -0.062983006 0.031794634 0.03996428 -0.004881391
0.12153193 -0.12002176 0.109215595 -0.014655549 0.037244722 0.12111221 0.029391287 -0.084492914
-0.004342515 0.08619553 0.053078808 0.018999094 0.062886804 -0.07780085 -0.10851974 0.100136556
0.06457358 0.027716951 -0.005578761 -0.07525188 -0.0786864 -0.03767465 0.09721927 -0.005275221
0.13146758 0.07830526 0.045039866 -0.03696892 0.016378438 0.10229346 0.07673312 0.06554501
-0.13485903 -0.044310473 -0.110070825 -0.052434422 0.037166007 -0.09367836 0.13272105 -0.11143628
-0.015053724 -0.047191054 0.013705631 -0.040468894 0.016269818 -0.03473029 0.02448449 -0.09437081

fc1.bias f4 [64]
00000000: ae3e f83c 84fb 553d b854 dcbc 45db de3c
00000010: 7473 b83c dbfa 843d a26e e63d 90c0 57bd
00000020: fece 10bc 4546 9a3d 2d61 d43c 8907 56bd
00000030: ee10 a73c 9769 803d ff43 33bb 97d0 a1bd
00000040: 84a8 ecbc 21e2 aebc 7e2f 5f3c 22c8 883d
00000050: c0fb 043d 0ec8 073d 3b0d 05bd 273f 3e3d
00000060: bf50 a1bd 3a7f 983c 022b 833d 20ad 2c3c
00000070: 8b73 633d 31cf 94bb e106 983d e1d5 c03d
00000080: abee 043d 7bea 7e3d beb3 b43c bf34 9f3d
00000090: 0edb 2cbc 4b88 18bd 499e 413c 088f 553d
000000a0: 5a31 25bd 4a3e 50bd 5529 97bd 7a11 59bd
000000b0: 6d62 443d a9a2 0fbd 1e84 a5bd 45ab dbbc
000000c0: 6954 443b e466 1b3d 5e70 04bd 7df1 053d
000000d0: 5795 15bc 6d73 2ebd cee1 d93b f9af 88bd
000000e0: ba20 403d b289 08bb 98d5 a0bd f922 e0b9
000000f0: 7fcb 273d 8c51 e63c 40c8 943c 3312 95bb
0.030303326 0.052241817 -0.026895866 0.027204165 0.02251599 0.064931594 0.1125157 -0.052673876
-0.008838413 0.07532934 0.025925243 -0.05225328 0.020393815 0.0627014 -0.0027353761 -0.079011135
-0.028888948 -0.021348061 0.013622163 0.06678797 0.03246665 0.03314977 -0.03248332 0.046446946
-0.07876729 0.018615354 0.064046875 0.010539323 0.055530112 -0.0045413007 0.07423187 0.09415794
0.032454174 0.062235337 0.022058364 0.077737324 -0.010550274 -0.037239354 0.011817523 0.05213836
-0.04033027 -0.050840653 -0.0738093 -0.052995183 0.04794543 -0.035067234 -0.0808184 -0.026815066
0.002995754 0.03793992 -0.032333724 0.032701004 -0.009129844 -0.042590547 0.0066492325 -0.06674189
0.04690621 -0.0020834026 -0.0785324 -0.00042750666 0.040965553 0.028115056 0.018161893 -0.0045492887

fc2.weight f4 [64, 64]
00000000: 2bd8 173e 62d6 d83d d4e4 6a3d f69f dd3d
00000010: d048 883d 84ed e63d 9ed4 0b3e 8035 3fbb
00000020: 8c6e 3cbd 1608 92bd e41a ad3c 51e6 c5bd
00000030: 5507 42bd 7684 ddbd e84e 22bd d8ef fb3d
00000040: cac4 dabc d29f 9abd c7d1 743c 92a6 64b9
00000050: 0734 ecbd 6661 2f3e 8bb4 5abd 9319 aebd
00000060: 0711 70bd 38bb d8bc 5dd0 1a3d c483 963d
00000070: 7b4d 71bd f44c cbbd 1809 0c3e 1791 4e3d
00000080: d4a0 ef3c aa9c 9c3d c655 f3bd 23ca 0f3e
00000090: 5b9a c0bd a396 0cbc d9ab d43d c079 64bd
000000a0: 3d4e 1f3d 5385 f13d 62b0 ddbd 28d2 2ebd
000000b0: 2970 8abd 7a62 80bd ad19 7d3d 41c7 dcbd
000000c0: f0c1 383e 714f 55bd df17 2c3e 8588 52bd
000000d0: 0dd0 4e3d 793f 253d f984 84bd 5dca b3bc
000000e0: 0980 28bc e070 c53d deda 5d3d b792 ca3b
000000f0: fd14 10bd a462 94bc b521 93bd dd0d 6bbd
00000100: b8cd f9bd 0be2 ebbd f76c c3bd 9649 a7bd
00000110: 19b0 cb3d a7b1 50bb fe38 de3c 9885 7d3d
00000120: 0deb 873d f58a 9d3d e8f1 d93d ff94 cabd
00000130: 48c6 20bc 5e1f 943d 0a12 983d ea81 fbbd
00000140: e07c 1d3d c54d 6f3d 4d43 d5bd 0e3b 9d3d
00000150: ea7e cbbb 5e35 f7bd e2fc d83d 171c 8dbd
00000160: 2b4a b5bd d982 0e3d 567d b2bd a791 8ebb
00000170: e98f 943c 043a b53b 72fd 37bd b08c 79bd
00000180: 7bf8 ddbd 48f8 efbb 4ed5 a73b aa6d 01be
00000190: 1a13 fcbd 3351 cc3d 831b 1dbc 5463 34bc
000001a0: 45bd 2abd c50f b6bd 1e19 ab3b 5e50 2bbd
000001b0: 7a8d f83d d3a9 b43d 89e9 903d f4fb 91bd
000001c0: 83ef 48bc a4c4 b73d ef36 dd3d e75d bf3d
000001d0: 80a2 90bd 7128 8a3d 2b5a 17bd 9209 b5bd
000001e0: 1a3b 6c39 5978 b83c 4ee0 ec3d 47c0 b9bc
000001f0: ba73 f1bc 02a2 0ebd 3aa3 7f3d 8ec2 9f3d
00000200: 842a d8bd 8185 a5bd 70c9 bebd 7900 fe3b
00000210: 5295 9e3b a36d dcbd 575a 423d f089 f03c
00000220: 4078 613b 229d 413d ac73 b93d b8e0 8a3d
00000230: 9bc9 c93c 1998 313d 7bcd bbbd 6280 febd
00000240: 7819 e6bd 2238 4a3d 82aa 97bd 0991 c53c
00000250: ada9 c23d f6b0 dbba e021 b2bd c2eb 553d
00000260: ef67 d4bc 3114 623d 5780 e0bd a4bd 87bd
00000270: fab8 cebd cd95 b43d fc08 b83c ef9b afbd
00000280: 365d 04bd c204 2c3d 7bc5 9e3d 9b33 05bd
00000290: 5ecf e6bd b7a4 e5bd 77b0 9e3d ad6f 3b3a
000002a0: 8e70 9a3d 6e33 ca3d a505 17bd 8a94 96bc
000002b0: b369 85bd 11ad ae3c 7dae 8dbd 4389 b83c
000002c0: e68c b93a a02b 88bd 1d02 ae3d e19d c4bd
000002d0: b3b7 c3bd d805 1dbd 0fc1 a03d 7962 afbd
000002e0: 525b 493d 572b aebc 6a64 313d 4d43 bc3d
000002f0: ee13 cebc 85df a0bd f3ae 11bc 0516 03bd
00000300: 8abc d5bd a5e8 a1bc 8257 143d 3c1a 29bd
00000310: b19f cb3d c2ec a83c efd3 f03d 962d d3bd
00000320: 226f b53d 0e36 3a3d b05e b73d f071 bdbc
00000330: 7c55 3fbd a729 f8bc 0d28 79bd 5669 83bd
00000340: fc91 cfbd a1c4 093d 1462 ddbd f983 1fbd
00000350: d7b1 84bc 57f6 06bd 24f4 f33c 2fc0 b8bd
00000360: 0a41 ab3d ea2b 583c c766 14bd bdce d93d
00000370: fbe0 5fbd c25b 51bd 437d 05bd 93b6 dabd
00000380: 0029 f8bd acc3 48bd f036 eb3c 906d 6c3d
00000390: dcd9 c83d c127 283d c0f0 09bc 62a8 9f3d
000003a0: 52f2 da3d e679 c4bd a2c8 e8bd 6834 9ebd
000003b0: 28ca 763d a45c 05bd 8066 8ebd 22eb dabd
000003c0: 0629 24bd a9c0 a53d 580e bebd 2404 af3d
000003d0: 615d 79bd 97a4 a9bd 802a 753c 90b6 d23c
000003e0: 9b7a 403d b688 00be 1c39 b23d c4db 413d
000003f0: 56fe b8bb e845 d13d 8954 2cbd 61ce a93d
0.14828555 0.10587765 0.057347134 0.10821526 0.06654513 0.11275771 0.13655326 -0.0029176176
-0.046003863 -0.071304485 0.021130987 -0.0966307 -0.047370274 -0.108162805 -0.039626032 0.12301606
-0.026705164 -0.075500146 0.014942593 -0.00021805827 -0.11533361 0.17126998 -0.053394835 -0.08500972
-0.05860999 -0.02645646 0.037796367 0.07349351 -0.05891178 -0.09926787 0.13675344 0.050431337
0.029251494 0.07647069 -0.11881594 0.14041953 -0.09404441 -0.0085808365 0.1038434 -0.055780172
0.038892973 0.11793008 -0.10824658 -0.04268089 -0.06759674 -0.06268783 0.061792064 -0.10780192
0.18042731 -0.052077714 0.16805981 -0.051399726 0.05049138 0.040343735 -0.06470675 -0.02194708
-0.010284432 0.0964067 0.054163806 0.0061820406 -0.035176266 -0.018113442 -0.071841635 -0.057386268
-0.12197441 -0.11517724 -0.09542268 -0.08168332 0.09945697 -0.003184417 0.027126785 0.061894983
0.06636629 0.076925196 0.10641843 -0.098917 -0.009812899 0.07232545 0.07425316 -0.122806385
0.03844917 0.058423776 -0.10413227 0.076772794 -0.0062101977 -0.12070726 0.105951086 -0.06890123
-0.08852037 0.034792755 -0.08715312 -0.004350859 0.018135028 0.0055305976 -0.04491944 -0.060925186
-0.108384095 -0.0073232986 0.0051218634 -0.1263949 -0.12308331 0.09976425 -0.009589079 -0.01101001
-0.041684408 -0.088897265 0.0052215 -0.04182469 0.121363595 0.08821454 0.07075793 -0.07128134
-0.012264135 0.08973053 0.108014934 0.09344082 -0.070622444 0.06745995 -0.036951225 -0.08839716
0.00022528731 0.022518324 0.1156622 -0.022674693 -0.029474128 -0.03482247 0.062411524 0.0780078
-0.10554984 -0.080821045 -0.09315765 0.007751521 0.0048395777 -0.10763099 0.047449436 0.029362649
0.003440395 0.047268994 0.09055266 0.06781143 0.024632266 0.043357942 -0.09170052 -0.12426831
-0.112353265 0.04936994 -0.07405569 0.02411701 0.09505019 -0.0016761112 -0.086978674 0.05222679
-0.025928466 0.055195037 -0.10961979 -0.06627968 -0.10093875 0.08817635 0.022465222 -0.08574664
-0.032315455 0.041996725 0.0775251 -0.032519918 -0.11270021 -0.112130575 0.07748502 0.0007150125
0.07540999 0.09873091 -0.036870617 -0.018381376 -0.06514301 0.021322759 -0.069180466 0.022526389
0.0014156371 -0.06648946 0.08496497 -0.096004255 -0.09556522 -0.03833565 0.07849323 -0.08563704
0.049159355 -0.0212609 0.043308653 0.09192524 -0.025155988 -0.07855133 -0.008891809 -0.03200342
-0.104363516 -0.019764254 0.036216266 -0.041284785 0.09942568 0.020620707 0.11759173 -0.10311429
0.088590875 0.045461707 0.08953607 -0.023125619 -0.046712384 -0.030293299 -0.06082921 -0.064165756
-0.10135266 0.033634786 -0.108097225 -0.03894422 -0.016198082 -0.03294977 0.029779501 -0.09021031
0.083620146 0.013194064 -0.03623083 0.10635135 -0.054657917 -0.051112898 -0.032590162 -0.106793545
-0.12117195 -0.049014732 0.02871272 0.057721674 0.098071784 0.041053537 -0.008419216 0.07795788
0.1069075 -0.09593563 -0.11366393 -0.077248394 0.060251385 -0.032559052 -0.06953144 -0.10689379
-0.040078185 0.08093388 -0.092800796 0.08545712 -0.06088007 -0.08283346 0.014963746 0.025721818
0.046991926 -0.12552151 0.08702299 0.047328725 -0.0056455536 0.10218412 -0.042072807 0.08291317

fc2.bias f4 [64]
00000000: 5af0 f73d 8e24 90bc 1ac8 e83d 6f37 58bd
00000010: 6ace cabc 5fdc 1ebc f11a 083c b3a5 aebd
00000020: 8128 09bd 075c 9ebd b092 fcbd 398f e13d
00000030: 98d1 2e3d bf9d 5dbd 269b 9e3d 13d8 163d
00000040: 9cba d1bd 5bed 273d 964d b63d 6be4 cf3d
00000050: 57c1 8c3d 4954 d0bd 0958 ef3b 44d5 993d
00000060: f078 c3bd 0dd9 233d 4d4a ee3d 1c2e 26bd
00000070: 389f 08bd 9aaf a23d ca43 eabd b406 f33d
00000080: a4cd 8bbd 3446 4ebd bea3 673d 88c3 e5bc
00000090: 5495 36bd c740 35bd 64f1 f3bd e5a2 edbc
000000a0: 08ef c73d 38fe 023d f61a 59b9 a111 ddbd
000000b0: 06f7 97bd 862d 083e 4ac3 55bd 00ea ad3d
000000c0: 2cbe cb3d 8943 9c3c 2e51 cfbd bab9 10bd
000000d0: c190 65bd ce13 293d 1646 a23d 1347 163d
000000e0: 51fa c83c aca3 30bd b4cf 90bd 3cc6 e0bc
000000f0: 5a24 953d 5315 89bd d3fe d83d cb19 9ebd
0.1210639 -0.017595556 0.11366291 -0.05278724 -0.024756629 -0.009696095 0.008307205 -0.08527698
-0.033485893 -0.077323966 -0.12332666 0.11013646 0.042680353 -0.054105517 0.07744436 0.03682716
-0.10240671 0.040997844 0.08901517 0.10150989 0.06872814 -0.10172326 0.007304196 0.0751138
-0.09544551 0.040001918 0.116352655 -0.040571317 -0.033354968 0.079436496 -0.11438711 0.11866513
-0.06826332 -0.05035992 0.05655264 -0.028047338 -0.044576004 -0.04425123 -0.11911276 -0.029008338
0.097623885 0.031980723 -0.00020704776 -0.10794378 -0.07420163 0.13298616 -0.052188195 0.084918976
0.09948382 0.019075172 -0.10122906 -0.035333373 -0.05604625 0.041278653 0.07923524 0.036688875
0.024533423 -0.04312484 -0.07070866 -0.027438276 0.07282324 -0.066935204 0.10595479 -0.07719763

fc3.weight f4 [5, 64]
00000000: e0ca 9a3d 63ee e9bd 7f1a 013e ef89 ad3d
00000010: c0a0 873d e1fd bb3d df61 cebd ba33 c5bc
00000020: 420b 973d 57e7 fd3d 9a7b 9cbd a535 b23d
00000030: ddff bbbc 633c b1bd 2a23 b8bd e96e 8dbc
00000040: a6a5 983d aec2 da3d 1587 063e 2fea 70bc
00000050: ed21 d0bd e239 043d 91d1 85bc 4788 f33d
00000060: 258b 8d3d a53a 87bd b7f2 b6bd c569 09bd
00000070: 1c1c 99bd 9b8a 71bd fe25 ad3d 0831 ce3d
00000080: 0805 853d 2251 aabc ae6c 96bd 8005 c43d
00000090: 44ac 93bd 7a8e d6bd f8fb b83d 6085 7cbd
000000a0: d755 9d3d 605d f13d 86ac cebd 8953 11bd
000000b0: c84b 0abe a911 d4bd 19b3 f5bc f110 17bd
000000c0: 71bd cf3d 093f 38bd 6af3 a23d 9f85 e63c
000000d0: ae9e 353d c4f6 abbd 13a0 bf3d 7daa 01be
000000e0: 89aa a0bc 90aa f03c 1683 afbd 6065 f53d
000000f0: 7273 c5bd 03ce 513d 64e5 923d af19 083d
00000100: ebe3 f63d a08b f5bd d470 bcbd 6697 783d
00000110: 3e8c 103b 6d39 cf3c d26c e33d fb51 ff3c
00000120: a26d abbd c2bf dabd e64d dd3d 5c2a f9bd
00000130: 3f8c aebc 2bd5 8ebd 1ec2 24bd 5d6a f7bc
00000140: 868a 8dbd bfbf eebd 8ecc d63d 6f5d cd3d
00000150: 4158 b03d 23fe bebd 4fdb abbc e2aa 033d
00000160: af11 bbbd 4d66 fc3d b8f8 c83c 6ff9 dc3c
00000170: d114 4a3c 40a8 b13d e073 ab3b 3357 d23d
00000180: a722 833d 8016 64bd 368d 9bbd 4caf f33d
00000190: da5d 2d3d 8f57 c1bd 2c01 39bd d402 823d
000001a0: 73f2 c83d 29b1 69ba 5ac5 e2bd 6daa 713d
000001b0: 5cf2 5bbc 3380 c23c 7b16 223d efc5 2e3d
000001c0: dd0e 293d 6a74 f63c 4629 8ebd 8df0 8e3d
000001d0: 3433 50bd a9b8 e53d 8e07 b73d 0f55 ad3d
000001e0: 6cd7 e13c 6093 2f3c 8cc4 eebd b43d 44bc
000001f0: c9f1 a13d 8344 a93a bd33 5e3d d811 e2bd
00000200: b409 c7bc 0db7 57bd 9517 a53d 43ac 4a3d
00000210: 75e5 9b3c 1070 3b3d abea bd3d 159e 10bd
00000220: 3963 87bd f54c 933d 8026 833d 9625 5fbd
00000230: ab36 f1bc dbe1 b93d 14aa eebd 099c c5bd
00000240: 3e86 8a3d 2925 0cbd 7554 88bd f2a9 d73c
00000250: 467c d83d b40a 0c3e 583f c73d 6cbd 353d
00000260: 3e82 c3bd 0f86 0dbe e1b0 ab3d 9365 4abd
00000270: e422 7fbd a390 f43c 04d0 76bd b54d 83bd
00000280: ef77 01be d478 643c 540a ba3d c402 c73d
00000290: 65ad 593d f163 a83d 3c8b 4dbd c0ab 71bd
000002a0: 3e72 843d 61e4 c4bd 16b9 973b 5eab f1bd
000002b0: b1e2 b6bd a28b 913b 16c1 863d b5df 383d
000002c0: 4327 20bb ab91 08bd ac35 26bd c53a f63c
000002d0: ff69 07be 95c4 f9bd 4f1a 82bd 4a43 36bd
000002e0: e46b 213b 5037 873c 20f8 e83c cb40 f9bd
000002f0: 7c02 70bd 98c2 bf3d 0abd 04be 9e8c a0bd
00000300: 5055 81bd 5565 c3bd 5525 07bd fe88 afbd
00000310: 266d d93d 8972 9cbd 7e1a 10be 71a1 20be
00000320: b9a8 ae3d a7f7 9b3d ba23 b3bd aaa9 eabd
00000330: a9b7 03be 7d7b b13a 92dc 1e3d ee34 993d
00000340: 78b6 46bd 2960 7abd 6b72 8f3d 34bc d0bd
00000350: 1ea6 45bd 3705 ad3d 3b1d 17be b480 c43d
00000360: e9c4 28bc 5ddb 66bd e6f4 623c f53f dabd
00000370: d9b6 ce3d c268 7fbc f448 963d f2ad b8bd
00000380: 2b5d 1abe 7ca9 39bd 2166 b03d 541d 043d
00000390: 9d48 b03d d9d0 b33d 58dd 7e3d dca6 d93d
000003a0: 747c 563c 7227 3a3d 8fba ca3d aff8 ddbd
000003b0: ff3a 6c3d 418a 77bd d0a3 c43c 8fc5 06be
000003c0: 4b60 08bd 87a3 aa3d 2839 4fbd 18de 2abd
000003d0: 14b4 ff3a 6eb4 353d 0d5b 9abd db54 4dbd
000003e0: 0a61 7b3d 54ad 673d e0bb a7bb 5c3a c5bc
000003f0: 7642 03be eda0 e9bb 6459 74bc 6e46 0abe
0.075582266 -0.11422422 0.12607764 0.08473574 0.066224575 0.09179283 -0.10077261 -0.024072517
0.07375194 0.1239764 -0.076407626 0.08701638 -0.022949154 -0.08654096 -0.08991082 -0.0172648
0.0745347 0.106816635 0.13137467 -0.014704271 -0.10162721 0.032281764 -0.01633528 0.11891227
0.06911305 -0.066029824 -0.08933013 -0.033548135 -0.074760646 -0.058970075 0.08454512 0.10067946
0.064951 -0.02079064 -0.07344948 0.095713615 -0.072105914 -0.10476394 0.09032434 -0.061650634
0.07682388 0.11785388 -0.100915 -0.035480056 -0.13505471 -0.10354931 -0.029992627 -0.03688139
0.10143555 -0.04498199 0.07956584 0.028139887 0.044340782 -0.08396676 0.093567036 -0.12662692
-0.019612567 0.029378206 -0.085699245 0.11982226 -0.0964116 0.05122186 0.07172659 0.03322762
0.12055191 -0.11989522 -0.09201208 0.06069126 0.0022056247 0.025295937 0.1110474 0.031167021
-0.0837052 -0.10681106 0.108058736 -0.121662825 -0.021307109 -0.06974252 -0.040224187 -0.030202085
-0.06911187 -0.116576664 0.104882345 0.10027587 0.08610583 -0.093258165 -0.020978598 0.03214539
-0.09134232 0.123242 0.02453266 0.026974408 0.012334065 0.08674669 0.0052323192 0.10270538
0.06403094 -0.05568552 -0.07595293 0.118986696 0.042325832 -0.094405286 -0.045167133 0.06348196
0.098118685 -0.00089146435 -0.11072798 0.05900042 -0.013424482 0.02374277 0.03957222 0.042669233
0.04127394 0.030084807 -0.06941466 0.06979475 -0.05083008 0.11216862 0.08936988 0.08463489
0.027568541 0.010716289 -0.11658582 -0.011977602 0.07907445 0.0012914095 0.05424856 -0.1103856
-0.024296619 -0.052664805 0.080611385 0.049480688 0.019030312 0.045761168 0.09273275 -0.03530701
-0.06610722 0.07192413 0.06403828 -0.054479204 -0.029445013 0.09076282 -0.116535336 -0.09648902
0.06763886 -0.034215126 -0.06656734 0.026326153 0.10570578 0.13675958 0.09728879 0.0443701
-0.09546326 -0.1382067 0.08383346 -0.049413275 -0.062289134 0.029854124 -0.060256973 -0.06411306
-0.12643407 0.013944823 0.09084001 0.097173244 0.053143878 0.08222187 -0.050181612 -0.059001684
0.064671025 -0.09613872 0.0046302183 -0.11800264 -0.08929957 0.0044416944 0.06579797 0.04513522
-0.0024437464 -0.033342045 -0.04057853 0.03005732 -0.13224028 -0.12195698 -0.06352674 -0.044497766
0.0024630958 0.016505867 0.028438628 -0.121705614 -0.05859612 0.09363288 -0.12962738 -0.078393206
-0.063151 -0.09540812 -0.032994587 -0.08571051 0.106165215 -0.07639033 -0.14072606 -0.15686585
0.08528275 0.07615595 -0.08747049 -0.11458142 -0.1286303 0.0013540831 0.03878457 0.07480799
-0.04851386 -0.06112686 0.07004245 -0.10192147 -0.048254125 0.0844826 -0.14757244 0.09594861
-0.010300853 -0.056361545 0.013852334 -0.1065673 0.10093469 -0.015588941 0.073381335 -0.090175524
-0.15074603 -0.04532765 0.086132295 0.032254532 0.086076 0.08780069 0.06222281 0.10627529
0.013091195 0.045447774 0.098988645 -0.10838448 0.05767345 -0.060434584 0.024003893 -0.131613
-0.033294957 0.083319716 -0.050591618 -0.04171571 0.0019508624 0.044361524 -0.07536898 -0.050129753
0.06137184 0.056561783 -0.005118832 -0.02407568 -0.12818322 -0.0071297796 -0.0149138905 -0.1350343

fc3.bias f4 [5]
00000000: 7f62 b43d 31fc ccbc ade2 e73d 12f4 83bd
00000010: 9db5 64bc
0.08807849 -0.025022598 0.11322532 -0.06443037 -0.013959316

opp_actors.0.fc1.weight f4 [64, 28]
00000000: 1a07 193d ee61 ed3d 11ab 15be 0608 0abe
00000010: 1107 79bd ac58 6c3d b062 0f3d 8d7e 1a3e
00000020: 7606 a2b9 a0b8 3a3d 4166 e4bc 7416 25ba
00000030: 09bc 3cbe 3bc8 efbd 868b 9fbd 3249 943c
00000040: 4ce0 d53d 3f1a ed3d 2d79 eabd ff93 6dbd
00000050: 66bd eb3d fd62 333e 08e6 42bc d476 273e
00000060: ee11 9f3c 3695 3b3d 0352 513e d06f fdbd
00000070: 4739 89bd af71 01bd 8d13 8fbd ef87 2a3e
00000080: 72c0 fcbd f096 b0bd faff ecbd 3de6 39be
00000090: 18f1 e7bd 099d 203e a925 f13d 98ac 063e
000000a0: 2524 063c 4ae0 c4bd 04f6 023d 7f3f 33be
000000b0: 1f43 febd 7d3e b5bd 3796 013e 2608 0c3e
000000c0: 20d5 48bd 5b93 233c e293 1b3e d631 573e
000000d0: 9a75 023e ce46 5a3d 33fe 223e d05b 41bd
000000e0: 3b8d 863d 89c5 1fbe c254 07be e929 cfbd
000000f0: 74f0 b23d 2b63 983d bf0a babd f5fb 3d3d
00000100: 9712 d73d 7cbf 11bd c306 d83c 2b8a 893d
00000110: 05aa e13d e0ba 373e 1f21 15be 8892 91bd
00000120: 473e bf3d 3cb0 113e 91fe 2b3e 8eb0 3c3e
00000130: e11f 973d 28b2 27be b152 203d 62fd ecbd
00000140: bc4f 1cbe f5f4 403e 4d65 343e b6d2 12be
00000150: e318 183d b1ec 21bd f506 eabc 9237 b9bd
00000160: dd34 763d fef5 d6bd 92b8 913d 32f0 ab3d
00000170: 0827 0c3e 158f 2e3d 4fb6 40be 2918 01be
00000180: 6e48 a63d 2d80 043d ccf5 16be b883 e1bd
00000190: 0682 313e 8c0e e83d 07c7 bcbd c13f 0fbd
000001a0: 202e 3abe f9cd 833b a946 12be 33a0 17be
000001b0: fa87 3a3c b8b2 093d 4ff7 91bd 9537 fa3d
000001c0: 8542 c9bd fe90 303e 6a0e f93d 326a 23be
000001d0: 1296 47bd 3649 cd3b 14ec 0e3d 9e92 1c3d
000001e0: e542 a13d e600 353b 0ceb c3bd 67e3 e93d
000001f0: a7b5 39be 9c69 e6bd ecc5 41bd fbf4 c9bd
00000200: 6a3f 83bd 0f89 24be 882f 24bd f562 6d3d
00000210: 0df6 ccbd 3842 ec39 9829 243e bde2 51bc
00000220: 95e9 103d 8fe0 a83b 892d 653d 2f61 233e
00000230: 4eb2 643e 4173 0b3e 8d56 3f3e 79e9 44bb
00000240: 31ca 1ebe 8413 a0bd b7e5 2d3e 29db c2bb
00000250: ed5d a5bd f93e 23be 7abe 18be f51e fdbd
00000260: b7ed 08bd 0b53 eb3d 523f d13d 1bc4 30be
00000270: 0d0b 183e 7ce2 16be c9b5 ebbc d043 60bd
00000280: 2f68 7d3c 8f84 72bc 4448 13be e934 0dbe
00000290: 4990 ce3c 3a05 063d feee 51bd f802 073e
000002a0: 994f 44be d9d3 29bd 5af9 173e 8995 a2bd
000002b0: 414c 1d3e fd79 703d 6ba4 2ebe b537 e33d
000002c0: 6e18 babc 64dd a6bd b534 0f3e 007f 1fbe
000002d0: f379 403b dc87 2cbd 8931 0a3e 8d27 533d
000002e0: 5480 a53d 4582 613d 5ad4 43bd 9fd7 2fbd
000002f0: 9431 20be cb4e a73d 4790 163e f45d e63d
00000300: b377 09be 0258 2b3b 5abb 0abe 44e9 f0bd
00000310: 8d15 9fbd 95c9 8b3d b646 e2bd b0d0 d5bb
00000320: cf57 783c 90d6 013e bca9 09be d88d 10be
00000330: 2e84 fabd 7c1d 003e 005c 81bd 66ea 443e
00000340: af1c 6f3d a627 d03c 0064 b8ba a85f 04bd
00000350: f024 393d 53d2 2bbd 4762 d9ba 66a9 063d
00000360: 2931 0abe 9280 d0bd 1070 363e 3d83 10be
00000370: 18b4 d33c 29e9 573e e4d6 c43d 109f 673d
00000380: 2f7a f8bd ab94 d83d 887b ffbd 1388 3fbd
00000390: 83a0 7cbd da80 b6bc 6af5 233d 40fc 213e
000003a0: 7351 1d3d 74c0 2a3e 6836 143e 5f12 e1bd
000003b0: f231 ba3d 1ba2 0dbe 1209 a4bd 9a72 8a3d
000003c0: bffb c03d f294 153e 0e2c 42bd 89d9 a43c
000003d0: 88be 143e 5df8 3cbe 14c9 2a3e 0590 1bbe
000003e0: 0c5e 623d 4a8b a9bb 9dfc a0bd 04ed a23d
000003f0: b0ab 063e 9207 8ebd 183e f7bd e30e 9ebd
0.03736029 0.11590944 -0.14616038 -0.13479623 -0.060797755 0.05770175 0.035006225 0.15087338
-0.00030903862 0.04558623 -0.02788079 -0.0006297596 -0.18431105 -0.11708113 -0.07790284 0.018101308
0.10443172 0.11577272 -0.11448894 -0.05800247 0.11510734 0.1751823 -0.011895664 0.16353923
0.01941773 0.045796596 0.20441441 -0.12374842 -0.06700378 -0.031602558 -0.06986151 0.16653417
-0.123413935 -0.08622539 -0.11572261 -0.18154235 -0.11325282 0.15684904 0.11774761 0.13151777
0.008187328 -0.09613092 0.0319729 -0.1750469 -0.12415146 -0.08849809 0.12654959 0.13674983
-0.049031377 0.009983863 0.15193132 0.21015105 0.12740174 0.05329018 0.15917282 -0.0472067
0.06569906 -0.15602697 -0.13215926 -0.101154156 0.08737269 0.0744079 -0.09084081 0.046382863
0.105015926 -0.035583004 0.026370412 0.067158066 0.11018757 0.17942381 -0.14563416 -0.07108027
0.0933805 0.14227384 0.16796328 0.18426725 0.07379127 -0.16376555 0.03914136 -0.115717664
-0.15264791 0.18843444 0.17616768 -0.14338192 0.03713311 -0.039532367 -0.02856777 -0.09043802
0.060109008 -0.10496138 0.07115282 0.08395423 0.13686764 0.042616922 -0.18819545 -0.12606873
0.081192836 0.0323488 -0.14742202 -0.110114515 0.17334756 0.113308996 -0.09217649 -0.03497291
-0.18181658 0.0040223566 -0.14284767 -0.14807205 0.011384958 0.033617705 -0.071272485 0.12217633
-0.09827141 0.1724281 0.121609524 -0.15958479 -0.048727103 0.006264831 0.03489311 0.038225763
0.07874087 0.0027618944 -0.09566316 0.11420327 -0.18135701 -0.11250612 -0.047307894 -0.098611794
-0.0640858 -0.16067909 -0.04008439 0.0579557 -0.10007868 0.00045062765 0.16031492 -0.012810406
0.03537901 0.0051537226 0.05595163 0.15955041 0.22333643 0.13618185 0.1868536 -0.0030046387
-0.15506817 -0.07816222 0.1698216 -0.005946536 -0.080745555 -0.15941991 -0.14916411 -0.1235942
-0.033429828 0.114904486 0.102171555 -0.17262308 0.14847966 -0.14734834 -0.028773205 -0.05475217
0.015466734 -0.014802112 -0.14383036 -0.13789715 0.025215285 0.03271983 -0.05125331 0.13184726
-0.19170989 -0.0414618 0.14841214 -0.07938678 0.1536112 0.058710087 -0.17054908 0.1109461
-0.022716727 -0.08147696 0.1398495 -0.1557579 0.0029369562 -0.042121753 0.13495459 0.05155139
0.08081117 0.055055875 -0.047809936 -0.04293024 -0.15643913 0.081693254 0.14703475 0.11248389
-0.13424568 0.0026144986 -0.13548031 -0.11763242 -0.07767782 0.06825558 -0.11048643 -0.0065251216
0.015157654 0.12679505 -0.13443655 -0.14116609 -0.122322425 0.12511247 -0.06316376 0.19230041
0.058376964 0.02540953 -0.0014067888 -0.032317787 0.045201242 -0.041948628 -0.0016585075 0.032876395
-0.13495316 -0.10180773 0.17816186 -0.14112563 0.025842711 0.21085037 0.096113 0.05654818
-0.1213268 0.10575231 -0.124747336 -0.04676063 -0.061676513 -0.022278238 0.040028967 0.15818882
0.038407754 0.16674978 0.1447388 -0.10989832 0.090915576 -0.1383137 -0.080095425 0.0676014
0.09423017 0.146076 -0.047405295 0.02012326 0.14525807 -0.18454118 0.16678268 -0.15191658
0.05526547 -0.0051740753 -0.07860682 0.079553634 0.13151431 -0.06935038 -0.1207239 -0.07717683

opp_actors.0.fc1.bias f4 [64]
00000000: f2b3 423e 773e 183e 52aa d23d dfb0 36bd
00000010: 0947 f83d 0411 0e3e 7cb6 283d 725b fb3c
00000020: 0712 913d 7d10 cebc a99d bdbd 514b bf3d
00000030: 6f46 f1bd e59f 0f3e 9a2f 86bd f544 8abb
00000040: 5dca e4bd 022a 473e 966b 9ebd 2421 123e
00000050: 4a5d 063e 8338 3b3e 55d1 bc3d b4ac 203e
00000060: d9f6 463e 3c1f a43d 1f62 d93d 601a fdbd
00000070: 94ae 81bd d713 f03c 58ce 803d 534d b0bd
00000080: 94f6 2cbe 31da e3bc d999 6e3d 84cf 593e
00000090: fac7 31be c890 0d3e d07c 1abe db66 42be
000000a0: a839 05be f85e ee3c 6520 b33d bb82 e0bd
000000b0: 6b87 413e fc0e 553e 5ed9 813d 13f1 4b3e
000000c0: d58d 6fbd 64f1 35bd 3abe f2bc ed78 953c
000000d0: 4d52 c5bd 38ee f5bd 402d b53d 226e b53c
000000e0: c8e9 623e c521 f6bc 0bda e73d 2e12 2dbd
000000f0: 84ff 9b3d 1be7 e93c 3b45 403e 59aa 153e
0.19013956 0.14867578 0.10286392 -0.04460227 0.12122924 0.13873678 0.041189656 0.030683253
0.070835166 -0.025154347 -0.09258587 0.09340537 -0.11781012 0.14025839 -0.06552048 -0.004219646
-0.1117141 0.19449618 -0.07735364 0.14270455 0.13121524 0.18283276 0.092196144 0.15690881
0.19430102 0.0801377 0.10614418 -0.12358546 -0.06332126 0.029306335 0.06289357 -0.086084984
-0.16890937 -0.027814003 0.05825219 0.21270567 -0.17361441 0.13824761 -0.15086675 -0.18984549
-0.13010275 0.029098019 0.08746413 -0.10962435 0.18899314 0.20806497 0.063402876 0.19916181
-0.05848487 -0.04441966 -0.029631723 0.018246138 -0.09634838 -0.12008327 0.088465214 0.022147242
0.22159493 -0.0300454 0.11320885 -0.042253666 0.07617095 0.028552582 0.1877641 0.14615764

opp_actors.0.fc2.weight f4 [64, 64]
00000000: c460 053e 7c4b c33d 419c c93c 5924 033e
00000010: a873 31bd 9781 183e 8066 033e 75e1 0a3e
00000020: a29e 02bd a7a6 25bd 8856 9a3c b0f0 963d
00000030: f95b a73d 5f95 9f3d 261c 143e 5030 803a
00000040: 5b6b 13bd 93a6 953d 276f 923d 0abd 06bd
00000050: 79bb 3e3d e961 83bd 6046 bfbb 329f b9bc
00000060: c0de 0f3e ea2e c8bd 91ae 21bd 8a0a d6bd
00000070: f94e f83c d9e1 84bd ad14 823d a966 a1bd
00000080: 7f74 9fbd 6592 2fbd b9b2 543d 0852 1b3e
00000090: f714 f43d f653 d73c 493c d3bd 7062 20bd
000000a0: 27ff 30bd fc80 3d3c 1a7a 9e3d 96aa bd3d
000000b0: b722 bb3d 8126 8c3d 1f7d 1bbc 5c83 143d
000000c0: 42cc 0c3d 3596 70bd 3ddd 213c eb31 1f3c
000000d0: 8e18 b4bd 1f22 ce3d 608f 5e3c 4d1b bbbd
000000e0: 2b51 053e 431c 09bd 7a1a 933d a61f 223e
000000f0: 09a1 303c fa5a 6e3d ae33 a83d d577 023e
00000100: e017 1dbd 5a0e 90bd 2045 20bc 8034 c83d
00000110: 4017 303c 28df b13d 00a0 73ba 8817 1d3d
00000120: 606d 8e3b 4061 5e3b 569d f3bd d0cd dfbd
00000130: 2040 2a3c f467 7d3d faf7 ab3d e0b8 b13b
00000140: b0d1 573d 2c23 563d 1afe dcbd c801 e1bd
00000150: 147d c6bd c0d7 0c3b 7edf a1bd c0d8 23bd
00000160: 7034 99bc 48c3 473d 706c ed3c 2a7c ed3d
00000170: dee8 e63d 2251 a3bd 0076 ceb9 0819 a93c
00000180: d47c df3d f8ad 1ebd 9437 49bd 302a a2bd
00000190: eea2 bc3d b40d 11bd c4c1 3fbd 8e26 ad3d
000001a0: d88f eb3d 609c acbb ba74 b4bd c295 d03d
000001b0: 401b 2fbd 3cf1 6bbd 60f9 b3bd 203d 76bd
000001c0: 827d c8bd 50c4 93bd 8c34 e9bd d863 cebc
000001d0: ccdc 4d3d 0c56 c2bd 000c 37b9 58ce 3cbd
000001e0: 4ca7 773d 22ba dd3d 98be 87bc 40d8 80bd
000001f0: 84b3 c4bd d467 96bd 84d3 133d 30f3 ea3c
00000200: 02f8 723d 237a cabc d2c2 773d c2a6 efbd
00000210: 638f df3c 3b10 e73d 2229 06be 510a 8abd
00000220: 2345 933d 27cc c1bc b65e 94bd 41e6 843d
00000230: 4daa 663b 0e80 1fbb 5230 7abd 365c b33d
00000240: 32e6 833d 90d8 833c 919c f13b e568 4c3d
00000250: 61ba 8c3d bcc0 71bd 8e76 bcbc b973 3d3d
00000260: a5bc 8fbd 152f de3d 2003 c4bd 733d 393d
00000270: 9692 c5bd acef f73c b975 9c3d 9f15 333c
00000280: 482a b4bc 96e2 863d da94 cfbd 2566 bdbd
00000290: d76f d9bd d138 b3bd 332d 25bb d1ab 69bd
000002a0: a17c e73c 625e 62bc a394 bb3d 640b 6ebd
000002b0: acf2 37bd 0cf3 983d ac1a 2ebd 4416 e03d
000002c0: 1521 5ebd 4c23 d9bb ba20 21bd cfda 413d
000002d0: 414b 0e3d 1a8d 97bd 81c3 953d 29e1 3ebc
000002e0: adae 24bd e5d9 98bc 20ca a13d 424f db3d
000002f0: 5b53 693d a55b 403c c92c 933d d2bf 7abd
00000300: a48c f3bc 7cda a23b c66a 42bd 54ea b83d
00000310: a7bb 523d aa1b a13a 0f17 43ba 3a94 e83c
00000320: 0243 103e f842 1b3e 43db 90bd 3e52 c03d
00000330: ec0c a53d dd14 b03d 6382 133d f965 a13d
00000340: f7a8 3b3d 2599 263e 5966 86bd 0544 053b
00000350: 3366 1abd ed81 8dbc 3ffe 8d3d f636 e43d
00000360: dfbb 54bd cba4 da3d 5796 1c3e e2a9 02bd
00000370: 9a43 043d e371 8bbc 6d64 723d 6d90 22bd
00000380: 32c2 14bd ce41 51bd a33f 76bd 48ac 163e
00000390: be58 f4bb 2e02 373d bdab 0dbd d2df bd3d
000003a0: a5c8 88bd b801 aaba e663 68bd c2a5 76bd
000003b0: adde 223e fe5e 5abd 2f5b 183d 1a5c 493c
000003c0: e5bc a43d d2b1 543d 08f6 62bd 004d 133e
000003d0: e304 b5bd e91d 323d 5693 d93c 07b8 a7ba
000003e0: 7477 013e 8ee1 1e3e c3b9 673d 3d94 d7bb
000003f0: 969b d23d adc2 e43d 2400 8a3d c1d1 523c
0.13025194 0.09535882 0.02461064 0.12806834 -0.04332319 0.14893185 0.1283207 0.13562568
-0.031889565 -0.040442135 0.01884009 0.07370126 0.08171839 0.07792162 0.14463863 0.0009780023
-0.035991054 0.07307162 0.07150107 -0.032895125 0.046565507 -0.06415159 -0.005837247 -0.022658918
0.14049816 -0.09774573 -0.03947312 -0.10451229 0.030311095 -0.064883895 0.063516 -0.07880909
-0.07785892 -0.042864222 0.051928256 0.15168011 0.11918061 0.026285153 -0.10314233 -0.039156377
-0.043212082 0.011566397 0.07738133 0.09261052 0.09137481 0.068432815 -0.00949028 0.036258087
0.034374483 -0.058737 0.0098794075 0.009716491 -0.08793746 0.10065102 0.013583988 -0.091360666
0.13019244 -0.033474218 0.071827844 0.15832385 0.010780581 0.05819223 0.08212982 0.12741025
-0.038352847 -0.07033987 -0.009782106 0.097756386 0.010747731 0.08685142 -0.0009293556 0.03835252
0.0043465346 0.0033932477 -0.11895244 -0.109279275 0.010391265 0.061866716 0.08396907 0.00542365
0.052690208 0.052279636 -0.107906535 -0.10986668 -0.096918255 0.0021490902 -0.07903956 -0.04000163
-0.018701762 0.04877022 0.028982371 0.11595948 0.11274885 -0.07974459 -0.000393793 0.020641819
0.10912481 -0.03874013 -0.04912527 -0.07918203 0.09210764 -0.03541346 -0.04681565 0.08454619
0.115020454 -0.005267665 -0.08811326 0.10184814 -0.042750597 -0.057603106 -0.08787799 -0.060116887
-0.09789564 -0.07215178 -0.11386976 -0.025194094 0.050259396 -0.094890684 -0.0001745671 -0.046095222
0.06046228 0.10826518 -0.016570374 -0.062912464 -0.096045524 -0.073440224 0.03609039 0.028680414
0.05931855 -0.024716442 0.06048853 -0.117017284 0.027290052 0.112823926 -0.13101628 -0.06740249
0.07190921 -0.023656918 -0.07244627 0.0648923 0.0035196722 -0.00243378 -0.061081238 0.08757822
0.06440391 0.016094476 0.0073734005 0.049904723 0.068714865 -0.059021696 -0.02300575 0.04625294
-0.07018403 0.10848824 -0.095709085 0.04522462 -0.096471 0.030265652 0.07639641 0.010930448
-0.021992818 0.065861866 -0.10135813 -0.09247998 -0.10617035 -0.08751071 -0.0025203943 -0.057048623
0.02825767 -0.013816448 0.091592096 -0.05811633 -0.044909164 0.074682325 -0.042505905 0.10941747
-0.05423077 -0.006626522 -0.03933785 0.047327813 0.034739736 -0.0739996 0.0731268 -0.011650362
-0.040205646 -0.018658588 0.078998804 0.107084766 0.05696426 0.0117406 0.071862765 -0.06121809
-0.029730149 0.004969893 -0.04746511 0.090290695 0.05144849 0.001229157 -0.00074420957 0.028390992
0.14088061 0.15162265 -0.07073071 0.093906865 0.08059105 0.08597729 0.03601302 0.07880778
0.045815434 0.16269358 -0.0656249 0.0020334732 -0.03769512 -0.017273868 0.06933259 0.111432955
-0.05193698 0.10675963 0.15291725 -0.031900294 0.032291032 -0.017022079 0.059177805 -0.039688516
-0.03631801 -0.051088147 -0.060119282 0.14714158 -0.007456868 0.044679813 -0.03458761 0.09271206
-0.06678895 -0.0012970483 -0.056735896 -0.060216673 0.15905257 -0.053313248 0.037196334 0.012290025
0.08043841 0.051927395 -0.055410415 0.14384842 -0.08838823 0.043485556 0.026559513 -0.0012795933
0.12643224 0.1551573 0.05657364 -0.0065789507 0.10283582 0.11169944 0.06738308 0.012867392

opp_actors.0.fc2.bias f4 [64]
00000000: 3dcf a13d b20e 8dbd 8e57 7dbd 1263 963d
00000010: dc75 ee3d c5f3 6bbc 771d b63d 95ac aebc
00000020: a4ce 963d 1604 103d 8590 0abd 910e c53d
00000030: 6341 28bc fef1 bcbc d2b6 2e3c 36ec 593d
00000040: 4ea0 1b3e 5f29 183e f62d fa3d e9a0 1ebd
00000050: 3e60 123e 1b0d b63d 5cfc 603d 1e30 8cbd
00000060: 9f33 08bc 6b28 aa3d 0263 e23c db08 1ebd
00000070: fbea 2fbd a0c5 003e 7ab3 053d ed5c 5b3d
00000080: 74fd 863d aae3 d53d 91f8 80bd 9b01 e83c
00000090: 1646 133e 2f98 6d3a 8eeb bfbd d2b7 98bd
000000a0: e244 c33d 09ce c53d 92fd 9c3d 4879 5bbd
000000b0: cd70 69bd b96f f7bd d494 1c3d 9ab6 87bb
000000c0: 70a9 143e 27f9 7ebd b6ea f1bc aa12 163d
000000d0: 8cd1 17bc 5743 adbc 118c 143e 54df e03d
000000e0: 37a1 fabd 2722 3f3d 5dbe c0b9 1fd7 2d3e
000000f0: d054 f3bd 30df 893d 44e4 fdbd 277e fbbd
0.07900856 -0.068875685 -0.061851077 0.07343115 0.11643574 -0.014401381 0.08892339 -0.021322528
0.07363632 0.035160147 -0.03382923 0.09621919 -0.010269496 -0.02306461 0.010663705 0.053203784
0.1519787 0.14859532 0.122157976 -0.038727675 0.14294526 0.088892184 0.05492817 -0.06845115
-0.008313089 0.0830849 0.027635101 -0.038582664 -0.042948704 0.12575388 0.032641865 0.053555418
0.06591311 0.10443814 -0.0629741 0.028321078 0.14382204 0.00090635096 -0.093711 -0.07456936
0.09534623 0.09658439 0.07665552 -0.05358246 -0.05699234 -0.12081856 0.03822787 -0.004141641
0.1451776 -0.06224933 -0.029530864 0.036638893 -0.009266268 -0.021150274 0.14506556 0.109800965
-0.122377805 0.04666343 -0.00036762925 0.16976593 -0.11881411 0.06732023 -0.12397054 -0.12279921

opp_actors.0.fc3.weight f4 [64, 64]
00000000: 3082 33bd ded8 f4bd e990 723a 8c52 fb3d
00000010: bebd 5bbc 0e6b b2bd 5032 323c 7ff6 92bd
00000020: 9638 da3d e2df 523d f15a eb3d ab8b 943d
00000030: 2e30 8d3d 7e7e a03d 18db 133e 2536 90bd
00000040: a71a 69bd c24f ef3d 796a 843d a67c 133e
00000050: 25c8 473d e211 963d 7b04 cc3d f8f2 ab3d
00000060: 8669 ce3d 304e 89bd db8c 743d e647 aebd
00000070: a51f 403d 6bf2 b33d b4c4 0abd 4e36 053e
00000080: eac3 113e 1339 733d 8a39 abbd e3b7 da3c
00000090: 508e eb3d 9c89 213d 21b4 e03d a032 143c
000000a0: 4fbe 21bd 887d ce3d 29bf 4a3d d1bb 963d
000000b0: 9d14 99bd 721d babd 37c1 da3d b045 623d
000000c0: 4c8e e33d 05d1 d5bd d189 d5bc 09aa b23b
000000d0: 1dbc 39bd 8592 aa3d 3cec ee3d 24ab 033e
000000e0: 1240 ac3c 00cf b4bd 7008 febc 3216 4a3d
000000f0: df39 febc 19e3 7b3d 38de 30bd 5574 d33d
00000100: b733 0c3e 30a7 fd3d 8198 4f3d b27c 61bd
00000110: d2e3 2ebb 52d5 6dbd d463 af3d 5fef e93c
00000120: 012f a13d 0760 a63d ccf2 0bbd 2c07 383d
00000130: a7dc 5c3c d434 7c3d 278a 31bd 6a0e 423c
00000140: a836 fb3d 4c66 c03d a44c 4fbd f5ca 133e
00000150: 94d5 a2bc d967 1a3e 4660 b83b 7c8d fa3d
00000160: d485 ee3d b265 033d b101 e93d 88c6 da3d
00000170: be04 69bd 8360 4f3d 7f9c c23d ecb6 8b3c
00000180: 4d95 f83d 59fe 063e a0bc bebd 2201 cd3d
00000190: cd6c b7bd 5164 cc3d f22a 8dbd ec5a 1fbd
000001a0: 3243 6a3d 64d9 a4bd 691b cd3b 107a 23bd
000001b0: c2a5 213d 2bca 54bb 2f1f aabd 399f a8bc
000001c0: bed0 3e3d 7fb6 8b3d 8aef e4bc c6cf 84bd
000001d0: 3f90 a93d 01f7 88bd 1ddb c4bc d7fe c6bd
000001e0: 2a9d dfbc e470 92bd 34d4 243d 05eb 043e
000001f0: f9db 6c3d aa8d c2bd 14bd c83d b9c5 e4bd
00000200: 482a a8bd 92a0 8f3d 983f 373d cd9b 003d
00000210: 358b 86bd 8733 efbd 125d 22be 1d0b 27bd
00000220: 402b 23be 8344 0bbe b8f1 9d3d 9a69 56bd
00000230: 781a 1a3b 3eef 1cbe ac74 03bd 90d4 d43d
00000240: cb1c 15bc d760 43bc c5de dfbd dd43 0ebe
00000250: 7808 1e3d 6360 21be 28dc 39bd 8df3 d1bd
00000260: 41fb 40bd 60e9 32be a3d1 1a3a 9890 60ba
00000270: 5034 08be 8174 a2bd 6ba1 73bd b9a4 bfbd
00000280: 22eb b0bd f459 92bc 8039 b0bd cbcd 04bc
00000290: debe 09be b532 ad3d 565a 9dbd ccb6 593d
000002a0: cc7f f0bd 918a efbd b9e7 e3bc fb39 a5bd
000002b0: 2c19 0fbd 3275 70bd 29a5 98bd ccdd f3bd
000002c0: ed08 b63d 6c9e 903d 2478 c8bd bebd a53d
000002d0: 0b72 bebd 7da2 ecbd 644b 273c bbd0 9cbd
000002e0: 499a bb3d 8aee 9dbd 4c1a febd e016 923d
000002f0: d050 cd3c 67e9 e73c 4977 3ebc e976 cbbd
00000300: 7a79 cc3c 0000 b139 e6fe b3bd 9668 623d
00000310: 4a3b 08be 970e afbd 8acf 3bbd a5fc 10be
00000320: bde7 03be f528 89bd 8627 e3bc 3d0d 9e3d
00000330: f542 223d daf4 b43d ccca 893c 9f19 083c
00000340: 8bd9 21bd c7fb 8dbd 01c8 01be c13b 0ebe
00000350: 485e 1e3d 1dcd d3bd d421 8dbd d92b 683d
00000360: 0885 d4bd aed7 9d3c a060 b9bc e66a cc3c
00000370: 784b a9bd 1270 9b3d 9383 e1bd 6602 08be
00000380: d01a 943d f25b d3bd 5a34 ec3d adf5 143d
00000390: 0567 123d 7d5c d0bc 3878 bf3c a04c 033d
000003a0: b9ea 93bd 15b8 9d3d 0fd8 8b3d c54e d83b
000003b0: 780a 133d 8152 94bc fc82 7dbd 9572 c9bd
000003c0: 0764 80bd 1bd8 f4bd 953d 87bd f73c 643d
000003d0: 03cc df3d bc8f edbd 1060 efbd d376 b33d
000003e0: b19b 3ebd 3980 71bc 382d 8b3d 2ca0 c23d
000003f0: 0a87 3f3d 763b c13c 8eb3 4a3c 9d0c 4e3b
-0.04382533 -0.11955427 0.00092531607 0.12271604 -0.013411937 -0.08711825 0.010876253 -0.07175922
0.10655324 0.051483043 0.11491955 0.07253202 0.06893955 0.078366265 0.14439046 -0.07041577
-0.056910183 0.116851345 0.064656205 0.14403018 0.048774857 0.073276296 0.09961792 0.08395952
0.10078721 -0.06704366 0.059704643 -0.08509807 0.04690518 0.08786472 -0.033878997 0.13008997
0.14234892 0.059380602 -0.08360584 0.026699012 0.11501753 0.039437875 0.10971857 0.009045273
-0.039488133 0.10082537 0.04949871 0.07360042 -0.07474635 -0.090876475 0.10681384 0.05524224
0.11111125 -0.10440258 -0.026066693 0.0054523987 -0.045345414 0.08328728 0.11666152 0.12858254
0.021026645 -0.088285446 -0.031009883 0.049337573 -0.031033454 0.061495874 -0.043180674 0.10324923
0.13691603 0.12385404 0.05068255 -0.05505056 -0.0026686084 -0.058064766 0.085639626 0.028556524
0.078702934 0.081237845 -0.034167096 0.044928715 0.013480342 0.06157382 -0.043344643 0.011844257
0.12266284 0.093945116 -0.0506102 0.1443289 -0.019877233 0.15078677 0.005626711 0.12234017
0.116466194 0.032079406 0.11377276 0.10682398 -0.056889288 0.05062915 0.095025055 0.017054997
0.12137852 0.13182963 -0.09313321 0.10009982 -0.08956299 0.09980071 -0.06892957 -0.03890507
0.05719299 -0.080492765 0.006259371 -0.03991133 0.03946472 -0.0032469134 -0.08306729 -0.020583736
0.04658579 0.06821918 -0.027946252 -0.06484942 0.08279466 -0.06687737 -0.024030263 -0.097165756
-0.027296621 -0.071504384 0.040241435 0.12980278 0.05782697 -0.094996765 0.09801689 -0.11170525
-0.082111895 0.07013048 0.044738382 0.031398583 -0.065695204 -0.1167975 -0.15855816 -0.040782083
-0.15934467 -0.13600354 0.0771212 -0.052346803 0.0023514312 -0.15325639 -0.03209369 0.103921056
-0.009101103 -0.011924944 -0.10931162 -0.13893075 0.038582295 -0.15759425 -0.045375973 -0.10251532
-0.047114614 -0.17471838 0.0005905872 -0.0008566468 -0.13301206 -0.079323776 -0.059480112 -0.0935759
-0.08638598 -0.017865159 -0.08604717 -0.0081057055 -0.13451716 0.08456937 -0.07683246 0.053152844
-0.11743125 -0.11696351 -0.027820455 -0.080676995 -0.034936115 -0.058705516 -0.07453377 -0.11907539
0.08888421 0.070614666 -0.0978854 0.08092831 -0.09299096 -0.1155443 0.010210846 -0.07657
0.09160287 -0.07711513 -0.124073595 0.07133269 0.025062948 0.028309537 -0.0116251195 -0.0993479
0.024960268 0.0003376007 -0.087888524 0.055275522 -0.13303867 -0.08547705 -0.04585222 -0.14158876
-0.1288137 -0.06697265 -0.027728807 0.07717369 0.039614636 0.08835764 0.016820334 0.00830689
-0.039514106 -0.06932788 -0.12673952 -0.13889982 0.038664132 -0.10341857 -0.06891218 0.05668244
-0.10376936 0.019267883 -0.022629082 0.024953317 -0.08266348 0.07589735 -0.11011424 -0.13282165
0.072316766 -0.103202716 0.11533423 0.036367107 0.03574278 -0.025434727 0.023372754 0.032055497
-0.07222504 0.077011265 0.06828319 0.006601187 0.035898656 -0.018105747 -0.061892495 -0.09836308
-0.06269079 -0.11955281 -0.06603543 0.055722203 0.10927584 -0.11599681 -0.11688244 0.08762898
-0.046535198 -0.014740043 0.06795734 0.095032066 0.046759643 0.023587923 0.012371911 0.0031440624

opp_actors.0.fc3.bias f4 [64]
00000000: fd37 31bd 6749 043e 28ba fb3c 131f 05be
00000010: abdf c9b9 4009 f2bd ece7 febd d3de aabd
00000020: a922 0d3e 8d0d c4bd 3e84 9a3d 6e28 0fbe
00000030: eacf 743c df34 1b3e f6a4 68bd 6bc7 8dbd
00000040: f016 a8bd f800 f0bd 9dbe 8b3c d06a f4bd
00000050: 3ba5 c4bd 3ffe 043e af14 003e f942 a9bd
00000060: eca1 063d fe62 61bd b68c f03d c389 1fbe
00000070: 8199 07be be73 ae3d 76a0 6e3c 65c9 67bd
00000080: cc38 403d 4d57 7a3d 3a1f 90bd 5506 d83d
00000090: 8a1b c43d 04a7 30bd 4f5a 0fbe adbd aa3d
000000a0: 65a3 c53d e98e 15be 969a 0abe d133 eabc
000000b0: d5f0 08be ef5c a9bd b1e9 f53d ecea 3c3d
000000c0: 333d f03d f8bc 853d 4996 153e ae6e 883d
000000d0: 5099 7f3d b4d5 d43d 110e 19bd 03a7 063e
000000e0: 4d51 39bc 15fd 003e 77ad cebd 7b2a f2bd
000000f0: 268d f83d 1369 c0bd c066 523d 6490 d83d
-0.043266285 0.12918626 0.030728415 -0.13000135 -0.00038504353 -0.118181705 -0.12446579 -0.083432816
0.13782753 -0.09572897 0.075447544 -0.13980266 0.014942149 0.15156887 -0.056797944 -0.069228016
-0.082075 -0.11718935 0.017058665 -0.11934435 -0.09601828 0.12987612 0.1250789 -0.08264727
0.032869264 -0.055026047 0.117455885 -0.15579896 -0.13242151 0.0851817 0.014564624 -0.05658855
0.046929166 0.061118413 -0.07037206 0.10548083 0.09575565 -0.04312803 -0.13999294 0.08336959
0.09650306 -0.14605297 -0.13535532 -0.028589161 -0.1337312 -0.08269679 0.12007464 0.046122476
0.11730423 0.065301836 0.1460811 0.066617355 0.06240207 0.10392323 -0.03736693 0.13149647
-0.0113108875 0.12596543 -0.100916795 -0.11824509 0.12136297 -0.09395041 0.05136752 0.10574415
